saved_models_zach/easyNpySmall/checkpoint_easyNpySmall_1__mode_embed_bl__seed_0_2020-07-17_04:32:46.380493_1150000.tar (torch_old, 17463 bytes, 22 tensors)

gcn.obj_emb.weight f4 [16, 8]
000000 85 1b 90 bf 8a 80 93 bf d6 4b 80 be 5d 25 de be
       -1.1258398 -1.1523602 -0.25057858 -0.4338788
000010 15 45 59 3f 83 27 31 3f 6d cc a1 be c1 5f 07 c0
       0.84871036 0.69200915 -0.31601277 -2.1152194
000020 38 01 a5 3e f4 b4 a1 bf ff 30 b3 3e bb c3 9d 3e
       0.32227492 -1.2633348 0.3499832 0.30813393
000030 77 6f f5 3d 93 6b 9e 3f 8e f2 8e 3f 7c 36 7d be
       0.11984151 1.2376579 1.1167772 -0.24727815
000040 c2 23 ad bf 46 14 d9 bf 04 10 11 3f 5d 23 4b 3f
       -1.3526537 -1.6959312 0.5666506 0.79350835
000050 8b 4d 19 3f 5b 0d c7 bf ca c6 ae be 4e 2f ed 3f
       0.59883946 -1.5550951 -0.3413604 1.8530061
000060 6b 0c 40 3f 2b e3 15 bf eb 8e 31 be a4 e1 3b 3e
       0.7501895 -0.58549756 -0.17339675 0.18347794
000070 c0 d6 b1 3f 00 0d cb 3f 9c 40 72 3f 33 fb 57 bf
       1.3893661 1.5863342 0.94629836 -0.84367675
000080 c8 13 1d bf 64 67 01 3d 28 40 fc be 70 60 7e 3e
       -0.6135831 0.03159274 -0.49267697 0.24841475
000090 d0 1f e1 3e d6 37 e6 3d f8 0a 24 3f 3c df e1 3e
       0.43969584 0.112411186 0.64079237 0.44115627
0000a0 b9 87 d1 bd 9c dd 4a 3f 53 4f 94 be 17 12 57 3d
       -0.10230965 0.792444 -0.2896677 0.052507486
0000b0 2f da 05 3f 55 57 13 40 b7 04 bc bf 9e 18 cb bf
       0.52286047 2.3022053 -1.4688939 -1.5866888
0000c0 9f 4f 2c bf de 71 5f 3f f4 15 87 3f aa 1c 36 3e
       -0.6730899 0.8728312 1.0553575 0.17784372
0000d0 10 dd 6b be 08 94 c8 be 5d 15 0b 3f 17 52 ca be
       -0.23033547 -0.3917544 0.5432947 -0.39515755
0000e0 94 76 e4 be 24 78 3e 3f 75 af c2 3f ad 45 5a 40
       -0.44621718 0.7440207 1.5209795 3.4105027
0000f0 d9 fd c3 bf 23 f8 9d bf c2 ec e8 3f fc 30 0d bf
       -1.5311843 -1.234135 1.8197253 -0.5515287
000100 3e ba 11 bf 3f 83 6b 3f 39 2f 8e 3f 98 1a a5 3f
       -0.5692481 0.9199714 1.1108161 1.2898741
000110 ce 34 bd bf 8b 4d 24 40 c2 3c f2 be 4f cd ab 3e
       -1.478174 2.5672328 -0.4731198 0.33555076
000120 c1 8d d0 bf 00 bc 0c bf d6 ac f5 be 42 d6 ff be
       -1.629326 -0.54974365 -0.47983426 -0.49968153
000130 d0 92 88 bf 57 b6 8e 3f 2c 0c 10 be de 45 4e 3f
       -1.0669804 1.1149396 -0.14067143 0.8057536
000140 5c 2d bf bd 86 e2 2f 3f d6 9b 56 bf 25 c9 69 3a
       -0.093348235 0.6870502 -0.83831537 0.00089182175
000150 5f 86 57 3f 47 d1 cc be 17 0d 85 3f d8 5f b7 3e
       0.8418941 -0.40003416 1.039462 0.3581531
000160 ac e7 7b be 6e 5c 13 40 31 db f0 bf 90 ae 4b bd
       -0.24600095 2.3025165 -1.8816892 -0.049727023
000170 dc c1 85 bf 3d dd 74 bf b4 58 09 3d 3c c8 35 3f
       -1.0449786 -0.9565008 0.03353186 0.7100866
000180 c5 ab d2 3f 04 1a ae bf e1 6a b0 3e 0d 16 05 3f
       1.645867 -1.3601689 0.34456542 0.5198677
000190 ad 40 27 c0 13 26 d9 bf 37 b8 69 be 43 56 8f 3e
       -2.6133225 -1.6964744 -0.22824179 0.279955
0001a0 46 da 7c 3e ef 76 9d 3d 19 0f ad 3e 59 a7 e8 3e
       0.2469264 0.076887004 0.3380058 0.45440176
0001b0 0f f4 e9 3e fa 88 5d bf cc 03 48 3f 12 42 6d bf
       0.45694014 -0.86537135 0.78130794 -0.9267894
0001c0 f0 15 60 be 1c d8 1b c0 55 54 95 bd 55 35 0b bd
       -0.21883368 -2.4350653 -0.07291476 -0.03398641
0001d0 99 67 76 3f 2e c6 b2 3e ef e4 6b bf 81 2c 66 bd
       0.9625183 0.34916824 -0.921462 -0.056194786
0001e0 2b 69 1f bf fe 6c ed be f7 fc f5 3f 73 1a ce be
       -0.6226985 -0.46372217 1.9217824 -0.40254554
0001f0 95 c0 fd 3d a0 17 95 3f 35 62 6c 3f e4 92 b1 3f
       0.12390248 1.1647835 0.9233735 1.3872952

embeds.weight f4 [20, 8]
000000 3a 9d 84 bf 38 bb 0c 3d 9c c6 3b bf fa 6c ef 3e
       -1.0360482 0.034358233 -0.7334993 0.4676283
000010 3d 9d 6f 3f dd 79 9e 3e e2 af e8 3f 96 01 9d bf
       0.935993 0.3095235 1.8178675 -1.2266109
000020 30 5f 1b bf 62 fc 7c bd 16 1b 1a bf 29 87 ae bf
       -0.6069212 -0.06176413 -0.6019758 -1.3634998
000030 81 a5 74 be 39 6a e7 bf 21 c3 23 3e f1 1a 25 bf
       -0.2389126 -1.8079292 0.15992405 -0.64494234
000040 f9 01 41 be 20 84 10 3e 70 0d 9c 3e 92 50 9a 3f
       -0.18848409 0.14112902 0.30479002 1.2055838
000050 7b 0f 48 3f 09 c3 cd 3e 73 b1 a6 be 5f 04 86 3e
       0.7814862 0.40187863 -0.32557258 0.2617521
000060 3b a8 da be d5 ee 82 bf 14 d7 04 c0 eb 20 85 3e
       -0.42706475 -1.0229136 -2.0756273 0.26001677
000070 f1 58 87 bf 7f 33 ca 3e 2e 90 ff 3d f3 8c 1b bd
       -1.0574018 0.39492413 0.12478672 -0.037976217
000080 84 80 cf 3f 73 2a c2 bf 61 11 2f be 45 df 98 be
       1.6211095 -1.5169204 -0.17096473 -0.2985784
000090 40 73 9c 3e bc 90 87 bd 82 46 7f 3f 46 11 15 3f
       0.3055668 -0.06619403 0.9971696 0.5822948
0000a0 f1 af 06 3f 85 41 e1 3d 54 c5 0e 3e 01 68 d1 3e
       0.52612215 0.10998825 0.13942462 0.4089966
0000b0 15 fb 5e be 8a 6d 9d bf dc 92 20 3d db 75 98 bf
       -0.21775468 -1.2299054 0.039202556 -1.1910967
0000c0 76 b5 0f 3f 36 1d 5d be 54 55 f6 bf 7d 0d 9a bf
       0.5613626 -0.21593174 -1.924479 -1.2035366
0000d0 33 93 21 3e 31 d8 e5 bd c3 52 97 3f 40 fd c2 3f
       0.15778808 -0.11222876 1.1822132 1.5233536
0000e0 77 11 8a bf 8c 8d 38 bf ef 42 bc 3f 08 20 8d 3e
       -1.078658 -0.72090983 1.4707927 0.275635
0000f0 2a b2 2a 3f 52 90 7e bf 14 3d 98 bf df 14 99 bf
       0.66678107 -0.99438965 -1.189364 -1.1959494
000100 eb 43 0f bf 9c 91 08 3f 71 53 d0 3e 3f 07 ca 3e
       -0.5596301 0.5334718 0.4068866 0.39458653
000110 92 a0 2f 3e 78 44 60 3f 1f fd 92 be 1a c5 82 3f
       0.17151096 0.87604475 -0.2870874 1.0216401
000120 5d 5c 98 bd fc cd 8b bf b0 b7 c8 3e dd 32 18 3f
       -0.07439492 -1.0922236 0.39202642 0.5945261
000130 cb 8a 29 3f 1e 68 9a bf 2b 81 1b 3f 78 12 0c bf
       0.66227406 -1.2063024 0.6074397 -0.5471568
000140 3e e6 95 3f 0e ac c7 3d b7 9f 76 3f 6c 1f 57 3f
       1.1710889 0.09749614 0.96337456 0.8403232
000150 c2 77 a0 bf 4a a1 7c 3f 6d 43 fd be c1 3a a4 bf
       -1.2536547 0.9868361 -0.49465504 -1.283043
000160 6b 89 74 3f 46 4c a4 3f e0 75 2a bf 9a ac 10 3f
       0.95522183 1.2835777 -0.6658611 0.5651337
000170 dc 4d 93 3e ff b3 08 bd f6 eb 87 bf 45 58 ea bd
       0.2877034 -0.033374783 -1.0618885 -0.11442617
000180 b6 c9 af be 35 1f c9 3f b1 36 44 3e bd 87 c2 3e
       -0.3433358 1.5712649 0.19161488 0.37994185
000190 30 3b 14 be ec 3a 23 3f 46 05 90 be 59 39 aa bf
       -0.14475703 0.6376178 -0.28129023 -1.3298751
0001a0 b2 29 30 3f c9 66 eb be 51 b2 e1 be 6e 7f 06 3f
       0.6881362 -0.45976856 -0.44081357 0.5253819
0001b0 16 1a dd bf 71 b1 84 3f 1c e3 9d 3f 43 50 7d bf
       -1.7273586 1.0366651 1.2334933 -0.98950595
0001c0 ad 26 bd bf d5 b9 e0 bf f8 fc 9b 3d ad 0f 8a bf
       -1.4777428 -1.7556711 0.07616609 -1.0786034
0001d0 22 5d b8 3f 35 7f e2 bd 1d ad 13 3f f9 3b 2d be
       1.4403422 -0.11059419 0.57686025 -0.16917409
0001e0 79 1f 83 bd 21 eb 84 3f 96 25 68 3f 8d 76 f3 be
       -0.06402487 1.0384256 0.9068235 -0.47551385
0001f0 0d e9 5e bf 7b 37 14 3e cd 90 f3 3f f5 e1 c7 3e
       -0.8707436 0.14474289 1.9028565 0.3903958
000200 1a 45 21 bd 48 2d 4d bf fc b7 fd be 5f 18 b9 be
       -0.03937254 -0.8014722 -0.4955443 -0.36151406
000210 fb c9 15 3f 06 f8 93 bf 3e ce 12 be 14 6a 47 be
       0.5851132 -1.1560066 -0.14336488 -0.1947406
000220 de 3b af bd a1 7f b2 3f 71 ce 18 3f e6 37 f7 be
       -0.08556341 1.3945199 0.59690005 -0.48284835
000230 47 71 bb be db dc a9 bf ec fe d8 3f 25 31 04 40
       -0.3660986 -1.3270525 1.6952796 2.0654995
000240 9a 92 6f be d0 12 35 3f 08 7e 14 3f e4 5e 89 3e
       -0.23395768 0.7073183 0.5800481 0.26830208
000250 a7 c5 03 c0 94 b5 08 3f a4 0f 09 bf 26 19 5d bf
       -2.0589387 0.53402066 -0.5353949 -0.863665
000260 57 77 c0 bc 47 f9 95 3f ba 20 cc 3e 15 7c 4b be
       -0.023494406 1.1716698 0.39868718 -0.19871552
000270 de f5 93 bf 82 22 a2 be 60 b7 70 3f 68 cf 92 bf
       -1.1559408 -0.31666952 0.9402981 -1.1469545

body.0.weight f4 [8, 8, 2, 2]
000000 ff 73 28 bb 1f 9a 51 3e 89 50 fb be 24 c4 4b 3e
       -0.0025703905 0.20468949 -0.4908488 0.1989904
000010 17 74 00 3d 04 c0 6a be 4d 3e 86 bd 68 ff a4 bd
       0.031360712 -0.2292481 -0.06554852 -0.080565274
000020 04 cb d7 3d ba 79 c7 be 1e 08 97 bc 64 19 10 3f
       0.10536769 -0.38960057 -0.018436488 0.56288743
000030 16 e3 c0 be a4 fe 6a bd ea 70 9b 3e 81 ee eb 3e
       -0.37673253 -0.05737175 0.30359584 0.46080402
000040 d7 88 03 bc 9c d7 3f be 8b fa f5 3e 87 ee d3 3d
       -0.008028231 -0.18734592 0.48042712 0.1034823
000050 50 c9 18 be 04 a6 f2 3e c8 c1 7f 3e e0 75 07 3e
       -0.14920545 0.47392285 0.24976265 0.1322856
000060 2c 98 80 3d 16 89 91 bd eb 83 7c 3d 10 2c 4d 3d
       0.062790245 -0.07106225 0.061649244 0.05009085
000070 5a 9c a4 3c fb af e9 3e 20 e7 5d 3c ce d9 39 be
       0.020094085 0.45642075 0.013543874 -0.18149492
000080 74 dc c7 bd ab 6b 9b bd 6b 04 9e be 62 ea af bc
       -0.09758845 -0.075888954 -0.30862746 -0.021474067
000090 77 20 b8 3e 63 08 e0 3c 18 57 1a 3e ba 2b d4 ba
       0.3596227 0.02734775 0.15072286 -0.0016187348
0000a0 94 47 f5 3d 26 28 0c be 7d ac 61 be d7 1d 81 be
       0.11976543 -0.1368719 -0.22038455 -0.25218078
0000b0 f6 a0 95 3e 51 1a c6 3e 10 d2 42 bd 4d 20 24 3e
       0.29224366 0.38691953 -0.047563612 0.16027947
0000c0 af 74 df 3e 9f a1 4e 3e 83 63 f8 3e 73 f2 3c 3c
       0.4364371 0.20178841 0.4851342 0.011532414
0000d0 c9 68 33 3e a8 f6 89 3e 49 eb b5 bd 15 25 05 be
       0.17520441 0.26945996 -0.08882768 -0.13002427
0000e0 27 74 ea 3d b1 30 71 3e d3 9c 80 3e 32 ff 86 3d
       0.114479356 0.2355373 0.25119647 0.065916434
0000f0 fd db 80 be f4 31 a5 bd b1 61 91 be 63 9c 79 3d
       -0.25167838 -0.080661684 -0.28394845 0.060940158
000100 d2 c3 9b 3c 1a e5 02 bd 5f 3d 7f 3e f8 48 82 be
       0.019014273 -0.03195677 0.24925755 -0.25446296
000110 a3 78 bc 3d e5 a3 30 be a3 ba 7a bc ee 0a 08 3f
       0.09202697 -0.17250021 -0.015303287 0.5314168
000120 1f c3 59 be 78 ac 51 be fc 81 a2 bc 4b af 00 3f
       -0.21265839 -0.20475948 -0.019837372 0.50267476
000130 7c 51 bb bd 88 f0 e0 3d a1 67 64 3d c0 e4 4c 3e
       -0.09146401 0.10983378 0.05576289 0.20009136
000140 6d a8 2a 3e d2 ea 8d be 42 23 d7 3d 8b 91 fc 3b
       0.16665812 -0.27718216 0.10504772 0.0077077798
000150 af 67 3b bd d0 4c 95 be d8 0a e9 be 38 88 34 be
       -0.045753177 -0.29160166 -0.45516086 -0.17630088
000160 2b 0c 8d 3e 9e ac b7 3d c8 be 9c 3e 56 9b 8c bb
       0.27548346 0.08968471 0.30614305 -0.0042909784
000170 28 73 9c 3e f8 a9 6f be 35 1f 21 3d 19 03 8c be
       0.30556607 -0.23404682 0.039336402 -0.27346113
000180 24 ca b6 bb 04 f2 ca 3e 67 c2 05 3f 11 4e 23 be
       -0.0055782963 0.39637768 0.5224976 -0.15947749
000190 34 2a 31 3e cb 7b 17 3c 28 19 31 be 9d a9 f8 3d
       0.17301255 0.009245823 -0.17294753 0.12141726
0001a0 54 7a f7 3c 9c a7 0e be 49 1d 06 3e 08 07 ae be
       0.030209698 -0.13931125 0.13097109 -0.3398974
0001b0 99 f9 92 3e c4 b5 b8 be a8 1f 65 be f6 93 03 3e
       0.28706053 -0.36076176 -0.22375357 0.12849411
0001c0 71 8d ae 3e db 80 a0 3a 2b 33 8c be 57 f1 c7 3e
       0.34092286 0.0012245433 -0.27382788 0.39051315
0001d0 a1 b4 7d 3e 6b ee 9c be b4 15 0e bd 62 31 a5 be
       0.24775936 -0.30650648 -0.034688666 -0.3226424
0001e0 4c 0c 1b 3d c9 8a eb 3d e3 65 79 3d 3e e1 c7 bd
       0.037853524 0.115010805 0.060888182 -0.097597584
0001f0 ea 7b b5 3d 69 fa d6 3e ef b0 43 be 3e a8 18 bd
       0.08861525 0.41987923 -0.19110464 -0.037269823
000200 1d 21 12 be b5 97 03 3f c3 96 9a 3d d5 4f 20 3f
       -0.14270444 0.5140336 0.07548287 0.62621814
000210 55 5f d9 3c e9 5f 5f be 36 20 c0 3e fd b7 1a bf
       0.026534716 -0.2181393 0.37524575 -0.60436994
000220 c0 91 5a 3d 02 b9 8b be 03 74 3d 3d 70 82 2b be
       0.053361654 -0.27289587 0.046253216 -0.16748977
000230 a9 54 f5 3a 7f 5e a8 be 12 e1 53 bb 6e b9 1e be
       0.0018717247 -0.32884595 -0.0032330197 -0.15500423
000240 eb e1 6e 3e 47 18 1b bf 8d 10 a1 bd a0 33 39 bf
       0.23328368 -0.6058392 -0.07864485 -0.723444
000250 0b fa 0f 3e 4a a3 fe be 1d b7 bc bd 98 f7 bc bd
       0.14060228 -0.49733955 -0.092146136 -0.09226912
000260 80 f4 b4 bd b5 d1 0e bf 25 85 79 3d 74 7f b6 3d
       -0.08835697 -0.5578874 0.060917992 0.089110285
000270 30 bd 8b be ff 6a 30 3f 96 1d 37 be c2 a7 bd 3e
       -0.27292776 0.68913263 -0.1788238 0.37042052
000280 58 82 fe bd ba ef e2 be b5 f1 bd 3e 29 de 4a 3d
       -0.12427205 -0.44323522 0.3709847 0.049528275
000290 a5 af 3a be f4 74 21 be e4 aa fb be bb d0 79 bd
       -0.18231066 -0.1576727 -0.49153817 -0.060990077
0002a0 5e c5 93 be 48 c7 37 be 24 c0 e6 be 1b f8 d3 bd
       -0.28861517 -0.17947114 -0.45068467 -0.10350057
0002b0 c2 22 c3 be 12 b6 38 bd 0f 4b 3f 3e bc 39 32 bd
       -0.38112456 -0.04509551 0.18680976 -0.04351209
0002c0 66 4c d9 bd 9a 65 4b 3e ec 9a 15 be b0 4f f2 3d
       -0.10610275 0.19862977 -0.1460988 0.118316054
0002d0 2e 6a 8c be db 6d f2 bd 7e 5c 1b 3e 1a cd 0d 3e
       -0.2742476 -0.118373595 0.15172002 0.13847771
0002e0 80 9e 48 3e 8a 2a 5a 3e d0 bb e6 3d 67 ea 68 3e
       0.19591713 0.2130529 0.11266291 0.22745667
0002f0 b0 04 85 be 87 7b 64 be 4d 7e 80 3d eb fc 3e bd
       -0.2598014 -0.22312747 0.0627409 -0.04662792
000300 78 17 1e be 13 1f 82 3d 1c 4a 60 bf fa 5f 27 be
       -0.1543864 0.06353583 -0.8761308 -0.16345206
000310 4b df b0 be a3 dd ab 3e b5 75 50 be 44 a7 50 be
       -0.3454536 0.33567533 -0.20357402 -0.20376307
000320 31 67 91 bd b0 57 ad bd c7 4d a4 be f9 4b 01 3e
       -0.0709976 -0.08463991 -0.3209059 0.12626638
000330 0f c1 a2 3e cf 98 c7 be 23 04 bd 3e cf 58 6f 3e
       0.31787917 -0.3898377 0.3691722 0.23373722
000340 cc 02 cc be 3a 8c 46 3d 29 02 06 3f 40 9e ea 3d
       -0.39845884 0.048473574 0.52347046 0.11455965
000350 7e f2 b0 bd e0 25 6a 3d 07 a8 4c 3f 4e 2b e2 bc
       -0.08640002 0.057165027 0.7994389 -0.02760854
000360 17 61 6f 3d 83 c9 30 bd 4e 39 9f 3d 5d 38 36 be
       0.0584422 -0.043160927 0.07774602 -0.17794938
000370 5e e6 2c be 6e 09 95 3e 93 2f 0d 3e 18 aa 07 be
       -0.16884753 0.29108757 0.1378768 -0.1324848
000380 8a 58 ff bd 64 9d 49 be fe 16 d1 bd d5 b1 f8 3d
       -0.12468059 -0.19688946 -0.102094635 0.12143294
000390 4e 88 83 be 7b 68 2a be 7d 59 30 3f 1e e0 8d bd
       -0.2568993 -0.16641419 0.6888655 -0.069275126
0003a0 6e fd b7 bd d5 66 4a be af d8 c9 3e a6 03 7e bd
       -0.08983885 -0.1976579 0.3942313 -0.0620152
0003b0 af 34 b1 bd 03 07 a5 3c 3f 24 ce 3e 2e fd 72 3d
       -0.08652627 0.020144945 0.4026203 0.059323482
0003c0 27 45 17 3b 28 a7 e9 bc 91 09 b8 3e 9a 21 0c 3e
       0.002308199 -0.02852209 0.359448 0.13684693
0003d0 e9 2a 2e be 65 d5 bd bd 73 30 da be 8e bd 1f 3e
       -0.17008556 -0.092692174 -0.4261509 0.15599653
0003e0 c3 33 df 3b e8 f6 b0 3b 8e 07 80 be be 0c 86 3e
       0.0068115904 0.0054005273 -0.25005764 0.26181597
0003f0 26 8b 30 be 4e fc 0b bd 29 35 4e be c9 2a 58 be
       -0.17240581 -0.034176163 -0.20137466 -0.21110071

body.0.bias f4 [8]
000000 d4 17 4c 3d b2 3e 6e 3e 0c dd af 39 91 68 8d bc
       0.04982741 0.23266104 0.00033543294 -0.017261775
000010 4d 7a ab 3b c7 11 0a 3f 91 8e 12 be 0f 7a 7d bc
       0.0052330852 0.53933376 -0.14312197 -0.015470996

head.0.weight f4 [32, 16]
000000 99 e5 80 3e d3 6e 55 be ce eb 1b 3d ec 85 cd bd
       0.2517517 -0.20843057 0.038066678 -0.10035309
000010 a1 9f 16 bd 65 31 ac bc 9f 8b 5b 3e 57 a6 c1 3d
       -0.036773328 -0.021019647 0.2143998 0.09455555
000020 1d b0 44 be a4 5d 0e be 86 f5 ab bd 04 6b a9 3d
       -0.19207807 -0.13902909 -0.08396439 0.08272365
000030 80 52 18 be 5e ba 58 3e b2 8e 24 be ca 66 83 bc
       -0.14875221 0.21164843 -0.16070059 -0.016040225
000040 aa 40 2d 3e b5 5c 22 3e 66 c4 da 3d 18 28 30 3e
       0.16919199 0.15855677 0.10681991 0.17202795
000050 49 2c 2f be 4d 2d ae be 2c 6c 19 3f 8d ff 13 3f
       -0.17106737 -0.34018937 0.5993068 0.57811815
000060 54 ea 77 be 60 f7 0b 3d 69 7e 9a 3d 3e 9a 56 bd
       -0.24210483 0.034171462 0.07543642 -0.05239319
000070 61 1b 23 bf cb de 85 be 42 ad 80 bd 54 31 dc bc
       -0.6371365 -0.2614654 -0.06283046 -0.02687899
000080 44 4a d9 be 25 f9 8a be 20 f3 ad be 9c e9 87 3d
       -0.42439473 -0.27143207 -0.33974552 0.06636354
000090 ac 47 4e 3e 63 6c 8e 3d 4e c4 a8 3d 19 e9 4e 3e
       0.20144528 0.06954267 0.08240567 0.20206107
0000a0 7d 5e d6 bd c3 3d 1d bd dd 6a 18 bc 96 95 6b 3b
       -0.10467241 -0.03838898 -0.009302822 0.0035947314
0000b0 9e 21 e3 be 7b 1b b1 bd 47 8d f7 3e 77 73 95 3e
       -0.44361585 -0.086478196 0.48349974 0.29189655
0000c0 28 ac f9 bd 55 bb 09 be 26 13 64 3e 5f 36 b5 3e
       -0.12191039 -0.13450368 0.2227293 0.35393044
0000d0 0b 81 bc 3c 79 e6 2a bc 1a a8 42 3e 39 c0 0c 3f
       0.023010751 -0.0104309255 0.19009438 0.5498081
0000e0 06 04 73 be 9e dc 99 be f5 cd be bd 3c 31 2f bd
       -0.23732004 -0.3005113 -0.09316627 -0.042771563
0000f0 99 89 81 3e 52 96 31 bd 33 dc 64 3e 8b c5 6c 3d
       0.2530029 -0.043356247 0.22349624 0.05780558
000100 ed f1 9b 3e 87 10 a9 3c 89 43 12 3f 1c c5 b9 3e
       0.30458012 0.020637764 0.571343 0.36283195
000110 e9 ac 23 3e 47 93 19 3f 25 1e 0f 3e 4a 9b b4 bd
       0.15983929 0.5999035 0.13976343 -0.088186815
000120 a9 65 e0 3a c7 92 1d 3d 01 c5 e8 3e 8f 71 d5 3e
       0.0017120141 0.038470056 0.45462802 0.416882
000130 b2 2f 55 3c 56 17 59 3e 28 6b d6 3d ce 6a 38 3e
       0.01301186 0.21200308 0.10469657 0.18009493
000140 5f fe 9d be 0f 8b c9 be d2 87 9c 3e 34 55 97 3e
       -0.30858132 -0.39363906 0.30572373 0.29557192
000150 dc 75 bc be 80 63 41 be d9 d2 36 be a6 b2 70 bc
       -0.3680867 -0.18885612 -0.1785387 -0.014691031
000160 a2 7b 9f 3e f9 42 94 3e d3 b0 07 bd b3 3d 45 be
       0.31149012 0.28957346 -0.033127617 -0.19261818
000170 4f 45 4c be a8 02 fd 3d c1 fd 65 be 8a 83 a8 3e
       -0.19948314 0.12354022 -0.2246008 0.32912856
000180 98 a2 f0 bc 51 e0 76 bd 10 e1 eb 3e f0 c3 4e 3e
       -0.029374406 -0.06027252 0.46070147 0.20191932
000190 eb 82 b3 3e 00 cd 52 bd 50 3f 14 3d 58 96 80 bd
       0.3506082 -0.051465034 0.036193192 -0.06278676
0001a0 1e 74 77 3e 99 95 ed 3e 9e 34 47 3e 3a f3 db 3e
       0.24165389 0.46403196 0.19453666 0.42959005
0001b0 c5 de 7e 3e 43 bc 2a 3e 84 9a 33 3e 4c b2 18 bd
       0.24889667 0.16673379 0.17539412 -0.037279412
0001c0 60 aa f5 3d 0f 76 58 3e be 7a 7a 3e 56 83 c2 3e
       0.11995387 0.21138786 0.24460885 0.37990826
0001d0 cc 9a e5 ba 26 ee 74 3e 59 15 62 bd c7 59 81 bd
       -0.0017517447 0.23918971 -0.05519614 -0.06315952
0001e0 ca ca b7 3d e2 cf 8c 3e 32 61 a1 3e e7 bb ce 3e
       0.08974226 0.27502352 0.31519467 0.40377733
0001f0 a5 0c 8e 3e bf fe 08 3e 59 ff 2d 3e 64 4a a0 3d
       0.27744022 0.13378428 0.16991939 0.07826689
000200 98 e7 f2 3d 0d a6 6e be 33 57 0f be 54 46 bd bd
       0.11860579 -0.23305531 -0.13998108 -0.0924193
000210 ba c8 94 3c c0 f7 a1 3d 71 8b 8d bd c2 b2 73 be
       0.01816212 0.07908583 -0.06911362 -0.2379866
000220 a9 c5 b0 3c bd 62 6b 3c 34 5b b0 3c ac a2 6a be
       0.021578627 0.014366803 0.021527864 -0.22913617
000230 66 8b 3c 3d 88 4f 28 3e 2b 9b 3b 3d 9a 7c 87 be
       0.04603138 0.16436589 0.045802277 -0.2646225
000240 08 de 20 3f 9a f8 fb be d5 6e 1b be 83 4b 2a be
       0.6283879 -0.49213105 -0.15178998 -0.16630368
000250 58 50 2e 3e 1b d5 d4 3e a2 74 a4 bd 93 0a 89 3e
       0.17022836 0.41568837 -0.080300584 0.2676588
000260 08 41 b7 3e ea 5c 0c bf a6 0a 83 3d a6 d1 bf 3e
       0.35791802 -0.54829276 0.063985154 0.37464637
000270 a3 5e ce be 81 c3 c0 be 9f c8 97 be a5 1d 30 bf
       -0.40306577 -0.37649158 -0.2964525 -0.68795234
000280 26 de 00 be 49 c7 b8 3d c0 63 e7 3e 4a b8 a8 3d
       -0.12584743 0.090223856 0.4519329 0.08238275
000290 d4 5e 8d 3e f6 96 0e 3e e1 8a a4 3e 13 68 87 be
       0.2761141 0.13924775 0.32137206 -0.2644659
0002a0 c4 81 ad be 8e 9d 25 be 71 99 ae bd ed 71 80 be
       -0.33888066 -0.16173384 -0.085253604 -0.25086918
0002b0 9c 92 8f be 87 9e 99 3e aa 3d 0a 3d 27 b0 83 be
       -0.28041542 0.3000376 0.033750214 -0.2572033
0002c0 fe 55 82 3c 1e 49 22 bd b4 bf c6 be 92 c1 a4 3e
       0.015910145 -0.03962051 -0.38818133 0.32178932
0002d0 d1 ea a2 bd 92 03 1a bf 8f d1 e2 3d 81 65 d2 3e
       -0.07954944 -0.601617 0.110751264 0.41093066
0002e0 62 94 b6 bf ac 61 60 bf 20 60 62 be 0d cd 24 be
       -1.4264033 -0.87649035 -0.22106981 -0.16093846
0002f0 54 a5 66 be 06 b7 3a 3f ca 1a 0c 3f 24 33 2a 3e
       -0.22524005 0.7293552 0.54728377 0.16621071
000300 5f 98 c0 3d e5 7a d1 bd 5e 60 ee 3e 57 b8 aa bd
       0.094040625 -0.102285184 0.46557897 -0.08335941
000310 a0 51 65 3e 32 34 9f be 25 16 0d bf bb 46 9c bd
       0.22394419 -0.3109451 -0.55111915 -0.07630678
000320 ef 56 01 3e 04 da 58 3e 09 42 24 3e 4c f4 9d bc
       0.12630819 0.21176916 0.16040815 -0.019281529
000330 e6 4f 27 3e 7f df d4 3e d6 4b c3 be 09 e8 90 be
       0.16339073 0.41576764 -0.38143796 -0.2830203
000340 cb 49 0e bf 38 27 8c 3a 70 28 19 bf 66 dc a2 3e
       -0.5558135 0.001069284 -0.5982733 0.31808776
000350 10 25 54 3e 65 3f 1b bd 14 38 6b bf e8 11 f2 3e
       0.20717263 -0.037902255 -0.91882443 0.47279286
000360 c2 56 a8 be 4e d7 69 bd eb 8e 36 3e e8 03 84 be
       -0.3287869 -0.057090096 0.17827956 -0.2578423
000370 0b 9d b1 3e c0 a3 7b 3c 7b bf c1 be ed 54 81 3d
       0.34690127 0.015358865 -0.378414 0.063150264
000380 11 29 e2 3e 81 19 b5 bf 1b a4 2e 3e d5 92 96 be
       0.44171956 -1.4148408 0.17054789 -0.294089
000390 18 91 09 bf d2 75 99 3e 4b ba 93 3d fd 4c bb bf
       -0.5373702 0.29972702 0.07213267 -1.463287
0003a0 54 eb 81 3e 27 e9 e8 be 70 4d 20 be 33 e6 b4 be
       0.25374854 -0.4549038 -0.1565454 -0.35331878
0003b0 0e 53 59 3e 1f 4c 04 3f 03 cd 92 3d 09 19 26 be
       0.21223089 0.5167865 0.07168009 -0.16220488
0003c0 64 5a 20 3f 56 92 8d 3e 1b fd 67 3e 17 d2 0d be
       0.62637925 0.27650708 0.22655146 -0.13849674
0003d0 ad 77 fb be c1 cf aa be 75 97 e1 bd d2 44 45 3e
       -0.49114743 -0.3336163 -0.11015216 0.19264534
0003e0 f3 35 01 c0 d0 5d a1 3d ed 72 18 3e fc a4 48 be
       -2.0189178 0.078792214 0.1488759 -0.19594187
0003f0 7f 97 a2 3e 6c 3d 17 3e 45 bd 32 3e 77 41 fc be
       0.31756207 0.14769524 0.17455013 -0.49268696

head.0.bias f4 [32]
000000 a1 e7 00 be f1 75 76 bd cd d9 67 3e 38 c0 0d be
       -0.1258836 -0.06017107 0.22641678 -0.13842857
000010 65 00 36 3f 7e 71 0a 3e 8d ab 2c 3f 6b 93 ec 3e
       0.7109435 0.13519856 0.67449266 0.4620622
000020 94 03 0d 3d 60 79 18 3e b0 48 01 3e 47 1e df be
       0.03442724 0.14890051 0.12625384 -0.43577787
000030 41 2b 36 3c 15 ba ad 3c 90 57 19 3e 97 ba 1f be
       0.011118711 0.021206895 0.14974809 -0.15598522
000040 8f 18 91 3e 8d 6a 55 be 94 08 26 3e 70 01 82 be
       0.2833905 -0.20841427 0.1621421 -0.25391722
000050 b5 cb 2c 3f ac 43 7c 3d 04 c1 3e bc 88 88 3a bd
       0.6749833 0.061587974 -0.011642698 -0.045540363
000060 31 06 3a bd c7 23 96 be ba 82 a9 be 12 6e 25 3f
       -0.04541606 -0.2932417 -0.3310755 0.6462108
000070 86 a4 e4 3e 43 9f 37 3e c9 21 60 3d f8 a6 c4 3d
       0.4465677 0.17931847 0.05471972 0.09602159

head.2.weight f4 [5, 32]
000000 5a e4 8d 3e cb 4b d1 3d 18 9d 8a 3e 92 8c 2f bc
       0.2771328 0.102195345 0.27072978 -0.010714667
000010 e2 93 61 3e 8a c4 b8 3e 67 37 cb 3e 81 32 b7 3e
       0.22029069 0.36087447 0.39690706 0.3578072
000020 1f 9f 2f bd 35 77 ad 3e 5c 62 7a 3e 66 00 d8 be
       -0.04287636 0.3388001 0.24451584 -0.42187804
000030 25 f5 d4 3d e7 a6 64 3f 54 83 d0 bd 74 09 7b bd
       0.1039832 0.8931717 -0.10181299 -0.061288312
000040 be 16 b2 3e 83 e8 b2 3d b9 41 f7 bc c4 9a d5 bd
       0.34782976 0.08735754 -0.030182706 -0.1042991
000050 75 f9 3c 3e 25 e4 a0 bd 13 c5 06 be 8b ea 97 be
       0.18454535 -0.07856015 -0.13161115 -0.2967113
000060 4f 1b 89 3a 6c 23 60 3d 65 a3 a5 be 50 4c 38 3e
       0.0010460409 0.05472128 -0.32351223 0.17997861
000070 d6 69 8c 3e b6 4b 86 3e 12 0d db 3d 97 13 e9 3e
       0.27424496 0.26229638 0.10695852 0.45522758
000080 4c 1b 0d 3e b7 aa 19 3e 1a e0 2f 3e a0 ae 36 3e
       0.13779944 0.15006529 0.17175332 0.17840052
000090 80 f9 a8 3e 53 76 fe 3e 40 ee 93 3e 5b d9 72 3e
       0.33002853 0.4969965 0.28892708 0.23715727
0000a0 40 0d 87 3c f1 2a b5 3e bb 10 40 3e e1 bb c6 be
       0.01648581 0.35384324 0.18756382 -0.38815215
0000b0 67 9d 03 3e 1e 93 35 3f 2d 59 1b be 04 54 2e bd
       0.12853013 0.7092761 -0.15170737 -0.042560592
0000c0 5d ba b2 3e 74 ae fe bd 4a 11 c1 3d cf 4e 21 bd
       0.3490781 -0.12435618 0.09427126 -0.0393818
0000d0 5b 43 ac 3e 31 41 06 bd 22 2a 51 39 a8 9f 86 be
       0.33645138 -0.032777015 0.00019947489 -0.26293683
0000e0 c9 ed fc bd 3b 14 01 3e 0f 0d 8f be fa d4 df 3d
       -0.123500414 0.12605374 -0.2793965 0.10929294
0000f0 9a 73 b9 3e 98 2a 46 3e f5 37 d1 3d 12 2e cd 3e
       0.3622101 0.19352186 0.10215751 0.4007421
000100 35 b5 65 bd 42 62 ad bc 2a 53 8f 3e 06 b8 70 3e
       -0.056081016 -0.021165017 0.27993137 0.235077
000110 54 ff 91 3e 7e 32 07 3e 8d 48 8d 3e 0b 04 5f 3e
       0.28515112 0.13202855 0.27594414 0.21778886
000120 eb e6 65 bd 47 a9 d5 3e e6 d9 3f 3c c7 b2 a6 be
       -0.056128424 0.4173071 0.011709666 -0.3255827
000130 0f 38 99 3e 6f 0d ac 3e 62 df f7 be 35 67 39 be
       0.29925582 0.33604 -0.48412615 -0.18105777
000140 cd 54 04 3f a2 88 d4 bc fa 2d bf 3e b8 5c d6 3d
       0.51691896 -0.025944058 0.37339765 0.104669034
000150 5b 6d 47 3e c7 53 12 3f 9d a0 f5 3d 94 e8 ac be
       0.1947531 0.57159084 0.11993525 -0.33771193
000160 c7 45 cc bd ce f5 c0 3e 87 c3 61 be e7 73 96 3e
       -0.099742465 0.37687534 -0.22047244 0.293853
000170 4b 58 b8 3e c7 f2 a2 bd f2 9e 3b bd ff ea 42 3e
       0.36004862 -0.07956462 -0.04580588 0.19034956
000180 88 65 82 bd f3 67 04 3f bb 74 05 bd be 04 f4 bd
       -0.06367022 0.51721114 -0.032582026 -0.11914967
000190 c3 25 96 3e c1 89 8b 3e a9 f2 73 3e 90 e6 0e 3e
       0.29325685 0.27253535 0.23823036 0.1395514
0001a0 f5 f8 5b 3d b2 34 ba 3e 90 ba 16 3e 75 71 52 be
       0.05370422 0.36368328 0.14719605 -0.20551093
0001b0 90 86 f2 bb 41 e4 29 3f 3c e3 96 be 9d c5 b0 3d
       -0.007401295 0.6636391 -0.2947024 0.08631442
0001c0 be d3 73 3d fa 37 b9 bd c0 7a 93 3d 13 46 3c 3e
       0.059528105 -0.0904388 0.07201147 0.18386106
0001d0 a7 1a a5 3e de 7a 82 3e d9 bf dc bd d9 5c 90 be
       0.32246897 0.25484365 -0.107787795 -0.28195837
0001e0 50 a0 4f 3d c2 46 4d 3e 62 8e 29 be 8b 89 51 3e
       0.050689995 0.20046523 -0.16558221 0.20462625
0001f0 a7 0e 17 3f 2e 51 ea 3d 84 ca f7 3e f9 09 81 3e
       0.5900673 0.11441265 0.48396695 0.2520292
000200 39 31 9d 3d 71 0c ea bc 7b 0e bb 3e 5c b2 62 3e
       0.07675404 -0.028570386 0.36534485 0.22138351
000210 34 1d 91 3e cc ab 50 3e 8d 88 b6 3e 2f 61 9d 3e
       0.28342593 0.20378035 0.35651055 0.30738208
000220 96 1e 83 bd 95 a9 a3 3e cf fa a1 3e 75 0b 09 bf
       -0.06402318 0.31965318 0.31636664 -0.5353311
000230 f9 8b 60 3e c5 83 38 3f 11 46 fe 3a b0 26 05 be
       0.21928395 0.72076064 0.0019399544 -0.1300304
000240 f7 e2 cd 3e ac 7f bc 3d 2b 4b 31 bd c1 3f 80 be
       0.40212223 0.09204039 -0.043284576 -0.2504864
000250 2d 22 25 3e 44 b8 db be 47 79 51 be 95 38 85 be
       0.16126318 -0.4291402 -0.2045642 -0.2601973
000260 9c cb 1c 3e 47 e3 cf bc f5 fa 97 be 0a cc a4 3e
       0.15312046 -0.025376929 -0.29683653 0.3218692
000270 28 ad 6f 3e 4d d9 c7 3e c6 a7 d2 3d 0c 8b 24 3f
       0.23405898 0.39032975 0.102859065 0.6427467

head.2.bias f4 [5]
000000 23 e5 38 3f ad 5d 2f 3e 8e 5f 14 3f e3 04 18 3f
       0.72224635 0.17125578 0.57958305 0.59382457
000010 17 58 07 bd
       -0.033042993

exp_avg f4 [20, 8]
000000 bc 8b 8b bc 76 96 20 bb 9e b0 f6 bb 72 1f 48 3b
       -0.017034404 -0.0024503744 -0.0075283786 0.003053632
000010 3e 14 a0 3b bd 69 ca bb 38 21 2e 3c 77 0b 83 bc
       0.0048852256 -0.0061771558 0.010628037 -0.015996678
000020 a8 44 e2 b8 27 52 ca b9 54 40 c9 ba de 3e d4 b9
       -0.00010789308 -0.0003858965 -0.0015354254 -0.0004048263
000030 bf bb af 38 6b 81 5e ba 2a e2 b7 39 b4 01 cd 39
       8.379621e-05 -0.0008487913 0.00035072985 0.00039101916
000040 01 90 10 bb d6 a4 8c 3a c5 98 43 bb 26 1f 5a 3b
       -0.002205849 0.0010730277 -0.0029845696 0.0033282726
000050 4e d3 6c 3b 9c 8a b4 39 d4 4d 03 3b fe e2 f1 ba
       0.003613669 0.00034435547 0.0020035403 -0.001845449
000060 c8 40 e9 3a 0e 93 8d bb 82 8b 8d bb 3d 09 4a 3a
       0.0017795796 -0.004320509 -0.004319609 0.0007707065
000070 bf ba 0e bb c9 c6 8e b9 16 29 b2 3a 77 f2 56 3a
       -0.002177879 -0.00027232457 0.0013592567 0.0008199582
000080 cd cc ee 39 f4 ab 3f ba 22 6b 41 ba e5 b2 90 39
       0.00045547486 -0.0007311695 -0.000737833 0.00027599107
000090 97 13 56 b9 e3 97 5d b9 15 27 96 39 d8 8b d6 39
       -0.00020415928 -0.00021132785 0.00028639348 0.00040921452
0000a0 9c 7d 7c b9 2d f5 ec 38 a0 9e 3e bb 85 8e bb 3a
       -0.00024079386 0.000112990245 -0.0029086247 0.0014309442
0000b0 92 c1 e1 3a 49 ab be ba 54 1d 0b 3b e3 bd 5e ba
       0.0017223826 -0.0014546897 0.0021227198 -0.0008496923
0000c0 df f0 82 3a 94 da 40 ba 29 00 1c bb 9d 3d a6 ba
       0.0009989998 -0.00073567894 -0.0023803806 -0.0012683157
0000d0 54 e9 27 b7 0d 13 34 b8 5e 13 c8 3a 64 f9 89 38
       -1.0008302e-05 -4.2933087e-05 0.0015264561 6.579122e-05
0000e0 00 00 00 00 00 00 00 00 00 00 00 00 00 00 00 00
       0.0 0.0 0.0 0.0
0000f0 00 00 00 00 00 00 00 00 00 00 00 00 00 00 00 00
       0.0 0.0 0.0 0.0
000100 00 00 00 00 00 00 00 00 00 00 00 00 00 00 00 00
       0.0 0.0 0.0 0.0
000110 00 00 00 00 00 00 00 00 00 00 00 00 00 00 00 00
       0.0 0.0 0.0 0.0
000120 00 00 00 00 00 00 00 00 00 00 00 00 00 00 00 00
       0.0 0.0 0.0 0.0
000130 00 00 00 00 00 00 00 00 00 00 00 00 00 00 00 00
       0.0 0.0 0.0 0.0
000140 00 00 00 00 00 00 00 00 00 00 00 00 00 00 00 00
       0.0 0.0 0.0 0.0
000150 00 00 00 00 00 00 00 00 00 00 00 00 00 00 00 00
       0.0 0.0 0.0 0.0
000160 00 00 00 00 00 00 00 00 00 00 00 00 00 00 00 00
       0.0 0.0 0.0 0.0
000170 00 00 00 00 00 00 00 00 00 00 00 00 00 00 00 00
       0.0 0.0 0.0 0.0
000180 00 00 00 00 00 00 00 00 00 00 00 00 00 00 00 00
       0.0 0.0 0.0 0.0
000190 00 00 00 00 00 00 00 00 00 00 00 00 00 00 00 00
       0.0 0.0 0.0 0.0
0001a0 4a 7b ca 3a a8 15 fb ba ef 36 68 ba 87 2b 93 3a
       0.001544812 -0.0019156234 -0.00088582834 0.0011228182
0001b0 8e bd 58 ba 27 1b ad b9 26 da 98 3a c1 45 07 3a
       -0.0008267992 -0.0003301736 0.0011661693 0.00051602355
0001c0 00 00 00 00 00 00 00 00 00 00 00 00 00 00 00 00
       0.0 0.0 0.0 0.0
0001d0 00 00 00 00 00 00 00 00 00 00 00 00 00 00 00 00
       0.0 0.0 0.0 0.0
0001e0 00 00 00 00 00 00 00 00 00 00 00 00 00 00 00 00
       0.0 0.0 0.0 0.0
0001f0 00 00 00 00 00 00 00 00 00 00 00 00 00 00 00 00
       0.0 0.0 0.0 0.0
000200 00 00 00 00 00 00 00 00 00 00 00 00 00 00 00 00
       0.0 0.0 0.0 0.0
000210 00 00 00 00 00 00 00 00 00 00 00 00 00 00 00 00
       0.0 0.0 0.0 0.0
000220 00 00 00 00 00 00 00 00 00 00 00 00 00 00 00 00
       0.0 0.0 0.0 0.0
000230 00 00 00 00 00 00 00 00 00 00 00 00 00 00 00 00
       0.0 0.0 0.0 0.0
000240 00 00 00 00 00 00 00 00 00 00 00 00 00 00 00 00
       0.0 0.0 0.0 0.0
000250 00 00 00 00 00 00 00 00 00 00 00 00 00 00 00 00
       0.0 0.0 0.0 0.0
000260 00 00 00 00 00 00 00 00 00 00 00 00 00 00 00 00
       0.0 0.0 0.0 0.0
000270 00 00 00 00 00 00 00 00 00 00 00 00 00 00 00 00
       0.0 0.0 0.0 0.0

exp_avg_sq f4 [20, 8]
000000 3f 1d a5 3b 76 8e f5 39 cf 5a ac 3b f1 72 63 3a
       0.005038887 0.00046836183 0.0052598487 0.00086764904
000010 9c b5 72 3b 57 11 58 3a fc 8d c0 3b 2a 74 96 3b
       0.0037034517 0.000824233 0.005876301 0.0045914846
000020 cd 77 27 38 ca 65 d4 37 11 b9 e8 38 b9 ca 0e 38
       3.9927476e-05 2.5319769e-05 0.000110970934 3.404424e-05
000030 93 29 5f 37 bd 4e 73 38 23 c1 72 38 c6 6e 42 38
       1.33015155e-05 5.8009045e-05 5.787717e-05 4.635637e-05
000040 40 4e c3 39 cf c1 10 39 09 e6 cf 39 04 af ac 3a
       0.000372516 0.0001380511 0.00039653506 0.0013174717
000050 4c 09 c1 3a 4a aa fb 38 fe 92 de 39 1c 98 af 39
       0.0014727502 0.000120003315 0.00042452657 0.0003349193
000060 4f 62 86 39 6a e8 83 39 6e 84 3f 3a 61 ec fb 38
       0.00025631717 0.0002515943 0.00073058053 0.00012012642
000070 94 a2 10 39 6c 92 57 39 95 c9 b1 39 d0 23 29 39
       0.00013793475 0.00020558544 0.0003391026 0.00016130437
000080 13 9e a3 38 94 13 8f 38 20 bf 9e 38 df 4f ed 37
       7.801889e-05 6.822418e-05 7.569627e-05 2.8289794e-05
000090 ca 3e 80 37 f3 5a d5 36 f4 6f 9e 38 f7 91 42 37
       1.5288027e-05 6.3584826e-06 7.55488e-05 1.1597286e-05
0000a0 ad 95 92 39 9d 61 06 39 83 0c 99 39 cb bb 0b 3a
       0.00027958807 0.000128156 0.00029191756 0.00053304125
0000b0 a9 10 d9 39 cc 60 79 39 bf bc 19 3a d1 90 d9 39
       0.00041401878 0.0002378255 0.0005864612 0.00041497362
0000c0 90 a7 e6 38 35 c0 4f 39 25 c9 5f 3a f8 a3 31 39
       0.000109984656 0.00019812661 0.0008536748 0.00016941119
0000d0 e7 e7 c5 38 bf 74 a7 39 02 b9 c9 39 d3 48 61 38
       9.436887e-05 0.00031939705 0.0003847555 5.3712003e-05
0000e0 00 00 00 00 00 00 00 00 00 00 00 00 00 00 00 00
       0.0 0.0 0.0 0.0
0000f0 00 00 00 00 00 00 00 00 00 00 00 00 00 00 00 00
       0.0 0.0 0.0 0.0
000100 00 00 00 00 00 00 00 00 00 00 00 00 00 00 00 00
       0.0 0.0 0.0 0.0
000110 00 00 00 00 00 00 00 00 00 00 00 00 00 00 00 00
       0.0 0.0 0.0 0.0
000120 00 00 00 00 00 00 00 00 00 00 00 00 00 00 00 00
       0.0 0.0 0.0 0.0
000130 00 00 00 00 00 00 00 00 00 00 00 00 00 00 00 00
       0.0 0.0 0.0 0.0
000140 00 00 00 00 00 00 00 00 00 00 00 00 00 00 00 00
       0.0 0.0 0.0 0.0
000150 00 00 00 00 00 00 00 00 00 00 00 00 00 00 00 00
       0.0 0.0 0.0 0.0
000160 00 00 00 00 00 00 00 00 00 00 00 00 00 00 00 00
       0.0 0.0 0.0 0.0
000170 00 00 00 00 00 00 00 00 00 00 00 00 00 00 00 00
       0.0 0.0 0.0 0.0
000180 00 00 00 00 00 00 00 00 00 00 00 00 00 00 00 00
       0.0 0.0 0.0 0.0
000190 00 00 00 00 00 00 00 00 00 00 00 00 00 00 00 00
       0.0 0.0 0.0 0.0
0001a0 a6 e2 98 38 c9 90 6f 38 2f d5 a5 38 8a 03 49 38
       7.2901414e-05 5.7116882e-05 7.907522e-05 4.792543e-05
0001b0 a8 ad b5 37 8e d4 3c 37 79 b1 b7 38 bd 2c c2 37
       2.1657746e-05 1.12551625e-05 8.759177e-05 2.3147435e-05
0001c0 00 00 00 00 00 00 00 00 00 00 00 00 00 00 00 00
       0.0 0.0 0.0 0.0
0001d0 00 00 00 00 00 00 00 00 00 00 00 00 00 00 00 00
       0.0 0.0 0.0 0.0
0001e0 00 00 00 00 00 00 00 00 00 00 00 00 00 00 00 00
       0.0 0.0 0.0 0.0
0001f0 00 00 00 00 00 00 00 00 00 00 00 00 00 00 00 00
       0.0 0.0 0.0 0.0
000200 00 00 00 00 00 00 00 00 00 00 00 00 00 00 00 00
       0.0 0.0 0.0 0.0
000210 00 00 00 00 00 00 00 00 00 00 00 00 00 00 00 00
       0.0 0.0 0.0 0.0
000220 00 00 00 00 00 00 00 00 00 00 00 00 00 00 00 00
       0.0 0.0 0.0 0.0
000230 00 00 00 00 00 00 00 00 00 00 00 00 00 00 00 00
       0.0 0.0 0.0 0.0
000240 00 00 00 00 00 00 00 00 00 00 00 00 00 00 00 00
       0.0 0.0 0.0 0.0
000250 00 00 00 00 00 00 00 00 00 00 00 00 00 00 00 00
       0.0 0.0 0.0 0.0
000260 00 00 00 00 00 00 00 00 00 00 00 00 00 00 00 00
       0.0 0.0 0.0 0.0
000270 00 00 00 00 00 00 00 00 00 00 00 00 00 00 00 00
       0.0 0.0 0.0 0.0

exp_avg f4 [8, 8, 2, 2]
000000 79 88 05 3b 6b d4 11 3b d6 3c 1b 3a 14 c4 14 3a
       0.0020375533 0.0022251855 0.0005921846 0.000567497
000010 8d 68 2a 3a d7 64 2d 38 55 d3 cf 38 e4 ae e4 b9
       0.00065005646 4.134033e-05 9.909893e-05 -0.00043617852
000020 22 ab 5d 3b 73 7e 52 3b 89 7f 07 3b 73 7c f3 b8
       0.0033823927 0.0032118827 0.0020675382 -0.000116103234
000030 79 06 70 3a 1b 53 01 ba 2a 34 66 ba 24 36 11 bb
       0.0009156238 -0.0004933343 -0.0008781577 -0.0022157514
000040 a3 aa 0a ba fe d7 2a bb 1e 09 80 ba 6e ef 1a bb
       -0.0005289709 -0.0026068683 -0.0009768342 -0.0023641246
000050 95 67 90 3a b2 12 71 ba 0c 23 94 3a c7 8e ca 3a
       0.0011017198 -0.0009196206 0.0011301949 0.0015453928
000060 db 8b 4c bb 62 33 b7 bb 3e 7e 03 bb cc 54 50 ba
       -0.003121129 -0.005590842 -0.002006426 -0.0007947206
000070 8d 7f ea 3a ac da 04 3b 45 70 d8 3a 1a 43 02 3b
       0.0017890796 0.002027194 0.0016512951 0.0019876421
000080 ef 0d 08 bc 96 7b 4a bc bb e0 2b ba d2 1e 0e 3b
       -0.008304103 -0.012358567 -0.000655662 0.002168585
000090 fe e3 37 39 4a 83 a7 3a 3d 48 a7 ba 7d e8 f2 ba
       0.00017537174 0.0012780216 -0.0012762618 -0.0018532422
0000a0 ad 3e c5 bb 7f c1 2f bb 4f 5d 9e bb 40 b5 ad bb
       -0.0060194344 -0.0026818214 -0.0048329006 -0.0053011477
0000b0 77 2a c3 3a c5 0f c0 3b e1 4d 8b 3b 8a 0f 5c 3b
       0.0014889975 0.005861255 0.0042512272 0.0033578598
0000c0 ff b3 d1 3b 2c 6b 1a 3c e4 5e 8d 3a a6 81 9d ba
       0.006399631 0.009424966 0.0010785726 -0.0012016788
0000d0 af 19 a9 b9 b6 1a 93 3a 28 60 d1 3a 7a 7b 26 bb
       -0.00032253328 0.001122317 0.0015974091 -0.0025403188
0000e0 11 d2 58 3c 1e 53 82 3c 23 37 59 3b 2a ac 39 bb
       0.0132336775 0.015908774 0.0033144436 -0.0028331378
0000f0 ed f4 1f bc e7 61 89 bc 45 0f 13 ba 8f f6 12 3b
       -0.009762985 -0.016770316 -0.00056098803 0.0022424792
000100 54 8f b4 ba 30 6c 1b bc d2 39 25 3b 92 b6 4a bb
       -0.0013775625 -0.009486243 0.0025211466 -0.0030931574
000110 dd e7 07 bb a3 88 2b 3a c5 99 07 bb 85 5e 13 b5
       -0.0020737567 0.0006543493 -0.002069102 -5.489931e-07
000120 7e 8f 3f bc 77 18 9f bb ee 25 9c bb e1 7f 2d bb
       -0.011691926 -0.0048552114 -0.0047652638 -0.0026473927
000130 be 3c 83 bb e0 49 b2 3b 0e b3 7e 3a 11 33 a5 3b
       -0.004005044 0.0054409355 0.0009716012 0.005041488
000140 91 aa 90 3a 0e 59 0e 3c 8c e5 00 bb e7 43 46 3b
       0.0011037161 0.0086882245 -0.001966807 0.0030252875
000150 2e 36 2e ba c4 d6 60 3b 53 15 43 ba f0 a8 eb 3a
       -0.00066456466 0.0034307698 -0.0007441837 0.0017979424
000160 43 cf 0c 3c 4e 91 80 3c d3 4e ec 3b 3f bb 03 3c
       0.008594337 0.015694287 0.007211545 0.008040248
000170 a7 6e 09 3b a0 c3 42 bc d0 75 86 bb 55 4f dc bb
       0.0020970495 -0.011887461 -0.0041034 -0.0067233243
000180 dd 45 2d 3b e1 41 a4 ba dd ee 64 bb 51 79 ab 3b
       0.0026439347 -0.001253184 -0.0034932413 0.005232968
000190 9b 3f 37 3a 02 c8 96 3a 32 e1 83 3a 79 4a db 38
       0.0006990374 0.0011503699 0.001006162 0.000104566054
0001a0 af cb b3 3b 09 42 0a 3c c2 71 03 39 ec 87 85 3b
       0.0054869275 0.008438596 0.00012535512 0.004075041
0001b0 2d fc 13 b9 c5 66 61 3b 57 2e c5 ba d8 e5 1e bb
       -0.00014112955 0.003439353 -0.0015043718 -0.0024245884
0001c0 3d cd 1a bb 6d 3f 92 ba b8 0e 19 3b fd e1 5f bb
       -0.0023620867 -0.0011157818 0.002335472 -0.00341618
0001d0 c1 42 83 ba 1f 15 43 ba 02 fd d2 3a ec e1 4b bb
       -0.0010014401 -0.0007441807 0.0016097131 -0.0031110002
0001e0 b2 14 de bb 41 28 c6 bb 97 c9 26 bb 86 10 15 bc
       -0.0067773694 -0.006047279 -0.0025449747 -0.009098178
0001f0 5d 6b f8 3a f1 1a 9f bb f3 b7 65 3b e9 e0 b6 3b
       0.0018952895 -0.0048555066 0.003505227 0.0055810106
000200 28 5a a4 bb 0e b2 88 ba 21 74 d3 ba a7 c3 5c 3a
       -0.0050156303 -0.0010429041 -0.0016132632 0.00084214885
000210 c4 af 2d 39 bc bb 11 bb a5 6b 11 3a 06 85 31 bb
       0.00016564043 -0.0022237143 0.00055473513 -0.0027087345
000220 6e b6 68 bb 3c 53 f1 bb 2f 92 f3 b9 57 e2 82 bb
       -0.0035509127 -0.0073646586 -0.00046457487 -0.003994267
000230 50 66 14 3b 57 28 5d bb c7 db 6a 3b e8 9e f4 3a
       0.002264399 -0.0033745968 0.0035836564 0.001866308
000240 7d 78 94 3b 25 dc 03 bb 50 51 4f 3b f3 25 3d bb
       0.004530965 -0.002012023 0.003163416 -0.002886173
000250 d7 27 c4 3a a2 99 1b bb 64 53 f2 b9 ff 48 39 3b
       0.0014965486 -0.0023742695 -0.00046219968 0.0028272269
000260 4f 2a 10 3c fd 60 10 3b c9 83 20 3b 75 5e 7c 3b
       0.00879915 0.0022030466 0.0024492613 0.003850845
000270 72 93 c2 bb 84 bd 6a 3a 68 ec 47 bb 5b f2 b7 ba
       -0.005937987 0.00089546316 -0.00305059 -0.001403402
000280 0f 51 10 bc 40 7a b6 bc 70 2e 13 3b 3f 9b 36 39
       -0.008808388 -0.02227509 0.0022458099 0.00017414706
000290 fa 2d 20 bb 73 f9 09 3b fe b4 c6 bb f5 08 1a bb
       -0.0024441467 0.0021053224 -0.0060640564 -0.0023503874
0002a0 54 eb 96 bc 97 08 ca bb c6 b6 30 bc 18 3f 41 bc
       -0.01842276 -0.006165575 -0.010785764 -0.011794828
0002b0 23 82 0a bb 30 0f 34 3c f7 97 d6 3b fc bd 75 3b
       -0.0021134696 0.010989949 0.0065488773 0.0037497273
0002c0 fa 0b d9 3b 31 ce 8f 3c 83 e5 9d bb c8 0f 4e 3b
       0.006623742 0.017554374 -0.0048186197 0.0031442512
0002d0 f0 6b dc 38 9c bd 50 3b ec 50 76 3b 32 32 0e ba
       0.000105105224 0.0031851297 0.0037584854 -0.000542435
0002e0 46 61 ac 3c 41 47 f7 3c 97 40 04 3c 2e 73 eb 3b
       0.021042477 0.030185344 0.00807204 0.0071853613
0002f0 97 7b cc bb 8e d6 f3 bc e8 ae 66 bb 37 76 b4 3a
       -0.006240319 -0.029765394 -0.0035199467 0.0013768141
000300 cc c8 dd bb b0 c4 e1 bb 22 72 27 bb 14 55 0f b9
       -0.0067683216 -0.006889902 -0.0025550206 -0.00013669237
000310 4b 7d 02 bb f6 1f 09 3a 2e 6c 81 ba 86 0d 48 ba
       -0.0019911106 0.0005230898 -0.0009874159 -0.00076314097
000320 ec 53 e8 bb ba e8 98 bb f5 3f b2 bb e7 c2 19 bb
       -0.0070900824 -0.004666415 -0.005439753 -0.0023462118
000330 ca 62 53 3b 0a ed 0c 3b fe 27 3a 3b 79 b7 80 3b
       0.0032254928 0.002150359 0.0028405185 0.0039281216
000340 b5 69 05 3b b9 22 d3 3b a1 e1 45 3b a9 cf f9 39
       0.0020357196 0.0064433482 0.00301943 0.000476477
000350 9a f0 e1 3a 9a 4c 82 3a a9 45 f9 3a 89 bd 8c ba
       0.0017237843 0.0009941042 0.0019017953 -0.0010737638
000360 19 61 0a 3c 28 69 47 3c 65 81 92 3b 20 21 12 3b
       0.008446001 0.012171067 0.0044709914 0.0022297576
000370 dd 6a f8 bb 43 bd 05 bc 35 1f fd b8 52 e3 6a bb
       -0.0075810985 -0.008162799 -0.00012069793 -0.003584106
000380 31 69 09 bc 5b 6d 13 bc b8 78 91 bb 45 b2 1f 3b
       -0.008386896 -0.00899824 -0.0044394396 0.0024367732
000390 b9 f1 42 3a f5 d3 2e 3a 6d ce 22 3a f0 de a8 ba
       0.0007436532 0.00066691573 0.00062105694 -0.0012883823
0003a0 9e 68 70 bb df af 81 bb a5 1c dc ba a8 9d c6 bb
       -0.003668345 -0.003957733 -0.0016793205 -0.0060612746
0003b0 43 06 51 3b 0a 15 b8 3b 62 ed bc 3b b8 aa b8 38
       0.0031894601 0.0056177424 0.005765603 8.8056026e-05
0003c0 61 67 e5 3b cf f3 04 3c 6e fb c5 3b 0d 42 f7 ba
       0.007000849 0.008114769 0.0060419356 -0.0018864289
0003d0 22 a2 4f 3a 2b 45 63 3b 4d 2a 1f 3b 86 fd 3c bb
       0.0007920583 0.0034678678 0.0024286688 -0.0028837635
0003e0 2b 8d 4e 3c 4e 46 6b 3c 17 4a b7 3b 4b dc c2 3a
       0.012606899 0.014360024 0.005593549 0.0014866678
0003f0 e9 26 2f bc 97 b9 3c bc 55 4a 72 bb a7 e6 07 3a
       -0.010690429 -0.011518857 -0.0036970575 0.0005184211

exp_avg_sq f4 [8, 8, 2, 2]
000000 87 e3 52 39 20 ee 28 39 6b d4 f8 38 4f 86 10 39
       0.00020111921 0.00016110437 0.000118651275 0.00013782944
000010 dd 72 b7 37 a1 22 7d 38 b0 92 f6 37 73 8b 3d 38
       2.1868787e-05 6.035215e-05 2.9393792e-05 4.5190984e-05
000020 b5 36 c8 39 f0 06 0e 3a 25 b7 87 38 e5 52 18 38
       0.00038187733 0.0005417904 6.471415e-05 3.6316826e-05
000030 f6 18 0f 39 33 cc 01 39 f0 58 4a 39 96 83 ee 38
       0.00013646841 0.00012378469 0.00019297353 0.00011373234
000040 22 c3 29 39 c5 17 38 39 ad ee 27 39 89 b2 0a 39
       0.00016189789 0.00017556462 0.00016015275 0.00013227215
000050 45 a0 32 38 1a 85 be 37 ea 7f e0 38 26 31 4f 39
       4.258777e-05 2.2711745e-05 0.00010704978 0.00019759368
000060 e5 8b 1e 3a ad 76 04 3a 01 28 76 39 24 ae 4e 39
       0.00060480676 0.00050530845 0.00023475291 0.00019710563
000070 a6 db ce 39 46 be af 39 75 7a 3e 39 2c 26 85 39
       0.00039455033 0.00033520366 0.00018165431 0.00025396177
000080 e5 6f 86 3b 73 b1 57 3b 99 92 2b 3a 22 d1 3d 3a
       0.0041026943 0.0032912164 0.0006544977 0.0007240941
000090 a0 3f 0a 39 3a 12 58 39 7c 91 86 39 8b 2f a6 39
       0.00013184408 0.00020606155 0.00025666866 0.0003169741
0000a0 65 68 87 3b 36 c3 ab 3b d2 17 4e 3a d5 19 ad 3a
       0.004132318 0.005241777 0.0007861826 0.0013206551
0000b0 f3 5e 4d 3a 65 43 28 3a d3 dc 02 3b 2f 54 eb 3a
       0.0007834278 0.0006418734 0.0019968047 0.0017954166
0000c0 dd 5b 47 3b 0d c4 15 3b 9a 39 8b 3a 9d de 89 3a
       0.0030419745 0.002285245 0.0010622025 0.0010518614
0000d0 3b 3a d9 39 72 37 d9 39 eb e3 96 3a 59 e0 81 3a
       0.0004143285 0.00041430775 0.0011512017 0.000990878
0000e0 64 4a 58 3c 9b d8 3c 3c bc f1 0a 3b 77 64 fa 3a
       0.01320133 0.011526252 0.0021201214 0.0019103427
0000f0 b7 50 af 3b 88 50 81 3b 5e a2 25 3b c5 8f 07 3b
       0.005350198 0.0039463677 0.002527378 0.0020685059
000100 cf 43 a5 3a 2f 53 d7 3a 2b cd 1a 3a 86 2c d6 39
       0.001260871 0.0016427989 0.0005905206 0.00040850433
000110 53 22 61 39 a1 b3 3c 39 3f 86 72 39 23 6f 80 38
       0.00021470459 0.00017995994 0.00023128929 6.1242165e-05
000120 7a d4 8d 3b 04 95 76 3b 04 24 2f 3a 2b 05 42 39
       0.0043283077 0.0037625441 0.0006681087 0.00018503207
000130 9c a7 da 39 c9 66 ef 39 04 f7 88 3a c9 4c c0 3a
       0.0004170508 0.00045662213 0.0010449593 0.0014671321
000140 f8 4e 7b 3a 98 8a af 3a 78 6c 43 3a ae 8f 55 3a
       0.00095866574 0.0013392745 0.0007454823 0.0008146715
000150 32 de 6d 39 27 b3 82 39 be 33 23 3a 2d 2e 52 3a
       0.00022684856 0.0002492901 0.0006225667 0.0008017745
000160 59 ae be 3b cd 72 db 3b d6 b9 d6 3a 42 b3 aa 3a
       0.0058191237 0.006697035 0.0016382288 0.0013023394
000170 6c d8 b3 3a 55 5e 02 3b 8e 27 ed 3a e0 61 fb 3a
       0.0013721115 0.0019892652 0.0018093453 0.0019178949
000180 41 b4 11 3a 97 92 92 39 ae 14 9e 39 d9 23 8d 39
       0.0005558171 0.00027956508 0.00030151516 0.00026920324
000190 d3 c5 f3 37 51 85 c9 38 ee 81 2d 39 f8 93 3d 38
       2.9059976e-05 9.609259e-05 0.00016546968 4.5198918e-05
0001a0 9f 1b f7 39 d2 b9 9f 3a 3f 72 83 38 d2 4e f1 39
       0.0004713209 0.0012186116 6.267847e-05 0.00046025828
0001b0 90 81 33 39 20 9f e0 39 84 f9 2a 39 85 da b6 39
       0.00017119036 0.00042843167 0.00016305415 0.00034876555
0001c0 ce 18 f9 39 01 ff 87 39 39 f5 86 39 2e 62 b2 39
       0.00047511462 0.000259392 0.00025741177 0.00034023955
0001d0 cc c4 56 38 34 26 61 39 b8 2c 0f 3a 16 fc 3f 39
       5.1204857e-05 0.00021471904 0.00054616807 0.00018309089
0001e0 ba 0a d9 3a c4 b0 69 3a c4 f5 8e 39 13 a1 46 3a
       0.0016558983 0.0008914585 0.0002726746 0.00075771025
0001f0 5b eb 63 3a 29 35 39 3a d8 bd 19 3a c2 b3 09 3a
       0.00086944335 0.00070651114 0.0005864776 0.0005252921
000200 cd fb 76 39 6a 35 66 38 9e 2a cb 38 1f be d5 38
       0.00023554191 5.488602e-05 9.6877324e-05 0.00010192044
000210 19 af 9c 34 b0 17 ad 38 b6 37 d8 36 93 c7 4e 38
       2.9184665e-07 8.253695e-05 6.4437872e-06 4.9300095e-05
000220 9e a2 f7 38 9d 62 49 3a 1f b6 3a 38 d7 22 a8 38
       0.000118081676 0.0007682236 4.451547e-05 8.017354e-05
000230 9f 3f 48 38 d1 16 5e 39 f7 e7 fa 38 e9 1e 0e 39
       4.7742968e-05 0.0002118007 0.00011964136 0.0001355369
000240 6e bb 49 39 9e 9d b0 38 07 d2 0c 39 f1 c6 18 39
       0.00019238677 8.4216925e-05 0.00013429682 0.00014569961
000250 e7 29 b1 37 a5 58 b0 38 7d 4a 05 39 26 4a f1 38
       2.1119557e-05 8.408845e-05 0.00012711617 0.00011505587
000260 96 0b 3e 3a 3e 9b 29 39 bc 4d 7e 39 f1 f2 39 39
       0.0007249651 0.00016174928 0.00024252286 0.00017733478
000270 88 07 ad 39 64 82 8b 39 78 ba 61 39 0b 77 2e 39
       0.00033002743 0.00026609295 0.00021527137 0.0001663828
000280 c0 79 bd 3b a6 e3 dc 3b 97 e7 ac 3a 43 6c d2 3a
       0.005782336 0.006741005 0.0013191578 0.0016053993
000290 ee 64 3d 3a 4c 02 e5 39 6f 80 48 3a 13 38 08 3a
       0.00072248175 0.00043679995 0.00076485326 0.0005196344
0002a0 95 b9 63 3c 76 dd 3d 3c 48 62 e6 3a 43 90 2c 3b
       0.013899227 0.011588445 0.0017576898 0.0026331104
0002b0 ff a5 d2 3a 9b f1 aa 3a b1 18 86 3b 45 bd 85 3b
       0.0016071199 0.0013041975 0.004092299 0.0040814006
0002c0 05 f8 70 3b f2 e7 96 3b 44 2c 16 3b 16 8a 26 3b
       0.0036768925 0.0046052868 0.0022914568 0.0025411895
0002d0 e0 b5 84 3a 5c 50 66 3a a8 0d 13 3b 15 27 e0 3a
       0.0010125004 0.0008785778 0.002243856 0.0017101491
0002e0 23 58 ac 3c 32 d5 c6 3c 90 08 77 3b 23 df b4 3b
       0.02103812 0.024271581 0.0037694313 0.005519764
0002f0 a2 51 df 3b 93 e3 00 3c 8d e9 9b 3b 3a 88 a4 3b
       0.0068151513 0.007866758 0.004758066 0.0050211223
000300 bc d1 76 3a e3 57 82 3a c5 a9 b6 39 df 68 a9 39
       0.0009415408 0.0009944405 0.00034840233 0.00032312327
000310 4d 56 30 39 94 34 ec 38 20 8f a1 38 cb 6d b0 38
       0.00016816818 0.000112631504 7.703737e-05 8.4127845e-05
000320 77 0a f8 3a bc 30 d0 3a 09 4c e1 39 a5 f1 99 39
       0.0018924017 0.0015883665 0.00042971995 0.00029362473
000330 e8 6b 95 39 d7 92 94 39 a9 41 8b 3a 8e 47 48 3a
       0.0002849989 0.00028338164 0.0010624427 0.0007640057
000340 69 e9 39 3a 03 8f 2f 3a fe 2d 3f 3a b4 38 fb 39
       0.0007091971 0.00066970306 0.0007292925 0.00047916698
000350 5e a4 13 39 aa 28 58 39 38 01 58 39 2f 2d bc 39
       0.00014080244 0.00020614514 0.00020599819 0.0003589182
000360 e6 01 40 3b bf e6 44 3b 56 3e 33 3a c1 57 51 3a
       0.0029298007 0.0030044762 0.0006837597 0.00079857936
000370 31 91 a6 3a a4 f4 a8 3a 2e 3f b1 39 3d 3c 4d 3a
       0.0012708065 0.0012890291 0.00033807143 0.00078291056
000380 d8 38 0b 3b 56 51 e3 3a b8 5c f3 39 2e 22 0c 3a
       0.0021243598 0.0017342966 0.00046417653 0.00053456693
000390 7c 23 39 39 c0 9d 5b 39 f8 36 1b 38 a0 cd 24 39
       0.00017656194 0.00020944234 3.7006073e-05 0.0001571686
0003a0 ff 40 43 3b a0 31 6d 3b c8 20 6f 39 fd e7 42 3a
       0.002979338 0.003619291 0.00022805028 0.00074350816
0003b0 1a c3 f1 39 bc e7 fa 39 84 93 fa 3a 8a a2 9f 3a
       0.00046112464 0.0004785637 0.0019117449 0.0012179178
0003c0 66 ea af 3a b3 6f 84 3a 70 fe 85 3a 69 5f 73 3a
       0.0013421297 0.001010409 0.0010222923 0.00092839316
0003d0 0f 17 a2 39 54 1a a8 39 28 cd fb 39 bc 7d 1b 3a
       0.00030916228 0.00032063073 0.00048027304 0.00059315166
0003e0 b3 02 d2 3b 3f 93 b9 3b 5d c5 a3 3a fc 99 c4 3a
       0.006409013 0.005663305 0.0012494732 0.0014999504
0003f0 cf af 2d 3b e6 b5 09 3b 2e 34 aa 3a 17 98 bb 3a
       0.0026502495 0.002101296 0.0012985521 0.0014312294

exp_avg f4 [8]
000000 88 8d 52 bb ce ad 0b 3c c3 b5 01 3c c4 e7 97 bb
       -0.0032127816 0.008525325 0.0079168705 -0.004635783
000010 a0 96 9e 3b fd 20 83 3c 5e c4 e0 3b 86 7f e6 3b
       0.0048397332 0.016006941 0.0068593463 0.007034245

exp_avg_sq f4 [8]
000000 03 30 7e 39 5f 83 9f 3b f9 56 3d 3b f6 d9 0a 3a
       0.00024241213 0.0048679556 0.002889095 0.0005296761
000010 d0 08 66 39 fb 35 2b 3c e0 a7 b1 3a 5d 48 37 3b
       0.00021937792 0.010449882 0.0013554059 0.0027966716
