saved_models_zach/easyNpySmall/checkpoint_easyNpySmall_2__mode_embed_bl__seed_1_2020-07-17_04:34:02.491246_850000.tar (torch_old, 17465 bytes, 22 tensors)

gcn.obj_emb.weight f4 [16, 8]
00000000: ba46 c3bf 310f 40bf 4b6b 27bf 9903 cebf
00000010: 7324 cdbd cef3 1bbf 5bd2 7abf def6 cdbf
00000020: 1c4f 36bf 7381 9b3e 12fe 46bf bebe 80be
00000030: e09a 63be 55f3 d73f 4ae8 693e ec6d ef3e
00000040: c96c 32bf d593 94bf 3615 333f 0edc 4b3e
00000050: 049e 5d3f 0445 7a3e 8fb4 29bf c1ab 4e3f
00000060: df03 8d3f 9428 34be 38b7 0fc0 8925 b9bf
00000070: f67d 7a3d 8024 1ebf 4e4e 4cbf 3cc8 06be
00000080: 678e f03f d4b9 93bd 9e8e 213e 2401 46bf
00000090: 78d5 4b3e d632 3b3d bda0 1c3e 2c8c f3be
000000a0: 5d5e e3bd 65e1 953e 29a2 21be 02d3 ebbc
000000b0: e8da 1640 84c7 84bf fc92 c93f ab3d 21bf
000000c0: 8b69 6dbf 658e 0b3f f2bd 873d b9c3 dfbe
000000d0: cb39 433f b80d e23e 4223 953f 2efc 0040
000000e0: dab5 0c3e 054b 703f 1277 3ebe 1507 25bf
000000f0: 0206 c53f 4b9d 5ebf 9f31 55c0 8e74 3fbf
00000100: 8aea d0bc 7ffc 82bf 979f 18bf 3bb5 80bf
00000110: 2ea9 57be 4051 f7bb dd32 d63f fa74 293c
00000120: 8136 34bf 51b6 3dbe 4309 7fbf 25cd 54bf
00000130: 140b ecbe 9061 0fbf f688 ca3e 8376 7bbf
00000140: 1ba9 01bf 0c57 cc3d cd6a 27bf 4750 3b3f
00000150: f599 b7bf 4935 00bf 99c0 2f3e 3dd5 23be
00000160: 525f 823e 4680 00bf 0b46 85bf dd75 3b3f
00000170: 0230 86bf d116 f1be d30f 953e 66cf fe3f
00000180: 7b54 293f 514f 983f 5e08 513f afdc 69bf
00000190: 744c b13f 3a58 50bf a875 6dbf d054 8e3f
000001a0: 05e8 aa3f adb1 1a3f 71d9 d3bd 9cd8 1abe
000001b0: 8788 06c0 c2b9 1ebf ac36 bdbf d313 91bf
000001c0: 1db1 5f3f 296d 0fbf 9694 a43f 5e1b 513f
000001d0: 3d3b 523e 0237 9c3e c922 093f 48c4 dcbe
000001e0: 8ab8 2340 f1f6 6ebe 35ba 5cbc 4829 ee3f
000001f0: f47d fdbf f737 e63f 9882 d03d 4415 ae3e
-1.5255959 -0.7502318 -0.6539809 -1.6094848 -0.10016718 -0.6091889 -0.97977227 -1.6090963
-0.7121446 0.303722 -0.7773143 -0.25145525 -0.22227049 1.6871134 0.22842517 0.4676355
-0.6969724 -1.1607615 0.6995424 0.19908163 0.8656924 0.2444039 -0.66291136 0.80730826
1.1016806 -0.17593604 -2.2455578 -1.446458 0.061155282 -0.61774445 -0.79806983 -0.13162321
1.8793458 -0.07213178 0.1577706 -0.7734549 0.1990565 0.045702778 0.15295692 -0.4756788
-0.11101983 0.29273525 -0.15784515 -0.02878714 2.357111 -1.0373387 1.5747981 -0.6298472
-0.9273917 0.5451415 0.06628026 -0.43704012 0.7626006 0.44151092 1.1651385 2.0153918
0.13741246 0.9386447 -0.18600109 -0.6446393 1.5392458 -0.8695876 -3.3311536 -0.74787223
-0.025502462 -1.0233306 -0.59618515 -1.0055307 -0.2106063 -0.0075475276 1.6734272 0.010342831
-0.70395666 -0.1852658 -0.9962351 -0.83125526 -0.46102202 -0.56008244 0.39557618 -0.9822771
-0.5064866 0.099775404 -0.6539734 0.7316937 -1.4343859 -0.50081307 0.17163314 -0.15999313
0.2546335 -0.5019573 -1.0412 0.7322672 -1.0483401 -0.4708772 0.29113635 1.9907043
0.6614453 1.1899205 0.8165339 -0.9135236 1.3851457 -0.81384623 -0.92757654 1.1119633
1.3352057 0.6042736 -0.10344208 -0.15121692 -2.102083 -0.62002194 -1.478231 -1.1334175
0.8737963 -0.5602594 1.2857845 0.81682384 0.2053041 0.30510718 0.535687 -0.431185
2.5581384 -0.23336388 -0.01347213 1.8606348 -1.9804063 1.7985829 0.10181159 0.340006

embeds.weight f4 [20, 8]
00000000: d24c 1f3f bc0e e4bf 4ebd 9a3e a996 983f
00000010: 0abf fcbe 0c31 dbbf eb46 043f 4815 15bf
00000020: cea1 ecbf 976a c3bf 116d 013f 820e 293f
00000030: c107 2d40 f85b 8c3f 0fed 0940 0010 05c0
00000040: 61f7 b8bf 7922 52bf 4bd9 933f 4e58 963e
00000050: dd99 143f 0373 febe f2a9 293f b38f 95bf
00000060: 471e 2c3f dfc5 abbe c31e 0b3f 54fb c83f
00000070: fb3a 9c3f b57a 1940 f46d 0dbf 53e9 3040
00000080: c9e7 d43c fccf d7be 5463 dbbf 0689 aabf
00000090: 2f32 0c3f 898d dfbf 07db 2f3f 7c62 8a3f
000000a0: 4887 143f f4d4 d43f 02ca b63f 62d4 b1bf
000000b0: 7773 1dbf 0307 0dbf d092 843d 6389 07bd
000000c0: c6cc 7d3f e732 0740 d677 c73e c5dc f93f
000000d0: 304d 8dbe eb17 0bbe c962 58bf 1bfb 8ebe
000000e0: a673 dc3f 436e 9bbe 709b 743e 3b08 ac3f
000000f0: fe67 d33d 68d8 8c3f b5f0 aebe cd84 723f
00000100: 438a 11bf b46c 563f fe4e e43f 671d 48be
00000110: 8bd1 033f 257a ecbf e9ab 3ac0 883c 11bf
00000120: 5791 0abf 202a 653f fbeb 61bf c824 083f
00000130: 07dc c5bf 8275 31be 5a6e 3a3f d1b8 693d
00000140: facf 673f fdec 853f d845 05bf 8e69 ad3f
00000150: 78d6 703e ed05 f53f 850f eb3f 478a a93f
00000160: fc10 78bf 9f35 a03f e7eb 9a3f ce25 07bf
00000170: cecf 5f3e cd05 13bf 1383 ba3f adae e23f
00000180: 6030 d33f b42f ddbe 0ac4 8abe 7b36 b8bf
00000190: 059f 9f3f 8e0d a33f 802a c83e 7440 c63e
000001a0: 9f43 b3be 863b c8be 5302 dfbd 943c f6bf
000001b0: 1403 0e40 6fec 25c0 bd01 abbf 317c 623f
000001c0: 924b 5c3e 283f 703f 4f9c bb3f 1b75 0ebf
000001d0: e3ad 3ebf 4d02 4fbe 102e 6bbe 3e80 ae3a
000001e0: 2a24 c03e dec0 14bf d582 12bf 6c3e 813f
000001f0: b55e d8bd 4700 97bf a7ea b9bd 4328 103f
00000200: 12c5 a0bf 1843 653f 307f 2b3e 1e5d 403f
00000210: be82 1a40 7fa2 823f 1887 e1be 35f9 ddbf
00000220: 9f3c 9ebf f40e ca3f c0da 8ebf 978c 443f
00000230: b894 16bf e69b 0740 fbcc 0abf 6e64 1dc0
00000240: a32f 8ebf 3f32 8fbf ff0b 423f d7c6 fdbe
00000250: 62ba 49be 79ca 08bd 7d23 383f bd3e 883f
00000260: b182 553f 9446 f5bf 761e afbe 0216 29bf
00000270: de52 a13e 4f35 923f 3d6b 9c3e 9831 14bf
0.62226593 -1.7816997 0.30222553 1.1920978 -0.493645 -1.7124343 0.5167071 -0.582356
-1.8486879 -1.5266904 0.5055705 0.6603776 2.7035983 1.0965567 2.155094 -2.0791016
-1.4450494 -0.8208385 1.1550688 0.29364246 0.58047277 -0.49697122 0.6627494 -1.1684479
0.672337 -0.335494 0.54343814 1.5701699 1.22055 2.3981144 -0.552459 2.764241
0.02598943 -0.42150867 -1.7139688 -1.3323066 0.54764074 -1.7465068 0.68693584 1.0811305
0.5801892 1.6627488 1.4280398 -1.3892939 -0.6150431 -0.55088824 0.06473315 -0.033090007
0.99140584 2.1124818 0.38958615 1.9520499 -0.27597952 -0.13583343 -0.84525734 -0.27925953
1.7222793 -0.3035756 0.2388742 1.3440012 0.10322569 1.1003542 -0.3416802 0.9473389
-0.56851596 0.8375962 1.7836607 -0.19542466 0.5149161 -1.8474776 -2.9167426 -0.5673299
-0.5412802 0.895174 -0.882507 0.53181124 -1.5457772 -0.17329982 0.72824633 0.05706102
0.9055172 1.0462948 -0.520597 1.3547838 0.23519313 1.9142433 1.8364111 1.3245324
-0.96900916 1.2516364 1.2103242 -0.5279206 0.21856615 -0.57430726 1.4571251 1.7709557
1.6499138 -0.43200457 -0.2710269 -1.4391626 1.2470404 1.2738512 0.39094925 0.3872105
-0.35012528 -0.39107913 -0.10889115 -1.9237237 2.2189379 -2.5925558 -1.3359905 0.8847075
0.21513203 0.9384637 1.4657077 -0.5564744 -0.7448408 -0.20215721 -0.2296679 0.0013313366
0.3752759 -0.5810679 -0.57230884 1.0097175 -0.10564939 -1.179696 -0.090779595 0.56311435
-1.2560141 0.895555 0.16747737 0.75142086 2.4142299 1.020584 -0.4404838 -1.7341677
-1.236225 1.5785813 -1.1160507 0.76777023 -0.58820677 2.1188903 -0.54219025 -2.4592547
-1.1108288 -1.1187209 0.75799555 -0.49565765 -0.19700006 -0.033396218 0.7192915 1.0644146
0.83402544 -1.9162164 -0.34202927 -0.66049206 0.31508535 1.1422518 0.30550566 -0.57888174

body.0.weight f4 [8, 8, 2, 2]
00000000: 53bd 5a3b 02c9 133e dd93 9c3e 6c3f 11bd
00000010: b877 ebbd 2613 d13e d377 3cbd 45cf 8c3e
00000020: e252 503d 36c8 d13d 5810 793e 7084 dfbd
00000030: bae0 b63d 3e3e fa3d aa31 f9bd 0bdf b3be
00000040: 9a1d 013d 39d9 cabb c85b e9be 1fbb 99bd
00000050: 2af5 08be 8211 b63e 959e a5be ac31 81be
00000060: f361 c23d eff9 84be 0336 333e 1a23 6abe
00000070: f4a4 92be 3c63 1d3e f4c4 6dbe 358f bdbd
00000080: ecb9 193e 8dd6 073e 183b c03c ac24 a73e
00000090: affb a3bd ba5f 4ebe d6dd e4bc 0c52 3f3e
000000a0: e3d4 98bd 08c8 acba 6631 353e 932c 983e
000000b0: 430b 8b3e cb42 0d3b 41e8 343e f0f8 69bd
000000c0: 41b2 53be 1b59 adbe 81ec 3fbd 88d1 65be
000000d0: c45c 4abe 7a4c bcbe d286 1c3c a456 e93e
000000e0: 250a ccbd 6b4e 963d f41d c43d 0eac 49be
000000f0: 7018 fe3c e533 a2be 2109 803d c849 373e
00000100: ea9f babd bbbc 97be 3296 d4be d3e0 673f
00000110: a084 9f3e 3ef5 883e 1294 c43d 662c aabe
00000120: 1882 5dbe c5ee fabd 71f9 a63c f63e de3d
00000130: 4f2a 8b3d 034d 373d 2a7c 35be 99a1 353f
00000140: 7fa3 a1bc a2af da3d a058 8bbe c56a 81be
00000150: 6ba9 41be 1a13 d03c ebbb 063e 7666 a83d
00000160: 6ff9 9e3b f91e b03e 2ea1 f73e 9020 f5bd
00000170: 8a11 dfbe 3bcb 1cbf 9cbe f4bd 5a0e f1bd
00000180: a8f6 4cbe dcdc f33d 103a 2a3e 9d41 abbd
00000190: 3aca 77be 2e13 17be 0deb 84bd 0d92 4dbe
000001a0: c004 443e a62d bf3d 18ee 493d fe9b 813e
000001b0: 7fa8 9b3e e1b9 6e3e b3b4 7c3e db36 ae3e
000001c0: b607 843e 76ea a53e ec70 49be 16ad a2bd
000001d0: 08c0 b1bc 5d33 62bd dfcd 86be b8b5 1bbe
000001e0: 3561 b23e 99e9 cb3b 582a 833e 5bff b33e
000001f0: 7a99 06bc 5a8d 03bd e4ad ad3d ceaa c0bd
00000200: e6a0 14be 1db9 b9bd e3a8 b33e cfa8 1cbe
00000210: 687d fb3a d740 863e 0915 b53e 323c 003e
00000220: acc9 d23d 004d 333e e441 e5be 243b f7bd
00000230: c309 e23d 9934 b43c 434a a9bd dbd6 7cbe
00000240: 3861 923e 5f4b a83e 1c7b 173e a41c 0abe
00000250: feeb cb3e 8f9e 023e 1a19 f53d c420 19bd
00000260: 2537 90be a5f1 933e 5da8 53bf b27f 153e
00000270: f1a5 a93e 546a 03be e74d d63e ed4d 813d
00000280: 97a7 b0bd 6d0d 853d 6234 58be 9347 993d
00000290: f4ec 6a3e 68b3 863d 6d7f a83e 378b e83d
000002a0: e1e0 153d bd2f 143d bae5 853e 01df 13be
000002b0: 2f5c 583e 66b8 a43d 1dec 063e 2396 febd
000002c0: 189d 023d fa8e 76be 74c8 823e 96c5 41bb
000002d0: 375a c13c c3c9 30be 3f86 633c 85fa f1bd
000002e0: ec8b 413e 851e cd3d 47d9 4d3d ac94 f53e
000002f0: 6fdd 82be 76be 28be a807 b0bd ea61 5a3d
00000300: ecec ca3e 7c8b d63d 96d6 123e 3cc3 9c3d
00000310: 04ba e63e 5f61 51be 078e 7d3d 3b14 d5bd
00000320: dd7a 863e 4d4c 823e 7d01 f8bc d63e 863d
00000330: 0f5e c93e ebce 833d 0e1b b53b 536c 83be
00000340: bc99 d83a e25e 03be d366 013e 14ea e53d
00000350: fea6 7abb 746c 67be 23c8 1fbe ceac 0cbf
00000360: b6d7 dcbe e57d 90bd 0a3f a3be 6114 373d
00000370: f39d 873e 1060 f23c 3891 913e 6968 c1bd
00000380: fc82 a8bd 4770 d63d 1a02 c93d db41 11bf
00000390: ed52 c0be 1ec8 4ebe 6050 09be 8608 c2be
000003a0: 7248 36be 0998 24be b633 a63e 4f53 8bbe
000003b0: 3172 c2bd df27 20be b1be c6bc 58b8 9dbe
000003c0: 6e4d 5d3d ed33 193e 4b1a ce3d 7437 233f
000003d0: e9aa 273d f32c f33d f518 d13d ad80 eabe
000003e0: 80ca 353e 7adb 8dbd cb79 66bc f8f1 fb3d
000003f0: 53ba c23e 29ae f93d 6cbd d1bc f881 79bc
0.0033377006 0.14432147 0.3058156 -0.035460874 -0.11497444 0.40834922 -0.04601271 0.27501884
0.050860293 0.10243265 0.24322641 -0.10913932 0.08929582 0.12218903 -0.12167676 -0.35131106
0.03152237 -0.0061904457 -0.45577836 -0.07506394 -0.13374773 0.35560232 -0.3234755 -0.2523321
0.094913386 -0.25971934 0.17501073 -0.22864953 -0.28641474 0.15369886 -0.23219663 -0.0925583
0.1501233 0.13265438 0.023465678 0.32645166 -0.08006989 -0.20153704 -0.02793781 0.18683642
-0.0746248 -0.0013182173 0.17694625 0.29721507 0.2715703 0.0021554704 0.17666723 -0.05712217
-0.20673467 -0.33857045 -0.046856407 -0.22443211 -0.1976195 -0.36777097 0.009553628 0.45573914
-0.099628724 0.07339176 0.095760256 -0.1969454 0.031017512 -0.31680217 0.06251741 0.17899239
-0.091125324 -0.29636177 -0.4152084 0.9057743 0.31155872 0.26749605 0.09598555 -0.33236998
-0.21631658 -0.12252573 0.020382615 0.108518526 0.06795179 0.04475118 -0.17723146 0.70949703
-0.019731281 0.106780306 -0.27216053 -0.2527677 -0.18912284 0.025399733 0.13157623 0.08222668
0.004851512 0.3439863 0.48365158 -0.119691014 -0.4356807 -0.61247605 -0.11950418 -0.117703155
-0.20015967 0.1190736 0.16623712 -0.08362124 -0.24198237 -0.1475341 -0.06490145 -0.20075245
0.19142437 0.093348786 0.04929933 0.25314325 0.3040199 0.23313095 0.24678306 0.34026226
0.25787133 0.32405442 -0.19671983 -0.0794317 -0.021698013 -0.055224765 -0.26328942 -0.15206039
0.34839788 0.0062229154 0.25618243 0.35155758 -0.008215303 -0.032117225 0.08480433 -0.094075784
-0.14514503 -0.09068511 0.35089788 -0.1529877 0.0019187154 0.26221344 0.3536761 0.12522963
0.10292372 0.17509842 -0.44776833 -0.12071827 0.11037018 0.021997737 -0.082661174 -0.24691336
0.28589797 0.32870004 0.14793056 -0.13487488 0.39828485 0.12755798 0.11967678 -0.037384763
-0.28167072 0.28895298 -0.82678777 0.14599493 0.33134416 -0.1283353 0.4185631 0.06313691
-0.08625715 0.064967014 -0.21113732 0.07484355 0.22941953 0.06577188 0.32909718 0.11354678
0.036591414 0.03617834 0.2615183 -0.14440538 0.21128915 0.08042984 0.13176008 -0.1243098
0.031888098 -0.24077979 0.2554356 -0.0029567233 0.023602588 -0.17264466 0.013886987 -0.11815361
0.18901032 0.10015587 0.05025604 0.4796499 -0.25559565 -0.16478905 -0.0859521 0.053316034
0.39633882 0.10475823 0.1433967 0.076544255 0.45063794 -0.204473 0.061903026 -0.10404249
0.26265612 0.25448838 -0.030274147 0.06554954 0.39329574 0.06435951 0.005526907 -0.25668582
0.0016525309 -0.12829164 0.1263688 0.112262875 -0.0038246508 -0.22599965 -0.1560369 -0.5495118
-0.43133324 -0.070552625 -0.31884032 0.04469717 0.26487693 0.029586822 0.28431106 -0.09443743
-0.08228108 0.10470634 0.09814854 -0.5674111 -0.37563267 -0.20193526 -0.13409567 -0.37897128
-0.17801073 -0.16073622 0.32461327 -0.27211997 -0.094944365 -0.1564021 -0.02426085 -0.30804706
0.05402892 0.14961214 0.10063609 0.6375649 0.040934477 0.11873808 0.10209838 -0.45801297
0.17753029 -0.069266275 -0.014067124 0.12302011 0.3803278 0.121914215 -0.025603019 -0.015228741

body.0.bias f4 [8]
00000000: b413 453d ad23 543e 48e5 f4bd d623 bf3e
00000010: 69d7 97bb 209e 723e bdb0 653e f425 fbbc
0.048114493 0.20716734 -0.119577944 0.37332028 -0.004633833 0.23693132 0.22430702 -0.030657746

head.0.weight f4 [32, 16]
00000000: 9fb7 1a3e 2c56 43be ea71 07be 56a3 673c
00000010: 0c14 4b3e 805e dbbd b10a 2cbe 386f 23be
00000020: a4ba e1bd 1066 d0bd fbfc 96bd 20c2 21be
00000030: e657 7f3d 1a73 62bc 1671 37be 4a31 12be
00000040: d507 efbd bc16 a73d b84d b9bb 5de7 c83d
00000050: 6399 6abe cb08 08bf 10e7 d33d f530 9c3d
00000060: 2e96 a73d 4775 903d 8dae 58be 2f84 fb3d
00000070: 6fc7 523e f0a7 bb3e e52b c63c 0fa8 c13e
00000080: 7a1c 313c 6f31 9a3d c848 57bd 4556 a03e
00000090: 85cf a1bd 043c c43e 8cfd 483d 4149 593e
000000a0: 8700 2d3d 3c2e d2bc fa20 9cbd 4bbc a43e
000000b0: 62c6 2a3e 8232 84bd f597 8c3d ce1c 653e
000000c0: 1eed 553e 497e c23e e39a b43e 28a4 7e3e
000000d0: d406 25be 2685 30bd 5ed4 5e3e 00f9 e43e
000000e0: c1ac 443e 2e9c 213e f1b2 cdbb a8a7 b33d
000000f0: 5ff9 c0bd 7eaa f93d fe59 b43e 02c4 873e
00000100: 73a4 ac3d 6cb8 803e 8a84 5c3e ed5b 8d3d
00000110: f215 61bd 044f 0c3e 2500 793e 2a39 513e
00000120: a557 703e 6149 b93e be31 8e3d dc32 4a3d
00000130: ffc7 07be 6be9 cf3d 0187 963e a765 493d
00000140: 2359 f3bd 96fe 26bf fb12 a53c 6ad5 8dbc
00000150: 4080 003e dff5 7a3e 385e cfbe acc9 173e
00000160: 6a8b f1bd a9c6 9a3e 54a6 063f f463 833e
00000170: 51f3 a4be f9ac b23e 648b 863e 5cac 743d
00000180: 4728 28be c76c 12bf 5f61 55c0 ea10 153d
00000190: 64be 0fbe c6dc 713c dccd 04be e22a 803e
000001a0: d8e7 0bbf e72d 8b3e 6750 2dbe 85b6 47bd
000001b0: 1478 4bbe 0211 c53e 126d 4dbe 9fec babe
000001c0: 2183 753e 2ce6 8e3e 24ee d23e 3b8f f23d
000001d0: 1ac8 15be 7588 9fbd 8dce ad3e c89d 973e
000001e0: 4b7b 83bd bdf8 673e cc4e b63b ef1a 2f3e
000001f0: 409a 0b3d 2e47 b5bc eb12 fb3e 0fbc 8abd
00000200: 7ce8 143e dc71 2b3e 11f7 5bbe 7705 f2bd
00000210: 15bf cbba ac5f 71be a101 033d bdae 16be
00000220: 6802 e3bd 3608 46be 9f58 983d c8fb 23be
00000230: bda0 7bbe 883d aebd 10d6 3bbe 0c87 8cbe
00000240: 16a9 963d 791a ba3d 6b4d 233e ceea 373e
00000250: 3ac2 96be 55c6 9fbe 08ca 3ebd d5aa 413e
00000260: a1b2 8d3b 0d25 e63d b1ac 353e 6393 c33e
00000270: 158a e63d 559f 97be fe85 383e 46bf 1bbd
00000280: adc9 a93e 5501 19bf 253d 093f 9271 6abe
00000290: 3c51 c2be a136 1bbc a080 a3bb 3b44 5cbe
000002a0: aadf 523f 24b6 e8be 3376 f0be 91eb bcbe
000002b0: 1b45 81bf 2027 a03e 10e9 da3e 5087 dabe
000002c0: a6da a73d 0c86 663e 5b81 733e 1021 b13e
000002d0: 7913 97bd 1aa1 cabd e363 d43d f6ae b13e
000002e0: 5786 d13e ff45 5abe ba07 a73d 6832 12be
000002f0: 9b93 90be 2e5a 82bd 22e9 b13e cf67 443e
00000300: f685 cbbd ffac a23e 769f 5d3e 579e 5a3e
00000310: f9cd bf3d 9883 b43e 50eb a63e dbc1 bf3e
00000320: 87ea 583d 9327 903b 8562 013e 4d45 773d
00000330: 02d4 223e f87f 223d 6519 49bd 6747 233e
00000340: ef92 e53c 593b 203e 1716 6b3e 5793 ba3d
00000350: 80f2 003d d468 523e 0fbf 8bbe 64f3 893d
00000360: 56a6 46bf 8f5b 51bd 2aab 7d3d aaa5 85bd
00000370: c84c a3be d5bb b83e 611f bd3e 7725 683e
00000380: 9b5f 6b3d e1cd 583d 733f 223d b644 98bd
00000390: 567f 26c0 a82d 5fbe 59ae 30be e7cd c0bb
000003a0: 23e8 83bd 8358 9fbe 89db cf3e 0330 b6be
000003b0: 715b 363e bce1 fcbd 5201 033f 1b7f 4cbe
000003c0: a11a 023e f0e2 963e baed 653d 305c 543d
000003d0: ee6d cd3e 1a77 92bc 029f 513e 8ecf a5be
000003e0: d4e3 dd3d 6229 143f d6a3 7abd 95a0 9d3e
000003f0: 186c d1bd dc23 63be 7ddc 85bd 0eda fc3d
0.15109108 -0.1907584 -0.13227049 0.014138063 0.19831866 -0.10711384 -0.16800953 -0.15960395
-0.11021927 -0.10175717 -0.07372471 -0.15796709 0.062339686 -0.013821388 -0.17914233 -0.14276615
-0.11671416 0.08158633 -0.0056550168 0.09809754 -0.22910075 -0.53138417 0.10346806 0.07626525
0.081829414 0.07053619 -0.21160336 0.122810714 0.2058389 0.36651564 0.024190852 0.3782353
0.010810012 0.0752896 -0.052559644 0.31315818 -0.07900909 0.38327038 0.049069926 0.2121935
0.04223683 -0.025656812 -0.07623477 0.32174906 0.1667724 -0.06454946 0.06864921 0.2237427
0.20891234 0.37986973 0.3527442 0.24867308 -0.16115886 -0.04309573 0.21760699 0.44721222
0.19206525 0.15782234 -0.006277435 0.08772212 -0.09422564 0.12190722 0.3522491 0.2651673
0.08429804 0.25140703 0.21534935 0.06902299 -0.05495257 0.13702017 0.24316461 0.20431963
0.23470934 0.36188796 0.06943081 0.04936491 -0.13259886 0.10151943 0.29399875 0.04916921
-0.11882236 -0.6523222 0.020150652 -0.017313678 0.12548923 0.24507855 -0.4050157 0.14823025
-0.11794169 0.3022969 0.52597547 0.25662196 -0.32216886 0.34897593 0.26278222 0.059734687
-0.16421615 -0.5719723 -3.334068 0.036393084 -0.14037472 0.014762109 -0.12969154 0.25032717
-0.5465064 0.27183458 -0.16925202 -0.04875805 -0.19870025 0.38489538 -0.20061138 -0.36508653
0.23975803 0.27909982 0.41197312 0.11843725 -0.14627114 -0.07789699 0.33946648 0.29612565
-0.06420001 0.2265348 0.0055635925 0.17100118 0.03408265 -0.022128668 0.4903787 -0.067741506
0.14541811 0.16742653 -0.21480967 -0.118174486 -0.0015544618 -0.23571652 0.031983975 -0.14715095
-0.11084443 -0.1933907 0.07438778 -0.16014016 -0.24573036 -0.0850783 -0.18343377 -0.27446783
0.07356469 0.090870805 0.15947501 0.17960665 -0.29445058 -0.31206003 -0.04657939 0.18912823
0.0043242727 0.112375356 0.17741658 0.38198385 0.11256806 -0.29613748 0.18019864 -0.03802421
0.3316168 -0.5976766 0.53608924 -0.22894886 -0.37952602 -0.009473474 -0.0049896985 -0.21510403
0.82372534 -0.45451462 -0.4696518 -0.36898473 -1.0099214 0.3127985 0.42755938 -0.4268136
0.08196001 0.22512072 0.23779814 0.34595537 -0.07376761 -0.09894009 0.103706144 0.34703797
0.40922806 -0.21315764 0.081557706 -0.14277041 -0.28237614 -0.06364857 0.3474818 0.19180225
-0.099376604 0.3177261 0.21642861 0.21349464 0.09365458 0.35256648 0.32601404 0.37452587
0.052958038 0.004399249 0.12635238 0.060368825 0.15901187 0.03967282 -0.049096484 0.15945207
0.028024165 0.1564764 0.22957645 0.09110134 0.031481266 0.20547801 -0.27294204 0.06735876
-0.7759756 -0.051112708 0.061930813 -0.065257385 -0.31894517 0.36080804 0.36938003 0.22670542
0.057464223 0.052930716 0.03961129 -0.074349806 -2.601522 -0.2179476 -0.17254008 -0.0058839205
-0.06440761 -0.31122217 0.4059718 -0.35583505 0.1780832 -0.12347743 0.5117389 -0.19970362
0.1270547 0.29470015 0.056134917 0.05184573 0.40122932 -0.017879058 0.20470813 -0.32384914
0.108344704 0.57875645 -0.061191402 0.30786577 -0.10225695 -0.22181648 -0.065361954 0.12346278

head.0.bias f4 [32]
00000000: 52e7 7ebe 756c de3d 9baf e93e 6483 933e
00000010: 8312 db3c 5972 0f3f 7655 493e d18c 3a3f
00000020: d017 48be b129 a33e ec87 d2bd 36d2 013e
00000030: 0fcd 853e 02af 073f 8f87 8e3e 5a38 27be
00000040: fde4 093f c70e a8be 73e2 983b 3336 873e
00000050: 548d a43e 4765 9e3e 5549 65be cf40 9c3e
00000060: 6839 8a3e 2376 a13d 754a 143f 222e 04be
00000070: 8e71 55be 928b 3cbe 7509 f43e b1f5 033f
-0.24892929 0.1086053 0.4564179 0.2881118 0.026742226 0.56033856 0.19661507 0.7287112
-0.19540334 0.31867746 -0.10279831 0.12677845 0.2613301 0.53001416 0.27837798 -0.1633009
0.53865033 -0.32823774 0.0046656667 0.26408538 0.32139075 0.30936643 -0.22391255 0.30518195
0.26996922 0.07883861 0.5792611 -0.12908223 -0.20844099 -0.18412617 0.47663465 0.5154677

head.2.weight f4 [5, 32]
00000000: 38f0 2cbe 048c 3f3e 069f f63d 4f74 483e
00000010: 842a 3c3e 13ba d43e b10a adbd a1e4 ff3d
00000020: 0e36 7dbd 7956 073e db2a 343f 36f2 793e
00000030: 216f 773e 1f50 633e 3526 f93e c204 3c3e
00000040: 8eae 17be 18e0 bbbe e089 9fbe fb11 5c3f
00000050: 06b7 fbbe 2084 b73c c9b9 fe3e 470c 4f3e
00000060: 877b 743e 8dbc cc3e 10fd a43e 8a4b 053e
00000070: f514 fb3d e019 19bd 7552 d13d 94dc 333e
00000080: c2c6 fbbd 920e 183d d2c9 593e e02b a73e
00000090: d96e e63d eddf 9e3e ab81 ffbd ae25 5a3e
000000a0: dd09 3e3e 42fd d63d 1d9c e43e 9ccd 633e
000000b0: 58e6 403d c0e8 9b3e f301 0c3f 9b37 47bc
000000c0: f456 853d 87ad dabe 3ba4 a9be a870 383f
000000d0: 9bd7 e0be 6446 2c3e e828 f23e 88ef 8e3e
000000e0: 65bf d63d 12ea 9a3e b61c 843e 187b 953e
000000f0: 5673 733e 1eb2 82bd b6fe 383d 111f 483e
00000100: 59b0 13be 1921 903e 286f 8c3e 9000 563d
00000110: b487 b53d c30e ab3e 0f98 c8be 9893 4c3e
00000120: bbd0 bcbd e8dc 3dbb 915e 053e 00ce 75bc
00000130: 62c4 843e 4452 d63d 8b55 313f ab42 ca3d
00000140: 7042 90bc 8e9a a9be 3ee4 bcbc 0f64 333e
00000150: 5024 f0be abc9 ac3e fd66 003f 4ec2 833e
00000160: 4467 8b3e 4134 943d 940c 703e 3930 8c3e
00000170: b7aa b73c 3059 cd3c 1551 833e 5b64 933e
00000180: 6902 1b3b c6b9 07bc 626a 333e 6886 7a3e
00000190: 93bb ed3d 8d23 413e 9181 2a3e 715f 903e
000001a0: 91fb 973d df3d b23e ad01 5f3e fabf 293e
000001b0: 0740 413e 8567 633e a25a 163f 7fb8 6cbe
000001c0: b4b5 ee3e d1ca dbbe 42f2 42be f87f 1a3f
000001d0: db4d c5be ba9a be3e 6a21 043f 97c6 4e3e
000001e0: fc4b 263e 956c ab3e 84b1 323e 1552 cbbc
000001f0: 3cda 17be 4541 e6bd 0584 283e ea9b 4d3e
00000200: 3e7c b43d 98b1 073e e68d 2e3d 5ff0 423e
00000210: 012b 353e e8f1 ba3e 0b70 b2be 40ef 6c3e
00000220: 0fce dd3d 7954 543c 8b00 273f 3f6d 583e
00000230: 0bfd 383e 5b17 fc3d f23b 133f 6229 083d
00000240: ab5e f1bc 200a f3be 2a80 6ebe 9d6f 323f
00000250: 6eb0 b4be a7b5 af3d e5ee 213f 68d3 c93e
00000260: b824 bc3d 0cff 8e3e 0ba0 4c3e 3369 003f
00000270: 7be2 d2bc 9cc7 0abe f944 943e ec09 783e
-0.16888511 0.18705755 0.1204205 0.19575618 0.18375593 0.41548213 -0.08449305 0.124947794
-0.06181913 0.1321658 0.7037789 0.24408802 0.24163486 0.22198533 0.48661962 0.1836119
-0.14812681 -0.36694407 -0.31159878 0.85964936 -0.49163073 0.02240187 0.49751118 0.20219527
0.23875247 0.39987603 0.3222432 0.13017097 0.122598566 -0.037378192 0.102208056 0.17564613
-0.122937694 0.03712327 0.21268395 0.3265066 0.11251611 0.31030217 -0.12475904 0.21303436
0.1855845 0.10497524 0.44650355 0.22246403 0.047094673 0.30451012 0.54690474 -0.0121592535
0.065107256 -0.42710516 -0.3313311 0.720469 -0.43914494 0.16823727 0.47296834 0.27917123
0.10485724 0.30256706 0.25803155 0.29195476 0.23774466 -0.063816294 0.045164786 0.19543101
-0.1442274 0.28150252 0.27428555 0.05224663 0.08863774 0.334097 -0.39178512 0.19978178
-0.092195 -0.0028970782 0.13024355 -0.0150027275 0.25931078 0.1046491 0.69271153 0.09875997
-0.017609805 -0.33125728 -0.023058053 0.17518638 -0.46902704 0.3374761 0.5015715 0.2573418
0.27227223 0.07236529 0.23442298 0.2738054 0.02242027 0.025066942 0.25647798 0.28787503
0.002365256 -0.008284038 0.1752105 0.24465334 0.116080426 0.18861218 0.16650988 0.28197816
0.07421029 0.3481283 0.21777983 0.1657714 0.1887208 0.22207458 0.58732045 -0.23117255
0.46623003 -0.42928174 -0.19037727 0.60351515 -0.38535962 0.37227422 0.51613486 0.20192944
0.16239923 0.3348128 0.1745053 -0.024819413 -0.14829344 -0.11242918 0.16456611 0.20079008
0.0881276 0.1325134 0.042615794 0.19037007 0.17692186 0.36512685 -0.34851107 0.23138142
0.10830318 0.012959593 0.65235204 0.21135424 0.18065278 0.12309142 0.57513344 0.03324259
-0.029464087 -0.47468662 -0.23291078 0.6970156 -0.35290855 0.08579569 0.6325515 0.39419103
0.09186691 0.2792896 0.19982927 0.5016052 -0.02574276 -0.13552707 0.28958872 0.24222535

head.2.bias f4 [5]
00000000: 9bab 283e e99f c13e 0ba9 053f 6bf8 293f
00000010: f700 013e
0.16471712 0.37817314 0.52211064 0.6639468 0.12598024

exp_avg f4 [20, 8]
00000000: 5e80 bf3b 59b5 763b 4244 29bb 86b4 bdb9
00000010: 0a2d 0c3b 8970 80ba 84cd 67bc ce70 ee3b
00000020: 369a 603a 9758 023b f9a2 c5ba d265 96bb
00000030: 5820 17bb 1a3b f539 5391 fbba 44db a93a
00000040: d723 003a cb0f 63bb 5fa8 a33a 4e10 c9bb
00000050: 83f4 7bbb 584f f3bb f57e aa3b 2e25 d2ba
00000060: b008 31bb c9d5 843b c802 ed3a c42e 053b
00000070: 3e1d 213b cf13 f839 0d82 443b 3f39 62ba
00000080: b010 0d3a 1d93 6b3a 758b 9239 f60b 9fba
00000090: 72c1 b5ba 252c fa39 f016 d63a 549c 3dba
000000a0: 64e5 abbb ccdf 4bbb 1df3 ecbb 38e4 69bb
000000b0: 306c 273c d027 e93a 7185 c1bb 3050 bfba
000000c0: b415 7abb 679b 94ba 5f7c 0abb 9107 c7bb
000000d0: 3c63 0a3a 4cba 813b ce18 9aba e0b3 21ba
000000e0: 0000 0000 0000 0000 0000 0000 0000 0000
000000f0: 0000 0000 0000 0000 0000 0000 0000 0000
00000100: 0000 0000 0000 0000 0000 0000 0000 0000
00000110: 0000 0000 0000 0000 0000 0000 0000 0000
00000120: 0000 0000 0000 0000 0000 0000 0000 0000
00000130: 0000 0000 0000 0000 0000 0000 0000 0000
00000140: 0000 0000 0000 0000 0000 0000 0000 0000
00000150: 0000 0000 0000 0000 0000 0000 0000 0000
00000160: 0000 0000 0000 0000 0000 0000 0000 0000
00000170: 0000 0000 0000 0000 0000 0000 0000 0000
00000180: 0000 0000 0000 0000 0000 0000 0000 0000
00000190: 0000 0000 0000 0000 0000 0000 0000 0000
000001a0: 2f12 a43a c3b0 913a 44a5 a63a 5e7a 653a
000001b0: 7c84 c8ba f15b 893a 3a17 bcb9 ff5f aeb9
000001c0: 0000 0000 0000 0000 0000 0000 0000 0000
000001d0: 0000 0000 0000 0000 0000 0000 0000 0000
000001e0: 0000 0000 0000 0000 0000 0000 0000 0000
000001f0: 0000 0000 0000 0000 0000 0000 0000 0000
00000200: 0000 0000 0000 0000 0000 0000 0000 0000
00000210: 0000 0000 0000 0000 0000 0000 0000 0000
00000220: 0000 0000 0000 0000 0000 0000 0000 0000
00000230: 0000 0000 0000 0000 0000 0000 0000 0000
00000240: 0000 0000 0000 0000 0000 0000 0000 0000
00000250: 0000 0000 0000 0000 0000 0000 0000 0000
00000260: 0000 0000 0000 0000 0000 0000 0000 0000
00000270: 0000 0000 0000 0000 0000 0000 0000 0000
0.00584416 0.0037644713 -0.0025828038 -0.0003618339 0.002138915 -0.0009799163 -0.01414812 0.007276631
0.0008567901 0.001988923 -0.0015078477 -0.0045897746 -0.002306005 0.00046774076 -0.001919309 0.0012959023
0.0004888153 -0.0034646865 0.0012486092 -0.006135977 -0.00384453 -0.00742523 0.0052031227 -0.0016032809
-0.0027013235 0.0040538055 0.0018082494 0.0020322064 0.002458408 0.00047317005 0.0029984743 -0.0008629746
0.000538121 0.000898646 0.00027951194 -0.0012134302 -0.0013866855 0.00047716606 0.001633374 -0.00072330725
-0.0052458514 -0.0031108735 -0.00723113 -0.0035689007 0.010218665 0.0017788354 -0.0059058 -0.0014596041
-0.0038159909 -0.0011337817 -0.002113126 -0.0060739 0.00052790693 0.003958976 -0.001175666 -0.0006168466
0.0 0.0 0.0 0.0 0.0 0.0 0.0 0.0
0.0 0.0 0.0 0.0 0.0 0.0 0.0 0.0
0.0 0.0 0.0 0.0 0.0 0.0 0.0 0.0
0.0 0.0 0.0 0.0 0.0 0.0 0.0 0.0
0.0 0.0 0.0 0.0 0.0 0.0 0.0 0.0
0.0 0.0 0.0 0.0 0.0 0.0 0.0 0.0
0.0012517626 0.0011115301 0.0012714048 0.0008753891 -0.0015298272 0.0010479671 -0.0003587546 -0.0003325939
0.0 0.0 0.0 0.0 0.0 0.0 0.0 0.0
0.0 0.0 0.0 0.0 0.0 0.0 0.0 0.0
0.0 0.0 0.0 0.0 0.0 0.0 0.0 0.0
0.0 0.0 0.0 0.0 0.0 0.0 0.0 0.0
0.0 0.0 0.0 0.0 0.0 0.0 0.0 0.0
0.0 0.0 0.0 0.0 0.0 0.0 0.0 0.0

exp_avg_sq f4 [20, 8]
00000000: f6c0 6e3b c211 ce3b 88ba 803b 0b66 4a3c
00000010: 91c2 ab39 084f ff3b f6c9 c93a 1ab4 ca3a
00000020: d1cf f837 498d b038 4272 1138 8ae4 9a39
00000030: bf13 b238 7d37 9738 f3be ef38 045e 5639
00000040: 1335 8c39 6396 023a c094 503a 2349 6939
00000050: 5f73 6539 0f84 e33a e094 9b3a eed0 0339
00000060: d304 d139 b127 2239 dcff e939 9834 693a
00000070: 4f5e 8039 a018 1839 c1ef 3b39 8478 8c39
00000080: 5088 1438 7099 6438 8a16 d637 a8be b737
00000090: c846 0c38 9350 8039 51c3 b938 9b50 9d37
000000a0: c004 623a a796 1e39 537d ee3a de9e 043a
000000b0: 97d6 943a 4db3 293a b0c4 6e3a f66f 3139
000000c0: 2a61 203a 26cb ea38 f679 e839 0c13 6f3a
000000d0: 13b4 5f39 bdfc 3239 1eca 4939 caff 5a39
000000e0: 0000 0000 0000 0000 0000 0000 0000 0000
000000f0: 0000 0000 0000 0000 0000 0000 0000 0000
00000100: 0000 0000 0000 0000 0000 0000 0000 0000
00000110: 0000 0000 0000 0000 0000 0000 0000 0000
00000120: 0000 0000 0000 0000 0000 0000 0000 0000
00000130: 0000 0000 0000 0000 0000 0000 0000 0000
00000140: 0000 0000 0000 0000 0000 0000 0000 0000
00000150: 0000 0000 0000 0000 0000 0000 0000 0000
00000160: 0000 0000 0000 0000 0000 0000 0000 0000
00000170: 0000 0000 0000 0000 0000 0000 0000 0000
00000180: 0000 0000 0000 0000 0000 0000 0000 0000
00000190: 0000 0000 0000 0000 0000 0000 0000 0000
000001a0: af26 c237 fac9 6838 8e87 0338 2adf bb37
000001b0: caee f637 ca56 4139 3c95 bf38 2c1b d137
000001c0: 0000 0000 0000 0000 0000 0000 0000 0000
000001d0: 0000 0000 0000 0000 0000 0000 0000 0000
000001e0: 0000 0000 0000 0000 0000 0000 0000 0000
000001f0: 0000 0000 0000 0000 0000 0000 0000 0000
00000200: 0000 0000 0000 0000 0000 0000 0000 0000
00000210: 0000 0000 0000 0000 0000 0000 0000 0000
00000220: 0000 0000 0000 0000 0000 0000 0000 0000
00000230: 0000 0000 0000 0000 0000 0000 0000 0000
00000240: 0000 0000 0000 0000 0000 0000 0000 0000
00000250: 0000 0000 0000 0000 0000 0000 0000 0000
00000260: 0000 0000 0000 0000 0000 0000 0000 0000
00000270: 0000 0000 0000 0000 0000 0000 0000 0000
0.0036430932 0.006288738 0.0039284863 0.0123534305 0.00032760625 0.0077914037 0.0015395272 0.0015465051
2.9660676e-05 8.4186504e-05 3.4677105e-05 0.00029543444 8.4913794e-05 7.2105766e-05 0.00011431975 0.00020443654
0.00026742424 0.0004981516 0.0007956736 0.00022247857 0.00021882121 0.0017358082 0.001186993 0.00012570966
0.0003986718 0.0001546431 0.00044631853 0.00088960817 0.00024484328 0.00014505023 0.00017923025 0.00026792672
3.54129e-05 5.4502336e-05 2.5521284e-05 2.1904081e-05 3.344452e-05 0.00024474095 8.857868e-05 1.8753393e-05
0.00086219236 0.00015124177 0.0018195309 0.00050590734 0.0011355457 0.0006473556 0.0009108288 0.00016921744
0.0006117994 0.00011195829 0.00044341356 0.00091199647 0.0002133402 0.00017069555 0.00019244148 0.00020885389
0.0 0.0 0.0 0.0 0.0 0.0 0.0 0.0
0.0 0.0 0.0 0.0 0.0 0.0 0.0 0.0
0.0 0.0 0.0 0.0 0.0 0.0 0.0 0.0
0.0 0.0 0.0 0.0 0.0 0.0 0.0 0.0
0.0 0.0 0.0 0.0 0.0 0.0 0.0 0.0
0.0 0.0 0.0 0.0 0.0 0.0 0.0 0.0
2.3144616e-05 5.5501216e-05 3.135908e-05 2.2396056e-05 2.943668e-05 0.00018438246 9.135387e-05 2.4927394e-05
0.0 0.0 0.0 0.0 0.0 0.0 0.0 0.0
0.0 0.0 0.0 0.0 0.0 0.0 0.0 0.0
0.0 0.0 0.0 0.0 0.0 0.0 0.0 0.0
0.0 0.0 0.0 0.0 0.0 0.0 0.0 0.0
0.0 0.0 0.0 0.0 0.0 0.0 0.0 0.0
0.0 0.0 0.0 0.0 0.0 0.0 0.0 0.0

exp_avg f4 [8, 8, 2, 2]
00000000: c6f3 a03b 618d 8e3b 8f64 b8bc 1f95 3e3b
00000010: 53d9 2dbb 0176 ba3c a4a0 6ebc 4b7f 14bd
00000020: 6fdc 8e39 42fd c33a 01f7 c33b aff2 8ebb
00000030: 7012 4f3b 8634 fb3b 0a69 cf3a 7c63 b63c
00000040: 6ef2 b7bb 7a81 343b 126e 1f3c 1c18 bcbb
00000050: fa8b e2bb 4cae 603c 8b30 5e3b d164 51bc
00000060: 78df f0ba 6b46 23bc 005e 0a3c 2a4c 1a3c
00000070: 603a a33a d4f8 063c b8d9 37bc f9d1 07bc
00000080: ea50 6c3b 3c0d 143a 1471 38bb 18de 62bc
00000090: 8f2c fb39 5470 9c3c dc6c c8bb f67c 2cbd
000000a0: 9c04 70bb 7be7 52bb 2193 1bbb feaf 92bc
000000b0: 8ce2 38bc 1d1b 13bc 9c91 b0bb 05f2 c13c
000000c0: b643 00bc 3405 5bbb 1872 f13b ac40 6a3c
000000d0: fb47 343b 38e0 1a3c f003 933c 888f 2f3c
000000e0: e336 f9bb a8c6 1ebc 97a9 34bb b591 b93b
000000f0: 011d 803c 8a01 093c bbbe 653c d63f a63b
00000100: 44b9 2fb9 c334 953b 0ede 6bbc edd7 a53a
00000110: ea52 7fbc 89ce 1b3c 59d8 7fbc e22c 88bc
00000120: b7bb 41b8 5739 0a3b ba1b 18ba 5816 1ebb
00000130: f584 84ba 88c8 b23b a96a 013c ae10 6b3b
00000140: eb2e 30bb 4259 153c 63f8 0e3c ddcf d3bb
00000150: 743f 25bc 2408 e33c 0bb7 81bb db57 9abc
00000160: 91f5 b43b 71a9 29bc 8f67 643b 0af9 c73b
00000170: a06a 74bb 5e01 ea3c 2b6d 19bc 18c5 41bc
00000180: 2679 da3b 20a6 08bb 89b2 4dbc da8a f7bb
00000190: f867 103a 0cd2 cc3c ff6d d6bc aee2 2bbd
000001a0: 3bc5 afbb de47 78bb 4528 edbb 74f9 b6bc
000001b0: ce36 77bc 9cf0 51bc 8180 453c d775 b13c
000001c0: 0c87 71bc 8727 f73a d0d5 8e3c 35cd 803b
000001d0: 2ee3 19bb 2d40 b53c 740b ea3c 81bb c93a
000001e0: 90b3 30bc d6eb 46bc c59a c2ba dc4f 0d3c
000001f0: 408d 963c c228 833c f691 813c 5bd2 9aba
00000200: bcc3 f23b 5407 633a 1d33 ceba 33ae 1f3b
00000210: 89c3 093b da0e 523b 3f5f 37bc 61cb 8e3a
00000220: 25c6 57ba 2927 1cba 25fb 0abb a89a 1dbc
00000230: 6a14 4739 8966 aeba e2af ccb8 4ab9 65bb
00000240: 16cb f8bb 416e c2ba e9cc c2ba 79cb b23a
00000250: 9023 a8ba 6a36 6a3a fd91 8dbb 2b4a b6ba
00000260: d28d f2bb ae87 0fbb 9aaf 893b 6951 eeb9
00000270: d3da 373c 1229 043b a03a 35bb 261f d33b
00000280: bba2 623b 1095 07ba aae4 de3b 0463 a5bb
00000290: 1baa 1e3b 6956 533b 7d21 4cbc 18d2 5138
000002a0: 933a 42ba 74d8 a3b9 844d d9bb 90f2 87bb
000002b0: 5fe1 74ba e60c dbba 79c6 663b ea7c 40b9
000002c0: ce7d 84bb 585f f23a 107a a03b 3b29 c23a
000002d0: f8a3 21b9 fbd7 c73b fb58 9c3b 3d18 b03b
000002e0: 1696 89bb 3809 00bb 7e1b 40bb d17a 5e3b
000002f0: 08d1 bb3b 7f55 9d3b cbce 813c b5f2 253a
00000300: 4373 083b 0cf3 cf3b be88 75bb c730 13bc
00000310: 8a1a d9bc ea05 5c3c 3637 a2bc ca94 54bc
00000320: d6db 9d3a b161 fa3a 574a eb3b 5909 6ebb
00000330: 672f 553b cb56 353c 33f3 9d3c 5c73 fbbb
00000340: bc5e 8dbb 6897 7bbb a38a e83b 6260 2f3c
00000350: 53a6 8cbc 9f3f 86bb 8215 2b3c af79 48bc
00000360: ac4c 0d3c 0694 aabb 3527 053b e0b2 243b
00000370: 840a a4bb 36b3 85bb a017 923b b675 793a
00000380: c973 1f3b a438 d13b f4ac 593a 398d b7bb
00000390: 2a26 a5bb dff4 81bc 2fbc 3c3c 92ee 1ebc
000003a0: e644 f73a 66b3 af3a 12dc 223c 6c32 503c
000003b0: b226 d23b 32b1 b43b 47da 18bc 57c9 833c
000003c0: e6d5 843a 5b28 acbb 4d21 0bbb 0c97 f7bb
000003d0: 1f39 a6ba e0be 1bbc cea9 c53a 2594 4a3b
000003e0: bd80 8a3a 8e03 923a f241 9239 a2fc 213c
000003f0: da43 a83a 1b26 a23b c52c 023a ba23 7abc
0.0049118726 0.00435035 -0.022508888 0.0029080582 -0.002652724 0.022761347 -0.014564667 -0.03625421
0.00027248586 0.0014952796 0.005980373 -0.004362426 0.0031596683 0.0076661734 0.0015824151 0.022264235
-0.0056136167 0.0027542994 0.009730833 -0.0057401787 -0.006913659 0.013713431 0.0033903446 -0.012780384
-0.0018377146 -0.009965519 0.008445263 0.009417573 0.001245331 0.008238036 -0.011221342 -0.0082898075
0.003605897 0.0005647724 -0.0028143572 -0.013846897 0.0004790765 0.019096531 -0.0061164927 -0.04211136
-0.003662384 -0.003218143 -0.0023738819 -0.017906185 -0.011284482 -0.008978632 -0.0053884517 0.023674974
-0.007828644 -0.003341985 0.0073683374 0.014297646 0.0027508724 0.009452872 0.017946213 0.010715373
-0.00760542 -0.009690918 -0.0027566904 0.0056631216 0.01563883 0.008362183 0.0140225245 0.005073528
-0.00016758317 0.004553409 -0.014396204 0.0012652852 -0.015583733 0.009509691 -0.015615546 -0.016622964
-4.618961e-05 0.0021091306 -0.00058024714 -0.0024122205 -0.0010110425 0.005456034 0.007898965 0.0035868096
-0.0026883434 0.009115519 0.008726212 -0.006463988 -0.010085929 0.027713843 -0.003958588 -0.01884072
0.005522438 -0.010355339 0.0034851765 0.006102686 -0.0037294999 0.028565105 -0.009364407 -0.011826776
0.006667274 -0.0020850971 -0.012554773 -0.007554394 0.00055086566 0.025002502 -0.026175497 -0.041964225
-0.005364088 -0.0037884633 -0.0072374665 -0.022335745 -0.01508875 -0.012813713 0.0120545635 0.021662636
-0.01474167 0.0018856385 0.017435938 0.0039307126 -0.0023481357 0.022125328 0.028569914 0.0015390964
-0.010784999 -0.012141189 -0.001484715 0.008624997 0.0183779 0.016010646 0.01581667 -0.0011811958
0.0074085873 0.0008660455 -0.0015731786 0.0024365305 0.002102109 0.003205231 -0.011192142 0.0010894352
-0.0008231125 -0.0005956763 -0.0021206823 -0.009619392 0.00018985724 -0.0013305704 -9.760239e-05 -0.0035053068
-0.007592569 -0.0014833884 -0.0014862093 0.0013640962 -0.0012827981 0.00089345 -0.0043203817 -0.0013907602
-0.00740216 -0.002190094 0.0042018415 -0.00045455553 0.011221605 0.0020166081 -0.0027653351 0.006442922
0.0034581858 -0.00051720534 0.006802161 -0.005047204 0.0024210277 0.003224755 -0.012459156 5.0025148e-05
-0.0007409241 -0.00031251053 -0.006631555 -0.0041487888 -0.0009341444 -0.0016712218 0.0035213514 -0.00018357081
-0.0040433174 0.0018491549 0.0048973635 0.0014813313 -0.0001541524 0.006098745 0.0047713495 0.005373983
-0.0041988 -0.0019536745 -0.0029313262 0.0033947716 0.0057317056 0.0048014517 0.015845677 0.00063304167
0.0020820654 0.006346112 -0.0037465538 -0.008983797 -0.026501913 0.013429144 -0.019801717 -0.012974927
0.0012043666 0.0019102601 0.007180493 -0.003632149 0.0032529475 0.011068056 0.019281005 -0.007673664
-0.0043142717 -0.0038389806 0.007096605 0.010704132 -0.017169153 -0.0040969397 0.01044214 -0.012236043
0.008624237 -0.005205634 0.0020317559 0.0025131032 -0.0050061364 -0.0040802015 0.0044583827 0.00095161365
0.0024330488 0.006384926 0.0008303665 -0.005601552 -0.00503995 -0.015863834 0.011519476 -0.009700434
0.0018865138 0.0013404905 0.009940164 0.012707334 0.0064133042 0.0055142874 -0.009329385 0.016087217
0.0010134547 -0.005253834 -0.0021229566 -0.007555848 -0.0012681818 -0.009505957 0.0015080513 0.0030911055
0.0010566931 0.0011139975 0.00027896423 0.0098868925 0.0012837604 0.00494839 0.00049657776 -0.015267307

exp_avg_sq f4 [8, 8, 2, 2]
00000000: 1789 923a 4f05 ef3a 220f e13a 0ea7 a93a
00000010: dd55 0f3c c99b 933b 2100 6c3b 7578 ab3b
00000020: 7908 9a39 2dbf fb39 04b9 503b 31ca 203b
00000030: d960 883b a4a2 d13b 6c14 033b 7e7f 2e3b
00000040: ad94 6f3a 697e f93a 6be2 533a 008d 413a
00000050: 1217 f23b 36ae 9c3b a237 363b 83ec 513b
00000060: 21ca 9b3a 03b1 aa3a 6d0d 253a b1a7 233a
00000070: 671d b73a fd26 983b d326 a63a b73f 4d3a
00000080: 8ced 913b 925f 953b 33ef 703b 94be 4b3b
00000090: 2ef6 d03c 12d3 df3c eca4 073c 9e1a 223c
000000a0: 26d7 ba3a 5e57 af3a a0ad 423c 44b2 373c
000000b0: 31b3 9a3c 24df 9b3c 22bf 933b f97e ab3b
000000c0: ff4c 5c3b f4a9 4d3b b5d4 053b 74ce 183b
000000d0: fda9 a03c 973e c43c 1201 f33b 3954 ec3b
000000e0: 2193 8b3b d988 853b b593 d13a 2ded a13a
000000f0: 4577 c53b 84cc d23b 10d6 923b dc69 9e3b
00000100: ef58 513a 509e 4a3a ac12 423a cb69 243a
00000110: 7b03 363b aa8a 443b e5bb 033b 0416 333b
00000120: da6b 3239 199d 2e39 6094 013b 8e2f e739
00000130: 5ffa 073b 9f5c 033b 287f cf3a e596 023b
00000140: b832 953a bdc2 913a b740 003a c189 b639
00000150: 2b9c 283b bac6 2a3b deb1 333a f63b 113b
00000160: c31e 613a aa08 5f3a aa57 5f39 6506 a539
00000170: c217 e73a f5f6 d23a 9ab1 0e3a deb8 6d3a
00000180: 563d cf3b fad8 c93b db76 923b 7959 813b
00000190: 4c14 033d dc65 043d 58ae 3b3c f6ac 3b3c
000001a0: 04a7 053b a9d3 033b e42e 673c 2230 643c
000001b0: e88c d83c eed3 dc3c 3bde cf3b 8a83 da3b
000001c0: 6b7e 9e3b 54f3 6e3b 3f2b 333b cab6 2e3b
000001d0: b601 be3c 9e7a c43c 7360 573c 4db5 443c
000001e0: 1910 b93b fe95 943b 701d 153b 5447 083b
000001f0: 4dd3 0b3c 5e85 013c d5c8 c23b cfc9 c53b
00000200: 2fc3 4f3a c220 303a 44da a139 a471 433a
00000210: 024c bf3a a205 0c3b 1795 a13a ea83 b83a
00000220: cde8 0e39 700a b038 26c7 033a e31d 7b3a
00000230: 6c5e 9d3a 7144 7a3a 188d f13a 3d3a 5f3a
00000240: e18b c83a a82c 873a 3a05 563a 23f3 6b39
00000250: 11ca 0f3b 38d4 f43a 509f 0d3b c59e 1a3a
00000260: 97b6 623a f701 353a 3a16 aa39 5429 5839
00000270: 0c86 183b 1500 343a 2594 e73a 6578 ea39
00000280: 9144 4c3a 50f3 4b3a d8f5 a43a 06b4 983a
00000290: 272b 813b eb08 8b3b 255c 473b 1c68 463b
000002a0: f6f6 1b39 7ac8 0939 3f37 b13a 0934 d23a
000002b0: e83c 063b 2e89 0a3b 3de8 153b 0b5a eb3a
000002c0: c1d2 8e3a 14a1 5f3a 090e 663a 2e6f 1c3a
000002d0: cf0e 7f3b 4bf4 7c3b ff6e cd3a 8d64 aa3a
000002e0: 1c5a 613a 3e49 313a 7a2f c039 074d b839
000002f0: 7080 fd3a ecae a53a 6b88 ac3a 000c 533a
00000300: 8f0f 3b3b a440 133b 43da dc3a d341 113b
00000310: af51 eb3b 2cfa 753c b600 b13b 6d96 983b
00000320: 1915 393a 1bde 0f3a fcdb 6b3b eba3 9a3b
00000330: a429 393c 8ba5 053c 09df 873b f6a4 373b
00000340: 3b65 933a 57e6 d23a 06d8 e23a b1aa a03a
00000350: 0aff e53b 82c1 553c b470 f33b 2ecc c03b
00000360: 5d31 5f3a 96aa db3a b7e5 853a f8d0 893a
00000370: 4b0d 653b f8eb 2e3b 03eb 363b f43b 0e3b
00000380: 571d bd3a 8119 b93a 5f4f c63a f12a 5f3b
00000390: 9806 103c a043 da3b 7e3e 843b 1aac 2c3b
000003a0: e8d4 c539 53bc d539 b5fe 493b 2e9f 483b
000003b0: 7066 973b 8e3a b83b 1584 383b a083 c23a
000003c0: 268d d43a 1c8f 6a3a 2a94 6c3a 2b3e d23a
000003d0: 216c f33b e638 be3b 625c 613b 7e68 883b
000003e0: bad2 c03a affb 3d3a d298 243a f2c7 b03a
000003f0: 44cf 293b ad07 193b 622d 1e3b 14dc 393b
0.0011179772 0.0018235835 0.0017170648 0.0012943463 0.008748499 0.004504655 0.003601082 0.0052328655
0.00029379482 0.00048016888 0.003184856 0.0024534578 0.0041619358 0.006397562 0.0020001186 0.0026626284
0.0009139281 0.0019034866 0.000808275 0.00073833764 0.007388004 0.0047815097 0.0027804156 0.003203184
0.0011885801 0.0013022724 0.0006296251 0.00062429445 0.0013970555 0.0046433196 0.0012676365 0.00078296236
0.0044533666 0.004558512 0.0036763668 0.0031088935 0.025508013 0.027322326 0.0082790665 0.009894041
0.0014254793 0.0013377478 0.011882216 0.011211935 0.018884273 0.0190273 0.004508869 0.005233642
0.003361523 0.0031381818 0.0020420973 0.0023316415 0.019612307 0.023955626 0.007415899 0.0072121886
0.0042594825 0.0040751514 0.0015989455 0.0012354009 0.006026181 0.0064330716 0.0044810846 0.0048343968
0.00079859694 0.0007729279 0.0007403295 0.0006271868 0.002777307 0.0029989877 0.0020101008 0.0027326355
0.0001701558 0.00016652457 0.0019772276 0.00044095184 0.0020748598 0.002004422 0.0015830742 0.0019926366
0.0011382913 0.0011120659 0.0004892456 0.0003481638 0.002572785 0.0026058392 0.00068548124 0.0022160984
0.00085876527 0.0008508066 0.00021299595 0.00031476017 0.0017630982 0.0016095327 0.0005443335 0.000906838
0.0063244505 0.006159899 0.004469735 0.0039474335 0.03200178 0.032323703 0.011455141 0.011454811
0.0020393739 0.0020115173 0.014110301 0.013927491 0.026434377 0.026956525 0.0063436306 0.0066685127
0.0048368475 0.0036460953 0.002733901 0.0026659244 0.023194175 0.02398425 0.013145554 0.012006116
0.005647671 0.004534482 0.0022753142 0.0020794468 0.008534265 0.007905332 0.005944351 0.0060360203
0.0007925508 0.00067187485 0.00030870934 0.00074555934 0.0014594796 0.0021365662 0.0012327757 0.0014077399
0.000136289 8.394278e-05 0.0005026929 0.00095793436 0.0012006289 0.0009546942 0.001842889 0.0008515453
0.0015300476 0.0010312991 0.0008164231 0.00022501922 0.002194051 0.0018678969 0.002160985 0.00058982923
0.0008648424 0.0006904895 0.00032441487 0.00020614761 0.0023273258 0.00068664673 0.0017668052 0.0004472166
0.00077921996 0.0007780092 0.0012585474 0.0011650331 0.0039419117 0.0042430065 0.0030419913 0.0030274456
0.00014873952 0.00013140021 0.0013520493 0.0016037236 0.002048308 0.0021138894 0.002287402 0.0017955912
0.001089655 0.00085307774 0.0008775895 0.0005967495 0.0038918739 0.0038597758 0.0015673338 0.0012999937
0.0008596496 0.0006762928 0.00036656467 0.00035152605 0.0019340646 0.0012640632 0.0013163214 0.00080507994
0.002854321 0.0022468949 0.0016849715 0.0022164478 0.0071813683 0.015013259 0.005401696 0.004656604
0.0007060334 0.00054881134 0.0035989275 0.0047192476 0.011301432 0.008157144 0.004146461 0.0028021908
0.0011245379 0.0016090375 0.0017306812 0.0012257901 0.0070189284 0.013046624 0.0074292067 0.005883715
0.00085141306 0.0016759213 0.0010215555 0.0010514548 0.003495055 0.0026690941 0.0027911074 0.0021703215
0.00144283 0.0014121981 0.0015129856 0.0034052695 0.008790635 0.0066608936 0.00403577 0.0026347698
0.00037733396 0.00040766838 0.0030821983 0.0030612457 0.004620366 0.0056222146 0.00281549 0.0014840253
0.0016216382 0.00089477166 0.0009024764 0.0016040256 0.0074286615 0.0058051227 0.003438734 0.004162847
0.0014711239 0.00072472816 0.00062788755 0.0013487323 0.0025910893 0.0023350522 0.0024135937 0.0028359937

exp_avg f4 [8]
00000000: 37fe ee3a a4c6 15bc 8ddf ad3a 78a2 4bbc
00000010: d6e0 c9ba 59f9 d7ba 7d51 b23b 0ea0 9e3b
0.0018233721 -0.009141598 0.0013265476 -0.012428872 -0.0015402089 -0.001647751 0.005441843 0.0048408573

exp_avg_sq f4 [8]
00000000: 2d88 403b 0e8d 453c eeab 993a d5a4 863c
00000010: 3473 373a 38ef 933a 2600 ab3b 58b2 513b
0.0029378042 0.012057556 0.0011724213 0.01643602 0.00069980626 0.0011286503 0.0052185236 0.003199717
