saved_models_zach/easyNpyMini/checkpoint_easyNpySmallMini_2__mode_embed_bl__seed_1_2020-07-17_12:20:41.832222_5000000.tar (torch_old, 13239 bytes, 22 tensors)

gcn.obj_emb.weight f4 [16, 8]
0	0xbfc346ba	-1.5255959
1	0xbf400f31	-0.7502318
2	0xbf276b4b	-0.6539809
3	0xbfce0399	-1.6094848
4	0xbdcd2473	-0.10016718
5	0xbf1bf3ce	-0.6091889
6	0xbf7ad25b	-0.97977227
7	0xbfcdf6de	-1.6090963
8	0xbf364f1c	-0.7121446
9	0x3e9b8173	0.303722
10	0xbf46fe12	-0.7773143
11	0xbe80bebe	-0.25145525
12	0xbe639ae0	-0.22227049
13	0x3fd7f355	1.6871134
14	0x3e69e84a	0.22842517
15	0x3eef6dec	0.4676355
16	0xbf326cc9	-0.6969724
17	0xbf9493d5	-1.1607615
18	0x3f331536	0.6995424
19	0x3e4bdc0e	0.19908163
20	0x3f5d9e04	0.8656924
21	0x3e7a4504	0.2444039
22	0xbf29b48f	-0.66291136
23	0x3f4eabc1	0.80730826
24	0x3f8d03df	1.1016806
25	0xbe342894	-0.17593604
26	0xc00fb738	-2.2455578
27	0xbfb92589	-1.446458
28	0x3d7a7df6	0.061155282
29	0xbf1e2480	-0.61774445
30	0xbf4c4e4e	-0.79806983
31	0xbe06c83c	-0.13162321
32	0x3ff08e67	1.8793458
33	0xbd93b9d4	-0.07213178
34	0x3e218e9e	0.1577706
35	0xbf460124	-0.7734549
36	0x3e4bd578	0.1990565
37	0x3d3b32d6	0.045702778
38	0x3e1ca0bd	0.15295692
39	0xbef38c2c	-0.4756788
40	0xbde35e5d	-0.11101983
41	0x3e95e165	0.29273525
42	0xbe21a229	-0.15784515
43	0xbcebd302	-0.02878714
44	0x4016dae8	2.357111
45	0xbf84c784	-1.0373387
46	0x3fc992fc	1.5747981
47	0xbf213dab	-0.6298472
48	0xbf6d698b	-0.9273917
49	0x3f0b8e65	0.5451415
50	0x3d87bdf2	0.06628026
51	0xbedfc3b9	-0.43704012
52	0x3f4339cb	0.7626006
53	0x3ee20db8	0.44151092
54	0x3f952342	1.1651385
55	0x4000fc2e	2.0153918
56	0x3e0cb5da	0.13741246
57	0x3f704b05	0.9386447
58	0xbe3e7712	-0.18600109
59	0xbf250715	-0.6446393
60	0x3fc50602	1.5392458
61	0xbf5e9d4b	-0.8695876
62	0xc055319f	-3.3311536
63	0xbf3f748e	-0.74787223
64	0xbcd0ea8a	-0.025502462
65	0xbf82fc7f	-1.0233306
66	0xbf189f97	-0.59618515
67	0xbf80b53b	-1.0055307
68	0xbe57a92e	-0.2106063
69	0xbbf75140	-0.0075475276
70	0x3fd632dd	1.6734272
71	0x3c2974fa	0.010342831
72	0xbf343681	-0.70395666
73	0xbe3db651	-0.1852658
74	0xbf7f0943	-0.9962351
75	0xbf54cd25	-0.83125526
76	0xbeec0b14	-0.46102202
77	0xbf0f6190	-0.56008244
78	0x3eca88f6	0.39557618
79	0xbf7b7683	-0.9822771
80	0xbf01a91b	-0.5064866
81	0x3dcc570c	0.099775404
82	0xbf276acd	-0.6539734
83	0x3f3b5047	0.7316937
84	0xbfb799f5	-1.4343859
85	0xbf003549	-0.50081307
86	0x3e2fc099	0.17163314
87	0xbe23d53d	-0.15999313
88	0x3e825f52	0.2546335
89	0xbf008046	-0.5019573
90	0xbf85460b	-1.0412
91	0x3f3b75dd	0.7322672
92	0xbf863002	-1.0483401
93	0xbef116d1	-0.4708772
94	0x3e950fd3	0.29113635
95	0x3ffecf66	1.9907043
96	0x3f29547b	0.6614453
97	0x3f984f51	1.1899205
98	0x3f51085e	0.8165339
99	0xbf69dcaf	-0.9135236
100	0x3fb14c74	1.3851457
101	0xbf50583a	-0.81384623
102	0xbf6d75a8	-0.92757654
103	0x3f8e54d0	1.1119633
104	0x3faae805	1.3352057
105	0x3f1ab1ad	0.6042736
106	0xbdd3d971	-0.10344208
107	0xbe1ad89c	-0.15121692
108	0xc0068887	-2.102083
109	0xbf1eb9c2	-0.62002194
110	0xbfbd36ac	-1.478231
111	0xbf9113d3	-1.1334175
112	0x3f5fb11d	0.8737963
113	0xbf0f6d29	-0.5602594
114	0x3fa49496	1.2857845
115	0x3f511b5e	0.81682384
116	0x3e523b3d	0.2053041
117	0x3e9c3702	0.30510718
118	0x3f0922c9	0.535687
119	0xbedcc448	-0.431185
120	0x4023b88a	2.5581384
121	0xbe6ef6f1	-0.23336388
122	0xbc5cba35	-0.01347213
123	0x3fee2948	1.8606348
124	0xbffd7df4	-1.9804063
125	0x3fe637f7	1.7985829
126	0x3dd08298	0.10181159
127	0x3eae1544	0.340006

embeds.weight f4 [20, 8]
0	0x3d62623c	0.055269465
1	0xbfb01787	-1.375718
2	0x3d2d85cb	0.042363923
3	0x3f34337e	0.7039107
4	0xbe88fd47	-0.26755735
5	0xbfd58857	-1.6682233
6	0x3ea94ef0	0.33068037
7	0xbf4d5524	-0.8020804
8	0xbf64ffdb	-0.89452904
9	0xbfce8808	-1.6135263
10	0xbd3a22a4	-0.045443192
11	0x3dc13bef	0.094352596
12	0x4031e3e9	2.7795355
13	0x3f9ccf98	1.2250853
14	0x3fbca3c2	1.4737475
15	0xbff68df3	-1.926207
16	0xbf6b39fb	-0.91885346
17	0xbf070693	-0.52744406
18	0x3f7d98e6	0.9906143
19	0x3e35e6ad	0.17763777
20	0x3e5bda93	0.21470098
21	0xbecac215	-0.39601198
22	0x3ebe0354	0.37111914
23	0xbf3259e7	-0.6966843
24	0x3f7e845a	0.994207
25	0x3e62fa12	0.22165707
26	0x3e22a000	0.15881348
27	0x3f6f275c	0.9341943
28	0x3f2f8ae4	0.68571305
29	0x3f78ba7b	0.97159547
30	0xbf30a854	-0.6900685
31	0x404370ec	3.0537672
32	0xbe69556d	-0.22786494
33	0x3fe37a8e	1.7771776
34	0x3ead6955	0.33869424
35	0xbd9e4bea	-0.07729323
36	0x3ea60a51	0.32429746
37	0xbfe22dc7	-1.767022
38	0x3f7eaa68	0.9947877
39	0x4019109b	2.3916385
40	0x3df7fe4c	0.1210905
41	0x3f431964	0.7621062
42	0x3fb3397d	1.4001919
43	0xbf02542d	-0.5090969
44	0xbedc39a2	-0.4301272
45	0xbf790811	-0.97277933
46	0x3eaec055	0.34131113
47	0xbf8ba269	-1.0908939
48	0xbe2fda53	-0.17173128
49	0x3f8c6e63	1.0971187
50	0xbe8214d0	-0.25406504
51	0x40172439	2.3615859
52	0x3ef83670	0.48479033
53	0x3ebad1d0	0.364882
54	0xbf2a6de2	-0.6657392
55	0x3edbad41	0.4290562
56	0x3fdc73a6	1.7222793
57	0xbe9b6e43	-0.3035756
58	0x3e749b70	0.2388742
59	0x3fac083b	1.3440012
60	0x3dd367fe	0.10322569
61	0x3f8cd868	1.1003542
62	0xbeaef0b5	-0.3416802
63	0x3f7284cd	0.9473389
64	0xbf118a43	-0.56851596
65	0x3f566cb4	0.8375962
66	0x3fe44efe	1.7836607
67	0xbe481d67	-0.19542466
68	0x3f03d18b	0.5149161
69	0xbfec7a25	-1.8474776
70	0xc03aabe9	-2.9167426
71	0xbf113c88	-0.5673299
72	0xbf0a9157	-0.5412802
73	0x3f652a20	0.895174
74	0xbf61ebfb	-0.882507
75	0x3f0824c8	0.53181124
76	0xbfc5dc07	-1.5457772
77	0xbe317582	-0.17329982
78	0x3f3a6e5a	0.72824633
79	0x3d69b8d1	0.05706102
80	0x3f67cffa	0.9055172
81	0x3f85ecfd	1.0462948
82	0xbf0545d8	-0.520597
83	0x3fad698e	1.3547838
84	0x3e70d678	0.23519313
85	0x3ff505ed	1.9142433
86	0x3feb0f85	1.8364111
87	0x3fa98a47	1.3245324
88	0xbf7810fc	-0.96900916
89	0x3fa0359f	1.2516364
90	0x3f9aebe7	1.2103242
91	0xbf0725ce	-0.5279206
92	0x3e5fcfce	0.21856615
93	0xbf1305cd	-0.57430726
94	0x3fba8313	1.4571251
95	0x3fe2aead	1.7709557
96	0x3fd33060	1.6499138
97	0xbedd2fb4	-0.43200457
98	0xbe8ac40a	-0.2710269
99	0xbfb8367b	-1.4391626
100	0x3f9f9f05	1.2470404
101	0x3fa30d8e	1.2738512
102	0x3ec82a80	0.39094925
103	0x3ec64074	0.3872105
104	0xbe317301	-0.17329027
105	0x3fadb6d0	1.3571415
106	0x3f4c639e	0.79839504
107	0xbee6067f	-0.4492683
108	0x3feee8a5	1.8664747
109	0xc01e55f7	-2.4739969
110	0xbf6a0aef	-0.91422933
111	0x3f5e990b	0.86952275
112	0x3e5c4b92	0.21513203
113	0x3f703f28	0.9384637
114	0x3fbb9c4f	1.4657077
115	0xbf0e751b	-0.5564744
116	0xbf3eade3	-0.7448408
117	0xbe4f024d	-0.20215721
118	0xbe6b2e10	-0.2296679
119	0x3aae803e	0.0013313366
120	0x3ec0242a	0.3752759
121	0xbf14c0de	-0.5810679
122	0xbf1282d5	-0.57230884
123	0x3f813e6c	1.0097175
124	0xbdd85eb5	-0.10564939
125	0xbf970047	-1.179696
126	0xbdb9eaa7	-0.090779595
127	0x3f102843	0.56311435
128	0xbfa0c512	-1.2560141
129	0x3f654318	0.895555
130	0x3e2b7f30	0.16747737
131	0x3f405d1e	0.75142086
132	0x401a82be	2.4142299
133	0x3f82a27f	1.020584
134	0xbee18718	-0.4404838
135	0xbfddf935	-1.7341677
136	0xbf9e3c9f	-1.236225
137	0x3fca0ef4	1.5785813
138	0xbf8edac0	-1.1160507
139	0x3f448c97	0.76777023
140	0xbf1694b8	-0.58820677
141	0x40079be6	2.1188903
142	0xbf0accfb	-0.54219025
143	0xc01d646e	-2.4592547
144	0xbf8e2fa3	-1.1108288
145	0xbf8f323f	-1.1187209
146	0x3f420bff	0.75799555
147	0xbefdc6d7	-0.49565765
148	0xbe49ba62	-0.19700006
149	0xbd08ca79	-0.033396218
150	0x3f38237d	0.7192915
151	0x3f883ebd	1.0644146
152	0x3f5582b1	0.83402544
153	0xbff54694	-1.9162164
154	0xbeaf1e76	-0.34202927
155	0xbf291602	-0.66049206
156	0x3ea152de	0.31508535
157	0x3f92354f	1.1422518
158	0x3e9c6b3d	0.30550566
159	0xbf143198	-0.57888174

body.0.weight f4 [8, 8, 2, 2]
0	0xbdc915ac	-0.09818587
1	0xbed0bb3c	-0.40767848
2	0xbf0f465d	-0.5596674
3	0xbfa16ac8	-1.2610712
4	0x3e454652	0.19265106
5	0x3f836ba3	1.0267223
6	0xbe495c78	-0.1966418
7	0x3e9a1c0e	0.3009953
8	0xbf197670	-0.59946346
9	0xbefa88b8	-0.48932433
10	0x3dbc7336	0.09201662
11	0xbe70f5bd	-0.23531242
12	0x3e60bf6a	0.21948019
13	0xbcd6dccc	-0.026228331
14	0x3ce34f71	0.027747842
15	0xbf406340	-0.75151443
16	0x3bbc1a33	0.005740428
17	0x3e87976d	0.26482716
18	0x3ed5ed41	0.41782573
19	0x3ee1df67	0.44115755
20	0xbcaea268	-0.021317676
21	0x3f3d3a0e	0.7391671
22	0xbea60879	-0.3242834
23	0xbe8182c1	-0.2529507
24	0xbf03d0b7	-0.5149035
25	0xbf2fdce5	-0.68696433
26	0x3ceeb927	0.029141022
27	0xbdfe98d9	-0.12431497
28	0x3e56cf6c	0.20977563
29	0x3f17f903	0.59364337
30	0x3b1d411d	0.002399511
31	0x3f6ed284	0.9328997
32	0x3d2afaa1	0.041742925
33	0x3e6c358a	0.23067299
34	0xbdf9a70e	-0.12190066
35	0x3e0ac11c	0.13550228
36	0xbda65031	-0.08120764
37	0xbeb74bc6	-0.35799998
38	0xbee298bf	-0.4425716
39	0x3eb2e173	0.3493763
40	0xbe5c0952	-0.2148793
41	0xbe8cb374	-0.27480662
42	0x3eb03669	0.34416512
43	0x3ce544bc	0.027986877
44	0x3e345474	0.17610341
45	0x3b1eb138	0.0024214517
46	0xb9891420	-0.0002614567
47	0xbeb7899c	-0.35847175
48	0xbdb43fc4	-0.08801225
49	0xbefe113d	-0.49622527
50	0xbe95b3d2	-0.29238755
51	0xbdea193b	-0.114305936
52	0xbedd5cc0	-0.43234825
53	0xbf2aab60	-0.6666775
54	0x3c65f534	0.014035512
55	0x3dd24de4	0.10268763
56	0xbc3208f3	-0.0108663915
57	0x3e3cb3de	0.18427989
58	0x3ebaf829	0.36517456
59	0xbb9cfec3	-0.004791112
60	0xbc159a7e	-0.009131072
61	0xbe472015	-0.19445832
62	0xbe2d2309	-0.16907896
63	0x3b59b20d	0.0033217699
64	0x3dc4dc71	0.09612358
65	0xbdd27da6	-0.10277872
66	0xbf937489	-1.1519939
67	0x3d9dc0eb	0.07702812
68	0x3cb9920a	0.022652645
69	0x3e713bed	0.23558016
70	0xbec19fd0	-0.3781724
71	0xbe4bd84e	-0.19906732
72	0xbdaec7ca	-0.085342005
73	0xbe9b0cc6	-0.30283183
74	0xbd8a31e5	-0.06747798
75	0xbe2c74b6	-0.16841397
76	0xbe8d03e4	-0.2754203
77	0xbe95275e	-0.29131597
78	0xbdfda95b	-0.123858176
79	0x3d22222e	0.039583378
80	0x3f0ea85e	0.5572566
81	0xbcb093b8	-0.021554813
82	0x3f9a598e	1.205858
83	0x3e9a8c38	0.30185103
84	0x3f015124	0.50514436
85	0x3e0c99ee	0.13730595
86	0x3e33363c	0.17501158
87	0x3e52cf9c	0.20587009
88	0xbf0f5171	-0.55983645
89	0xbd96c30f	-0.07361423
90	0xbf172211	-0.59036356
91	0xbe79a81d	-0.24380536
92	0x3f399377	0.7249064
93	0x3d70e148	0.058808595
94	0x3f1ebd83	0.6200792
95	0xbcea4b2a	-0.028600294
96	0xbe12278f	-0.14272903
97	0xbe85fc3d	-0.26169005
98	0x3dd978aa	0.10618718
99	0x3e9d06eb	0.3066934
100	0xbea1f12f	-0.3162932
101	0xbe09e742	-0.13467124
102	0x3d580e2d	0.052747894
103	0x3f253ca5	0.6454566
104	0x3d98cec8	0.074613154
105	0x3e1c0d0b	0.1523935
106	0x3eb6751b	0.3563622
107	0x3d84ae96	0.06478612
108	0x3eb79ce2	0.3586188
109	0x3e72734f	0.23676799
110	0xbcb0b78e	-0.0215719
111	0x3e8fbe55	0.280749
112	0xbe523106	-0.20526513
113	0x3e5198bc	0.2046842
114	0xbe6ba678	-0.23012722
115	0xbeaf134b	-0.34194407
116	0xbea989c8	-0.3311293
117	0xbec80df5	-0.39073148
118	0xbc99e498	-0.01878576
119	0x3cef9d98	0.029249951
120	0x3f0949c5	0.5362819
121	0x3f0cfe60	0.55075645
122	0x3eaad984	0.33369076
123	0x3e8aed8e	0.27134365
124	0xbec49d6b	-0.3840135
125	0xbf407f64	-0.7519438
126	0x3e3743c4	0.17896944
127	0x3eaf8c19	0.34286574
128	0xbf095b34	-0.5365479
129	0x3ee45a59	0.4460018
130	0xbbb904ae	-0.00564631
131	0xbf8067db	-1.0031694
132	0x3a99e1ff	0.0011740326
133	0xbe1fcf7f	-0.15606497
134	0xbe276c98	-0.16350019
135	0x3f1329af	0.5748548
136	0xbdbca64c	-0.09211406
137	0xbe4f39a3	-0.2023683
138	0x3d030890	0.031990588
139	0x3e0c916f	0.13727354
140	0x3cbfc078	0.023407206
141	0x3e822a98	0.2542312
142	0x3ef4f739	0.47844866
143	0xbea8ebf0	-0.32992506
144	0x3f04cb34	0.51872563
145	0x3f0eafec	0.55737185
146	0xbea00cf8	-0.31259894
147	0x3f247413	0.64239615
148	0x3f191053	0.59790534
149	0x3a90319c	0.0011001113
150	0xbbc1d92c	-0.0059157815
151	0x3d3de343	0.04635931
152	0x3d12f1b6	0.035875045
153	0xbd9d292b	-0.07673868
154	0xbc82e238	-0.01597701
155	0xbee32534	-0.4436432
156	0xbe3913a4	-0.18073899
157	0x3f14eb35	0.581714
158	0x3dfcbbcd	0.12340508
159	0x3e7a6441	0.24452306
160	0xbeb83b84	-0.35982907
161	0xbf26c4fa	-0.6514431
162	0xbe80e435	-0.25174108
163	0x3e5f4b80	0.21806145
164	0x3f057661	0.52133757
165	0x3eb471e1	0.35243133
166	0xbe9628aa	-0.293279
167	0xbe64d26e	-0.22345898
168	0xbea851e5	-0.3287498
169	0xbed6bec7	-0.41942427
170	0x3e816344	0.25271046
171	0x3e17c975	0.14822944
172	0xbcf6bff4	-0.030120827
173	0xbeb88d64	-0.36045372
174	0xbec1ebb0	-0.37875128
175	0xbf03f852	-0.5155078
176	0xbd947ade	-0.072499976
177	0x3f661382	0.89873517
178	0xbeeb5092	-0.45959908
179	0xbf9611e3	-1.1724209
180	0x3e18349c	0.14863819
181	0x3e84dc28	0.25949216
182	0xbe4e9827	-0.20175229
183	0xbf0613e8	-0.52374125
184	0x3d3afb0a	0.045649566
185	0x3ea3f6e1	0.3202429
186	0x3ee75c31	0.45187524
187	0x3e952b60	0.29134655
188	0xbe244ce2	-0.16044953
189	0x3e2b8ecc	0.16753691
190	0xbbafcec7	-0.005365226
191	0xbf3b7828	-0.7323022
192	0x3ef527b4	0.47881854
193	0x3e94d001	0.29064944
194	0xbddaf419	-0.10691089
195	0xbf0b8a54	-0.54507947
196	0x3e48ff0e	0.19628546
197	0xbdd42aae	-0.10359703
198	0x3e4b0ac5	0.19828327
199	0xbf069095	-0.52564365
200	0x3d8cfcd3	0.0688416
201	0x3d6e80bb	0.058228236
202	0x3d026546	0.031834863
203	0x3eac35bc	0.33634746
204	0x3e90ea20	0.28303623
205	0x3ea97685	0.33098236
206	0x3e3b17ef	0.18270849
207	0x3e802b4e	0.2503304
208	0x3f048267	0.5176148
209	0x3e7cad2c	0.24675435
210	0x3ef51619	0.47868422
211	0x3e608b70	0.21928191
212	0xbd5f3d9e	-0.054502122
213	0xbedfb8ba	-0.43695623
214	0xbe89f2e6	-0.2694313
215	0xbea1bd44	-0.3158971
216	0xbee2703a	-0.44226247
217	0xbe985954	-0.29755652
218	0xbead57fa	-0.33856183
219	0x3f076d97	0.52901596
220	0x3f3652db	0.7122018
221	0x3e90409a	0.28174287
222	0xbc1c6a53	-0.009546834
223	0xbf45da4a	-0.7728621
224	0xbe909b8c	-0.28243673
225	0xbddaac7b	-0.10677429
226	0xbcbad686	-0.02280737
227	0x3d52f05f	0.051498767
228	0x3caea5d7	0.021319313
229	0xbea5b5be	-0.3236522
230	0xbe535b5f	-0.20640324
231	0xbf0390ad	-0.5139263
232	0xbe5e0c64	-0.21684414
233	0x3dcad4b3	0.099038504
234	0x3ef30dc9	0.47471455
235	0x3e0276db	0.12740652
236	0xbe5f356b	-0.21797721
237	0xbf2bfef8	-0.67185926
238	0xbf50cdb4	-0.8156388
239	0xbef9e0f9	-0.48804453
240	0x3de97e54	0.11401048
241	0xbe658d03	-0.22417073
242	0xbe469d90	-0.19396043
243	0xbf13829d	-0.57621175
244	0xbc068c85	-0.008212213
245	0xbe845dd0	-0.25852823
246	0xbf07bf84	-0.53026605
247	0x3e02ac35	0.12761004
248	0x3ed76bd3	0.4207445
249	0x3e9440fd	0.28955832
250	0x3ea77ebf	0.32713887
251	0x3f2e6b08	0.68132067
252	0xbe80fd21	-0.25193122
253	0xbed0ff75	-0.40819898
254	0xbec6684d	-0.3875145
255	0xbdfc6024	-0.12323025

body.0.bias f4 [8]
0	0xbe89b3fe	-0.26895136
1	0x3dcd18ca	0.10014494
2	0xbec11b92	-0.37716347
3	0x3ec26165	0.3796493
4	0x3e2c4a14	0.16825134
5	0xbe367d73	-0.17821293
6	0x3e501cca	0.20323482
7	0xbeb054c2	-0.34439665

head.0.weight f4 [16, 16]
0	0xbe81de43	-0.25364885
1	0xc003203f	-2.0488431
2	0x3ec7777d	0.3895835
3	0x3eb9cd10	0.36289263
4	0x3e93677c	0.2878989
5	0x3f0da51e	0.55330074
6	0xbe84fded	-0.2597498
7	0xbf1cd179	-0.6125713
8	0x3e83e6d9	0.2576206
9	0xbeb75085	-0.3580362
10	0xbf2835f4	-0.65707326
11	0x3ef3db96	0.47628468
12	0xbd7e4dfd	-0.062086094
13	0x3ccc4932	0.024937246
14	0x3d5788c5	0.052620668
15	0x3ebd77c5	0.3700544
16	0x3e2bbd8f	0.1677153
17	0xbf958830	-1.1682186
18	0x3f2b28e8	0.66859293
19	0x3e1bab5f	0.15202092
20	0xbff78381	-1.9337007
21	0x3e5436ad	0.20723982
22	0xbec98b55	-0.39364114
23	0xbed929db	-0.42414746
24	0x3eadea45	0.33967796
25	0x3f7e42be	0.9932059
26	0xbec59b52	-0.38595062
27	0x3f386d8e	0.7204217
28	0x3f3bd34e	0.733693
29	0xbdae25ef	-0.08503329
30	0xbf6c617b	-0.92336243
31	0xbd9fb0f3	-0.07797422
32	0x3ec2532d	0.37954083
33	0x3f21a9a7	0.63149494
34	0xbd8bce3a	-0.06826444
35	0x3ea76a5a	0.32698327
36	0xbf0656d2	-0.5247623
37	0x3f39e18f	0.726098
38	0x3e3d567d	0.18490024
39	0x3dc5d5a5	0.0965989
40	0x3d60cfa8	0.054885536
41	0xbf7ac9a4	-0.9796393
42	0x3f2eefb6	0.6833452
43	0x3f4302b9	0.7617603
44	0x3dfeadee	0.12435518
45	0xbea6b8a4	-0.32562745
46	0xbe5f56ad	-0.21810408
47	0x3ebde58d	0.37089196
48	0xbf50221a	-0.81302035
49	0xbf83618d	-1.0264145
50	0x3ed7dc37	0.42160198
51	0x3edf24f0	0.4358287
52	0x3edef523	0.435464
53	0xc07f830e	-3.992374
54	0xbdd9248e	-0.106026754
55	0xbe3c0e25	-0.1836477
56	0x3deafbee	0.11473833
57	0xbb92d163	-0.0044805272
58	0x3f10b714	0.56529355
59	0x3e8f5d2c	0.28000772
60	0xbe21354e	-0.1574299
61	0xbec676f4	-0.3876263
62	0x3dec868d	0.11549101
63	0x3ea35c5e	0.31906408
64	0xbf1a782b	-0.6033961
65	0x3da6650b	0.08124741
66	0x3ed8c857	0.42340347
67	0x3c2381bc	0.009979662
68	0x3f4ebbc1	0.8075524
69	0x3e607d6f	0.21922849
70	0xbe62fae2	-0.22166017
71	0x3e0e4aed	0.1389577
72	0x3e97ef24	0.29674637
73	0x3f110548	0.56648684
74	0x3e98f5ab	0.2987493
75	0x3f170b33	0.59001464
76	0xbe8c8f39	-0.2745302
77	0x3e6d2597	0.2315887
78	0x3e644b6a	0.22294393
79	0xbe158b54	-0.1460393
80	0x3e6dbdf0	0.23216987
81	0xbf42f62b	-0.7615687
82	0x3e99d816	0.30047673
83	0x3f24ccc1	0.6437493
84	0x3d14e3d1	0.036350075
85	0xbbff4598	-0.0077902786
86	0xbe1765de	-0.14784953
87	0xbf8a4ffe	-1.0805662
88	0xbec3589a	-0.38153535
89	0x3f073f2e	0.5283078
90	0xbec8c706	-0.39214343
91	0xbda930ef	-0.082612865
92	0xbe26a867	-0.16275178
93	0xbde0f05d	-0.10983346
94	0x3ecc2057	0.39868423
95	0x3f578cbf	0.84199136
96	0xbe7d36e5	-0.24727972
97	0xbdf99f1e	-0.12188552
98	0xbe2ec405	-0.17066963
99	0x3d3b0ea2	0.04566825
100	0xbe6543f9	-0.22389211
101	0xbe3a349c	-0.18184131
102	0xbe3ff818	-0.18746984
103	0xbe499dbf	-0.19689082
104	0xbdef02d8	-0.11670464
105	0x3e6b5586	0.22981843
106	0xbd89f220	-0.06735635
107	0x3d45d3c6	0.048297666
108	0xbe8d4bc1	-0.27596858
109	0x3e330593	0.17482595
110	0xbd9164fd	-0.0709934
111	0xbe8000cd	-0.2500061
112	0x3e6e130b	0.23249452
113	0x3b902732	0.0043992037
114	0x3ee5b368	0.4486344
115	0xbda3b805	-0.07994083
116	0xbfc163d1	-1.5108587
117	0x3c851652	0.016245995
118	0xbe1d94aa	-0.15388742
119	0x3e0ea1ff	0.13928984
120	0xbe4d122b	-0.20026462
121	0x3f02991a	0.51014864
122	0xbd42a622	-0.047521718
123	0xbe9999d6	-0.3000018
124	0xbe8063c8	-0.25076127
125	0xbd2540a8	-0.040344864
126	0xbd5d0cbf	-0.053967234
127	0xbe8bfb81	-0.2734032
128	0x3e754e8a	0.23955742
129	0x3eb6c15a	0.3569439
130	0x3da7b05f	0.08187937
131	0x3f08ecf6	0.53486574
132	0xbe80e7f5	-0.2517697
133	0x3ec7860e	0.38969463
134	0x3ec07edc	0.37596786
135	0x3e9b3234	0.3031174
136	0xbbbdec0d	-0.0057959617
137	0x3d976667	0.073925786
138	0x3e27e82d	0.16397162
139	0x3ea4b1b3	0.32166824
140	0x3ea6eaf4	0.3260113
141	0x3ec7f490	0.39053774
142	0xbe272b03	-0.16325001
143	0x3ea2ffdf	0.3183584
144	0x3eb2ee30	0.34947348
145	0xbda68e5c	-0.08132622
146	0x3f01491b	0.50502175
147	0xbdebd707	-0.115156226
148	0xbf9b9f13	-1.2157921
149	0xbd91fad4	-0.0712792
150	0xbe332c7a	-0.17497435
151	0x3e5ff8a3	0.21872191
152	0xbdbce599	-0.0922348
153	0x3e3a619d	0.18201299
154	0x3b31a647	0.0027107166
155	0xbdbf1140	-0.09329462
156	0x3ea39bdb	0.31954846
157	0xbc889840	-0.016674161
158	0xbeda69fc	-0.42658985
159	0xbeb354fc	-0.35025775
160	0x3e2c4c09	0.1682588
161	0xbe114258	-0.14185464
162	0x3ab2a944	0.0013630767
163	0x3eb3e71e	0.35137266
164	0xbd435275	-0.04768606
165	0xbd854465	-0.06507186
166	0x3e91d159	0.28480032
167	0x3e7b8d47	0.24565612
168	0x3e3a9944	0.18222529
169	0x3eff36d1	0.4984651
170	0x3e0aa210	0.13538384
171	0x3e231c56	0.15928778
172	0x3f07878a	0.5294119
173	0x3f08289b	0.5318696
174	0x3e89acc9	0.26889637
175	0x3dca1fd4	0.09869352
176	0x3eca031b	0.39455494
177	0x3e760102	0.24023822
178	0x3d3ec320	0.046572804
179	0x3d76fb72	0.06029839
180	0x3f5d3671	0.86411196
181	0xc111554a	-9.083323
182	0xbe1750b4	-0.1477688
183	0xbc87e22f	-0.016587345
184	0x3daa7766	0.08323555
185	0xbef19124	-0.47181046
186	0x3eae79cc	0.340773
187	0x3ee1c3b9	0.44094637
188	0xbe82d972	-0.25556523
189	0x3d37db7c	0.04488705
190	0x3ef873cd	0.4852585
191	0xbf554f05	-0.833237
192	0xbe040a4d	-0.12894554
193	0x3eed4012	0.46337944
194	0xbe031060	-0.12799215
195	0xbda23569	-0.079203434
196	0x3ca17863	0.019710725
197	0x3e806d00	0.2508316
198	0x3e562f6e	0.2091653
199	0x3e999732	0.29998165
200	0x3e909e64	0.28245842
201	0xbe2e3f8b	-0.17016427
202	0x3e446293	0.19178228
203	0x3f283062	0.65698826
204	0x3e98149f	0.29703233
205	0x3ecacd42	0.39609724
206	0xbe0b22ef	-0.13587545
207	0x3cdb2e7a	0.02675556
208	0xbf07dc50	-0.53070545
209	0x3e0568bc	0.13028234
210	0xbe1f60fa	-0.15564337
211	0xbd75237f	-0.059848305
212	0x3f53801d	0.8261736
213	0x3f11e28e	0.5698632
214	0xbeaa281b	-0.33233723
215	0x3ebc0e76	0.36729783
216	0xbe631213	-0.22174864
217	0xbe4e48c2	-0.20144942
218	0x3e3ed693	0.18636541
219	0xc0ce9d9d	-6.45674
220	0xbf335c4b	-0.700627
221	0x3edce116	0.43140477
222	0x3d9193ff	0.07108306
223	0x3d903aa3	0.07042434
224	0xbc6734b0	-0.014111683
225	0xbe00b8cb	-0.12570493
226	0xbe3bf601	-0.18355562
227	0xbe34e748	-0.17666352
228	0xbe021327	-0.12702619
229	0x3ba5decb	0.0050619594
230	0xbd9e8a04	-0.07741168
231	0xbd071923	-0.032982957
232	0xbe41f018	-0.18939245
233	0xbe28d740	-0.16488361
234	0xbe657432	-0.22407606
235	0xbe537708	-0.20650876
236	0x3e1f86cc	0.15578765
237	0x3d1df011	0.038559023
238	0xbe77cf03	-0.24200062
239	0xbd71b9ac	-0.05901496
240	0xbe06b5ca	-0.13155285
241	0x3dda06cc	0.10645828
242	0xbe2b313f	-0.16718005
243	0x3de3b10b	0.11117753
244	0xbe09f956	-0.1347402
245	0x3bc78d9a	0.0060898783
246	0x3e8210d2	0.25403458
247	0xbe10df1a	-0.14147606
248	0xbe2350f8	-0.15948856
249	0xbedbc66f	-0.4292483
250	0x3d65825b	0.05603252
251	0x3e80faa8	0.25191236
252	0x3cbb8a32	0.022893045
253	0x3e87d1b8	0.2652719
254	0x3d8180dc	0.06323406
255	0xbe32b0f8	-0.1745032

head.0.bias f4 [16]
0	0x3e5f2aa9	0.21793617
1	0xbe908c9a	-0.2823227
2	0xbf4c0257	-0.7969107
3	0xbcbb94cb	-0.022898098
4	0xbea17626	-0.31535453
5	0xbe1942db	-0.1496691
6	0xbde0ec81	-0.109826095
7	0x3f2b61a3	0.66945857
8	0x3f9ff0a2	1.249531
9	0x3f2e6f84	0.6813891
10	0x3f777b78	0.96672773
11	0x3ee12e9b	0.4398087
12	0x3f8e39b5	1.1111361
13	0x3f823b18	1.0174284
14	0xbe34e879	-0.17666806
15	0x3f6813e0	0.90655327

head.2.weight f4 [5, 16]
0	0x3e903fd8	0.2817371
1	0xbee505ce	-0.4473099
2	0xbe3639ea	-0.1779553
3	0xbe2d346f	-0.16914533
4	0xbd0937e5	-0.03350057
5	0x3e110b83	0.14164548
6	0x3da031ec	0.07822022
7	0x3f011028	0.5041528
8	0x3ed04bdf	0.40682885
9	0x3e949b83	0.29024896
10	0x3eedfba7	0.46481058
11	0x3eac7368	0.33681798
12	0x3ed8e255	0.42360178
13	0xbcad0fca	-0.021125693
14	0xbcdff955	-0.02734057
15	0x3e030b84	0.12797362
16	0x3e81bc23	0.2533885
17	0xbec0f522	-0.37687021
18	0xbe9403a7	-0.28909037
19	0xbd96f8fd	-0.073717095
20	0x3d4c7880	0.049919605
21	0xbd417e3c	-0.047239527
22	0xbe4f2fbf	-0.20233057
23	0x3ebafa82	0.36519247
24	0x3f0e48d9	0.55579907
25	0x3eb3aa1c	0.3509072
26	0x3ec27327	0.3797848
27	0x3ea5000e	0.32226604
28	0x3e8a0a21	0.26960853
29	0xbdab5562	-0.08365895
30	0xbdbeabcd	-0.09310112
31	0x3e97aa73	0.2962223
32	0xbcb1c93a	-0.021702398
33	0xbe693348	-0.22773468
34	0xbeafed1b	-0.34360585
35	0xbdcb336f	-0.099219196
36	0x3e4e556c	0.20149773
37	0xbf37120c	-0.7151191
38	0xbddbf94c	-0.10740909
39	0x3e2ba9f7	0.16764055
40	0x3f0bcb60	0.546072
41	0x3ecd5e17	0.40110847
42	0x3ec4c0c8	0.3842833
43	0x3ea805d9	0.3281696
44	0x3e94f829	0.2909558
45	0x3d65674c	0.056006715
46	0xbe604148	-0.21899903
47	0x3e1ed86c	0.15512246
48	0x3dc374ce	0.09543763
49	0xbe80e658	-0.25175738
50	0xbeda4d71	-0.42637208
51	0x3e5d7737	0.21627508
52	0xbd897326	-0.06711416
53	0x3eb0d894	0.34540236
54	0xbe15f49a	-0.1464409
55	0x3ec1aa50	0.3782525
56	0x3ed2eaba	0.41194707
57	0x3e8a232c	0.2697996
58	0x3e738c1f	0.2378392
59	0x3e8466a6	0.25859565
60	0x3f100e46	0.5627178
61	0xbe9b9077	-0.30383655
62	0x3e1d3cb4	0.15355188
63	0x3ebf3c59	0.3735073
64	0x3ee56599	0.44804075
65	0xbeff915d	-0.4991559
66	0xbe1d7f93	-0.15380697
67	0xbe5668a3	-0.20938353
68	0x3e4644c1	0.19362165
69	0x3e907f29	0.28222016
70	0xbda4c3ac	-0.08045134
71	0x3e9f2f69	0.3109086
72	0x3ee90455	0.45511118
73	0x3edafd68	0.4277146
74	0x3f08c74e	0.53429115
75	0x3e8e9f14	0.27855742
76	0x3e85281b	0.2600716
77	0xbd1aa406	-0.03775408
78	0xbce283c2	-0.027650718
79	0x3e90339b	0.28164372

head.2.bias f4 [5]
0	0x3f5930ef	0.8484029
1	0x3f5185b1	0.8184462
2	0x3f57d992	0.8431636
3	0x3fc95ef6	1.5732105
4	0x3e7fc15b	0.24976103

exp_avg f4 [20, 8]
0	0xba9eee44	-0.0012125452
1	0x396ac949	0.00022390964
2	0x38c2ed49	9.294839e-05
3	0xb94ba724	-0.00019421853
4	0x3982f0a2	0.00024974818
5	0xb9493d2c	-0.00019191642
6	0x3a0d0ae3	0.00053803454
7	0xba547c83	-0.0008105712
8	0x38688c7e	5.5443954e-05
9	0x37e0a704	2.6780654e-05
10	0x37a03f45	1.9102948e-05
11	0xb9815404	-0.00024667394
12	0xb9b81c70	-0.00035116402
13	0x38090ba1	3.2674176e-05
14	0x3816395f	3.5816218e-05
15	0x378b8bd8	1.6635211e-05
16	0x3a069db1	0.0005135192
17	0x3883aed2	6.2791296e-05
18	0xb83600c7	-4.3392905e-05
19	0x399ba298	0.00029685046
20	0xb968daa5	-0.00022206696
21	0xb8802934	-6.11119e-05
22	0xb824d7cf	-3.9301634e-05
23	0x3939ed6d	0.00017731423
24	0x3935e7f9	0.00017347922
25	0xb96efbc7	-0.00022791243
26	0xb4f8a7c4	-4.6315665e-07
27	0x38e0a5fe	0.00010712071
28	0x39bc9649	0.00035970125
29	0xb8bdf126	-9.05714e-05
30	0xb7ac34f3	-2.0528654e-05
31	0x3985cedb	0.00025521856
32	0xb880966c	-6.131534e-05
33	0xb7049169	-7.901669e-06
34	0xb608f229	-2.0406535e-06
35	0xb7a679fb	-1.9845544e-05
36	0x38022876	3.1032097e-05
37	0x37b69800	2.1766871e-05
38	0xb73eb284	-1.1366446e-05
39	0x3834fd6c	4.315136e-05
40	0xb6a331bf	-4.8635698e-06
41	0x38ded67f	0.00010625738
42	0xb89e63dd	-7.552628e-05
43	0xb9b131de	-0.00033797225
44	0xb9242068	-0.00015652331
45	0xb8bdffaa	-9.0598434e-05
46	0xb83d2209	-4.509281e-05
47	0xb8e7fef9	-0.00011062431
48	0x37b59a8f	2.1648853e-05
49	0xb8d47c32	-0.00010132081
50	0xb83de7d8	-4.5277033e-05
51	0x39016187	0.0001233873
52	0x388191d1	6.17836e-05
53	0xb8d65fe4	-0.00010222176
54	0x3923e849	0.00015631424
55	0x384a90a3	4.8295256e-05
56	0x00000000	0.0
57	0x00000000	0.0
58	0x00000000	0.0
59	0x00000000	0.0
60	0x00000000	0.0
61	0x00000000	0.0
62	0x00000000	0.0
63	0x00000000	0.0
64	0x00000000	0.0
65	0x00000000	0.0
66	0x00000000	0.0
67	0x00000000	0.0
68	0x00000000	0.0
69	0x00000000	0.0
70	0x00000000	0.0
71	0x00000000	0.0
72	0x00000000	0.0
73	0x00000000	0.0
74	0x00000000	0.0
75	0x00000000	0.0
76	0x00000000	0.0
77	0x00000000	0.0
78	0x00000000	0.0
79	0x00000000	0.0
80	0x00000000	0.0
81	0x00000000	0.0
82	0x00000000	0.0
83	0x00000000	0.0
84	0x00000000	0.0
85	0x00000000	0.0
86	0x00000000	0.0
87	0x00000000	0.0
88	0x00000000	0.0
89	0x00000000	0.0
90	0x00000000	0.0
91	0x00000000	0.0
92	0x00000000	0.0
93	0x00000000	0.0
94	0x00000000	0.0
95	0x00000000	0.0
96	0x00000000	0.0
97	0x00000000	0.0
98	0x00000000	0.0
99	0x00000000	0.0
100	0x00000000	0.0
101	0x00000000	0.0
102	0x00000000	0.0
103	0x00000000	0.0
104	0xb8c35ad6	-9.315244e-05
105	0x39086971	0.0001300925
106	0x385a7035	5.207975e-05
107	0xb79acbfb	-1.8453216e-05
108	0x387ffae9	6.1030416e-05
109	0xb81f4ea9	-3.7981812e-05
110	0xb6933e9e	-4.388231e-06
111	0x3907078f	0.00012877419
112	0x00000000	0.0
113	0x00000000	0.0
114	0x00000000	0.0
115	0x00000000	0.0
116	0x00000000	0.0
117	0x00000000	0.0
118	0x00000000	0.0
119	0x00000000	0.0
120	0x00000000	0.0
121	0x00000000	0.0
122	0x00000000	0.0
123	0x00000000	0.0
124	0x00000000	0.0
125	0x00000000	0.0
126	0x00000000	0.0
127	0x00000000	0.0
128	0x00000000	0.0
129	0x00000000	0.0
130	0x00000000	0.0
131	0x00000000	0.0
132	0x00000000	0.0
133	0x00000000	0.0
134	0x00000000	0.0
135	0x00000000	0.0
136	0x00000000	0.0
137	0x00000000	0.0
138	0x00000000	0.0
139	0x00000000	0.0
140	0x00000000	0.0
141	0x00000000	0.0
142	0x00000000	0.0
143	0x00000000	0.0
144	0x00000000	0.0
145	0x00000000	0.0
146	0x00000000	0.0
147	0x00000000	0.0
148	0x00000000	0.0
149	0x00000000	0.0
150	0x00000000	0.0
151	0x00000000	0.0
152	0x00000000	0.0
153	0x00000000	0.0
154	0x00000000	0.0
155	0x00000000	0.0
156	0x00000000	0.0
157	0x00000000	0.0
158	0x00000000	0.0
159	0x00000000	0.0

exp_avg_sq f4 [20, 8]
0	0x36544e1e	3.1635932e-06
1	0x369f70d9	4.7517065e-06
2	0x35505e0a	7.7622883e-07
3	0x37ea0f20	2.7902017e-05
4	0x370262e8	7.771632e-06
5	0x3870b110	5.738536e-05
6	0x36abcfc1	5.120383e-06
7	0x36235da1	2.4343392e-06
8	0x340902e1	1.2760167e-07
9	0x340a7fa4	1.2898687e-07
10	0x32dbfe45	2.5610584e-08
11	0x355f81f0	8.326306e-07
12	0x352f7d50	6.5374934e-07
13	0x34bb61f9	3.490275e-07
14	0x348b66d0	2.5965574e-07
15	0x3492b1b8	2.7323927e-07
16	0x362f81c4	2.6152566e-06
17	0x3534af19	6.7310026e-07
18	0x36611c70	3.3544165e-06
19	0x35cb42ad	1.5144084e-06
20	0x3531bbbd	6.6210833e-07
21	0x35e5b4b9	1.7114427e-06
22	0x366ed8e6	3.5591015e-06
23	0x3601d7dc	1.9348145e-06
24	0x35164a7c	5.5987744e-07
25	0x35c69c9e	1.4797731e-06
26	0x34c8a74a	3.7374622e-07
27	0x3589f72c	1.0279232e-06
28	0x360e664c	2.1219194e-06
29	0x3505e3ee	4.987804e-07
30	0x35213d4f	6.006639e-07
31	0x360cd110	2.0983316e-06
32	0x352633d3	6.1915233e-07
33	0x347c0762	2.3472015e-07
34	0x3401d1ce	1.2090388e-07
35	0x3380f936	6.005796e-08
36	0x33949e34	6.920564e-08
37	0x3414813a	1.3830586e-07
38	0x33f13e30	1.1233749e-07
39	0x34334f42	1.6699508e-07
40	0x3639655a	2.7626143e-06
41	0x34ae2502	3.2436952e-07
42	0x36932641	4.3853947e-06
43	0x35a59a97	1.233845e-06
44	0x352b6d3a	6.386141e-07
45	0x3629cf8b	2.5303768e-06
46	0x36ad7400	5.169306e-06
47	0x362ff71c	2.6220869e-06
48	0x345e929c	2.0728697e-07
49	0x3581a29b	9.658573e-07
50	0x346603df	2.1421828e-07
51	0x35a90ba7	1.2594872e-06
52	0x35ddeb60	1.6534286e-06
53	0x3567b1f6	8.6313173e-07
54	0x3408763b	1.2708999e-07
55	0x3507cabe	5.058645e-07
56	0x00000000	0.0
57	0x00000000	0.0
58	0x00000000	0.0
59	0x00000000	0.0
60	0x00000000	0.0
61	0x00000000	0.0
62	0x00000000	0.0
63	0x00000000	0.0
64	0x00000000	0.0
65	0x00000000	0.0
66	0x00000000	0.0
67	0x00000000	0.0
68	0x00000000	0.0
69	0x00000000	0.0
70	0x00000000	0.0
71	0x00000000	0.0
72	0x00000000	0.0
73	0x00000000	0.0
74	0x00000000	0.0
75	0x00000000	0.0
76	0x00000000	0.0
77	0x00000000	0.0
78	0x00000000	0.0
79	0x00000000	0.0
80	0x00000000	0.0
81	0x00000000	0.0
82	0x00000000	0.0
83	0x00000000	0.0
84	0x00000000	0.0
85	0x00000000	0.0
86	0x00000000	0.0
87	0x00000000	0.0
88	0x00000000	0.0
89	0x00000000	0.0
90	0x00000000	0.0
91	0x00000000	0.0
92	0x00000000	0.0
93	0x00000000	0.0
94	0x00000000	0.0
95	0x00000000	0.0
96	0x00000000	0.0
97	0x00000000	0.0
98	0x00000000	0.0
99	0x00000000	0.0
100	0x00000000	0.0
101	0x00000000	0.0
102	0x00000000	0.0
103	0x00000000	0.0
104	0x340af228	1.2940347e-07
105	0x345600af	1.9930552e-07
106	0x3399ae9a	7.1563775e-08
107	0x33374bff	4.2677126e-08
108	0x331cf934	3.654823e-08
109	0x333f5c00	4.4554326e-08
110	0x32a069b0	1.8674513e-08
111	0x340f13ab	1.3325068e-07
112	0x00000000	0.0
113	0x00000000	0.0
114	0x00000000	0.0
115	0x00000000	0.0
116	0x00000000	0.0
117	0x00000000	0.0
118	0x00000000	0.0
119	0x00000000	0.0
120	0x00000000	0.0
121	0x00000000	0.0
122	0x00000000	0.0
123	0x00000000	0.0
124	0x00000000	0.0
125	0x00000000	0.0
126	0x00000000	0.0
127	0x00000000	0.0
128	0x00000000	0.0
129	0x00000000	0.0
130	0x00000000	0.0
131	0x00000000	0.0
132	0x00000000	0.0
133	0x00000000	0.0
134	0x00000000	0.0
135	0x00000000	0.0
136	0x00000000	0.0
137	0x00000000	0.0
138	0x00000000	0.0
139	0x00000000	0.0
140	0x00000000	0.0
141	0x00000000	0.0
142	0x00000000	0.0
143	0x00000000	0.0
144	0x00000000	0.0
145	0x00000000	0.0
146	0x00000000	0.0
147	0x00000000	0.0
148	0x00000000	0.0
149	0x00000000	0.0
150	0x00000000	0.0
151	0x00000000	0.0
152	0x00000000	0.0
153	0x00000000	0.0
154	0x00000000	0.0
155	0x00000000	0.0
156	0x00000000	0.0
157	0x00000000	0.0
158	0x00000000	0.0
159	0x00000000	0.0

exp_avg f4 [8, 8, 2, 2]
0	0x36009d3b	1.9165007e-06
1	0xb8c78f94	-9.515803e-05
2	0x385b6599	5.230829e-05
3	0x3895f484	7.150418e-05
4	0xb8ccf60f	-9.77331e-05
5	0x3915d95b	0.00014290719
6	0xb8a8e5d0	-8.05367e-05
7	0x38b50d44	8.6332235e-05
8	0x36398f1c	2.7650449e-06
9	0xb846b368	-4.7373964e-05
10	0xb76bedeb	-1.4062486e-05
11	0x37f4786e	2.9143146e-05
12	0x384332fc	4.6539106e-05
13	0x398b6ad2	0.00026591733
14	0x383de91c	4.527821e-05
15	0xb7eaadff	-2.7975997e-05
16	0xb7ab6a1b	-2.0434198e-05
17	0x37abd5d0	2.0484353e-05
18	0xb82c0e45	-4.1021285e-05
19	0x385fc2bf	5.3348715e-05
20	0xb8faa59d	-0.00011951777
21	0xb75f5d7e	-1.3313604e-05
22	0xb92af429	-0.0001630342
23	0xb96f0b36	-0.00022796993
24	0x37d1a02f	2.4989333e-05
25	0xb8409c43	-4.5921897e-05
26	0x37a92a59	2.016609e-05
27	0xb847a9f0	-4.7603564e-05
28	0xb883d604	-6.28643e-05
29	0xb921fe7a	-0.00015448956
30	0xb86e936d	-5.6880923e-05
31	0x379d8e6c	1.8782179e-05
32	0x38d91f65	0.00010353214
33	0x37dcbe2c	2.63146e-05
34	0xb888bb33	-6.519854e-05
35	0x39a04d35	0.00030575102
36	0x3943d7f3	0.00018677097
37	0x39a52fde	0.00031506916
38	0xb92553ef	-0.00015766894
39	0x372b0c00	1.0195188e-05
40	0xb6c15f69	-5.7629554e-06
41	0xb7c86030	-2.3886649e-05
42	0xb9bd4cf3	-0.0003610622
43	0xb987367d	-0.00025789803
44	0x38ebd1ea	0.00011244773
45	0x3907c8a1	0.00012949343
46	0x39c6f056	0.00037944567
47	0x37c0f02c	2.3000022e-05
48	0xb9e8dbfd	-0.00044414392
49	0xb8aa2337	-8.112791e-05
50	0x398a0476	0.00026324735
51	0xb8ddd12c	-0.000105770625
52	0xb9a991f2	-0.0003234293
53	0x3906025c	0.00012780115
54	0x3923288d	0.00015559998
55	0xba0df83b	-0.00054157124
56	0xb95baa84	-0.0002094899
57	0xb92fd515	-0.0001676868
58	0xb935c338	-0.0001733423
59	0xb8615202	-5.3720556e-05
60	0x392ae4ca	0.00016297694
61	0x3960fd96	0.00021456773
62	0x39eba56b	0.0004494594
63	0xb900d2d2	-0.00012285568
64	0x3910a1fa	0.00013793251
65	0x3712423e	8.717701e-06
66	0xb801515e	-3.0831776e-05
67	0xb807a929	-3.234405e-05
68	0x38a1af74	7.709759e-05
69	0xb9654af2	-0.00021867061
70	0x37812aaf	1.5397874e-05
71	0xb902288e	-0.00012412874
72	0x376ff6e2	1.4302992e-05
73	0x36e2377b	6.7417836e-06
74	0x3862f371	5.410932e-05
75	0x38b2454d	8.50061e-05
76	0x3950c8c3	0.00019911215
77	0x38eaae6c	0.00011190478
78	0x38005a44	3.0601645e-05
79	0x386ba147	5.6178567e-05
80	0x38b3b6d6	8.569441e-05
81	0xb832494b	-4.2506766e-05
82	0x384f068e	4.935875e-05
83	0xb7d7abd8	-2.5710018e-05
84	0x390c43a6	0.00013376641
85	0xb98b0949	-0.00026519064
86	0xb99e59e7	-0.0003020309
87	0xb947b845	-0.00019046765
88	0xb904e65d	-0.00012674318
89	0x385c89bf	5.2580373e-05
90	0x3869f216	5.577699e-05
91	0x3864fea6	5.4596596e-05
92	0x39e9e0cc	0.0004460871
93	0xb905bca6	-0.00012754145
94	0x384e0e59	4.912759e-05
95	0xb9095e70	-0.00013100519
96	0x38d8b657	0.00010333646
97	0x3956cb43	0.00020484351
98	0x38fc7745	0.00012038512
99	0xb9ee46b2	-0.0004544757
100	0x3a2a5a91	0.0006498481
101	0x38bd320b	9.0215435e-05
102	0xb8bb57f7	-8.9332396e-05
103	0xb9b2f7d9	-0.00034135467
104	0xb881d92d	-6.1916515e-05
105	0xb750af41	-1.2438571e-05
106	0x395d18a2	0.00021085379
107	0x398327bf	0.0002501588
108	0x3a49a155	0.0007691582
109	0x3a1c72ee	0.00059680536
110	0xb901dd9c	-0.00012384955
111	0xb8ccd52b	-9.767184e-05
112	0x39a24eab	0.0003095766
113	0xba10516d	-0.00055052974
114	0x38b11584	8.444025e-05
115	0x3926c3f5	0.00015903993
116	0x3a1a7a5d	0.00058928673
117	0xba2f7e33	-0.00066945254
118	0xba17022a	-0.00057605153
119	0xba4be5d2	-0.00077780813
120	0xb9cdd4f0	-0.00039259298
121	0xb9abaa17	-0.00032742388
122	0xb795e8c7	-1.787058e-05
123	0x39444980	0.00018719397
124	0x3a522567	0.00080164376
125	0x39a5e704	0.00031643372
126	0xb7fb5193	-2.9959518e-05
127	0xba14af94	-0.0005671915
128	0x39aef040	0.00033366866
129	0x391b2d9d	0.00014798944
130	0xb8722e80	-5.7740603e-05
131	0x39673bcc	0.00022052153
132	0x39940ba3	0.0002823743
133	0x3a368444	0.0006962458
134	0xb939e12e	-0.00017726861
135	0x38dcda85	0.0001053112
136	0x37bb87e0	2.2355409e-05
137	0xb60301d1	-1.9521578e-06
138	0xb97f0461	-0.00024320326
139	0xb93bce17	-0.00017910484
140	0x38df9411	0.00010661048
141	0xb727324d	-9.965687e-06
142	0x3880a596	6.1343584e-05
143	0xb9134086	-0.0001404305
144	0xbaa29acd	-0.0012405753
145	0x39a6d3a6	0.00031819678
146	0x38b14958	8.453679e-05
147	0xb8e7e9a7	-0.000110584595
148	0xba821e5f	-0.0009927264
149	0x3a7fc7db	0.0009757259
150	0x392aa749	0.00016274782
151	0xb96a231c	-0.00022329058
152	0xb9fce1c5	-0.00048233397
153	0xb99bed13	-0.00029740538
154	0xb82cde9b	-4.1215313e-05
155	0xb78394a3	-1.5685631e-05
156	0x39e17f1a	0.00043010042
157	0x3a79973b	0.0009521131
158	0x393863ff	0.00017584859
159	0xb867c72b	-5.526018e-05
160	0x38d2bb25	0.00010048439
161	0x38f73a13	0.00011788695
162	0xb93bb433	-0.00017900839
163	0x38a885a0	8.035754e-05
164	0xb9f6c871	-0.00047070117
165	0xb9a25cb5	-0.0003096812
166	0xb9b84f16	-0.00035154138
167	0xb8b8131b	-8.7773624e-05
168	0x37baab34	2.225265e-05
169	0x37ce323e	2.458051e-05
170	0x3922a8cb	0.00015512404
171	0x39c188e1	0.0003691381
172	0x39d3c2c3	0.00040390165
173	0x39cdfbbc	0.00039288204
174	0x39bba183	0.00035787755
175	0x3774aefc	1.4584275e-05
176	0xb87ac7b8	-5.9790647e-05
177	0x3992cb3f	0.0002799872
178	0x37cdfb16	2.4554825e-05
179	0xb94936d1	-0.00019189274
180	0xba14c978	-0.0005675773
181	0xb8805e07	-6.1210296e-05
182	0xb9f04e15	-0.00045834543
183	0xba2aa0ae	-0.00065089285
184	0x383c128b	4.4839962e-05
185	0x37cc2cc0	2.4339533e-05
186	0x38e599cc	0.00010948218
187	0x392828ce	0.0001603693
188	0xb8434c29	-4.6562553e-05
189	0x39884719	0.00025992913
190	0xb9822b56	-0.0002482782
191	0xb9f6ba08	-0.0004705938
192	0x39d216c1	0.00040071274
193	0x3998ecff	0.00029168275
194	0xb868cf22	-5.5506018e-05
195	0x399e78df	0.00030226164
196	0x3a5b9cd9	0.0008377559
197	0xb8efed1c	-0.00011440573
198	0xb9f39df3	-0.00046466253
199	0xba2fb64d	-0.0006702885
200	0xb8161d83	-3.579027e-05
201	0x3825c913	3.952633e-05
202	0x37905715	1.7206688e-05
203	0xb99bc6a2	-0.00029711897
204	0x3a74da8f	0.0009340429
205	0x39a7e69d	0.00032024542
206	0x38b4a8d3	8.614515e-05
207	0x39c0b359	0.00036754718
208	0xb9f97964	-0.00047583424
209	0xb9f92d48	-0.00047526718
210	0x399915d0	0.00029198686
211	0xb9658371	-0.00021888108
212	0xb80d447b	-3.3680797e-05
213	0xba1e29d1	-0.0006033453
214	0xba045d55	-0.0005049308
215	0xba565887	-0.0008176644
216	0xba489cff	-0.0007652789
217	0xb979d75d	-0.0002382672
218	0xb8e02134	-0.00010687337
219	0x389de6bc	7.529321e-05
220	0x3aaad2d2	0.00130328
221	0x39f0e185	0.00045944392
222	0x38acb86a	8.235949e-05
223	0xb985f059	-0.0002554681
224	0xb8acea67	-8.24526e-05
225	0xb816e3ac	-3.5974823e-05
226	0xb9143f03	-0.00014137854
227	0x399d42a6	0.0002999503
228	0xb9983f43	-0.00029038833
229	0xb53a5e45	-6.942758e-07
230	0x38874cc5	6.451601e-05
231	0x39689856	0.00022181994
232	0xb726b878	-9.937321e-06
233	0xb66abeeb	-3.4979846e-06
234	0x38c4e661	9.38892e-05
235	0xb998d09e	-0.0002914713
236	0xb73343db	-1.068503e-05
237	0xb7e41459	-2.7189193e-05
238	0xb832a2ef	-4.259025e-05
239	0x39cb3d86	0.00038765016
240	0xb9efcce6	-0.00045738294
241	0x38f35747	0.000116033996
242	0x389e9b6d	7.5629774e-05
243	0x389bc9bc	7.428552e-05
244	0xba467c11	-0.0007571588
245	0x38f9070f	0.0001187456
246	0x3932acd0	0.0001703978
247	0x394de1b4	0.00019634404
248	0x38c1032f	9.20355e-05
249	0x382bc7af	4.0955547e-05
250	0x365e9178	3.3165252e-06
251	0xb979b39a	-0.00023813397
252	0xba1fda96	-0.00060979405
253	0xb81cf1ef	-3.7418617e-05
254	0x37f21f3c	2.8863193e-05
255	0x3a06eddc	0.0005147138

exp_avg_sq f4 [8, 8, 2, 2]
0	0x33ae0021	8.10253e-08
1	0x3496fa75	2.812191e-07
2	0x3419ddde	1.432995e-07
3	0x33a48d33	7.662529e-08
4	0x3587e54b	1.0125017e-06
5	0x34ca8045	3.771876e-07
6	0x3521c0fe	6.0258014e-07
7	0x35576385	8.023856e-07
8	0x3169333b	3.3935084e-09
9	0x3287d0f0	1.5811082e-08
10	0x34ce88cd	3.8470026e-07
11	0x350c260c	5.220943e-07
12	0x34c32631	3.6349368e-07
13	0x35aa503e	1.268934e-06
14	0x33d6f4a8	1.0009654e-07
15	0x33d0d2a8	9.724073e-08
16	0x33a046f8	7.46349e-08
17	0x34440e51	1.8259131e-07
18	0x33f4f6a1	1.1406997e-07
19	0x343f3a4a	1.7809467e-07
20	0x35cf09f8	1.5425603e-06
21	0x3504d777	4.9487375e-07
22	0x3592b354	1.0930039e-06
23	0x35aca069	1.2861684e-06
24	0x33cce307	9.540786e-08
25	0x346eeb0b	2.2250985e-07
26	0x343aee68	1.7409332e-07
27	0x344d5ea9	1.912655e-07
28	0x358ecc24	1.0639237e-06
29	0x36343062	2.6850253e-06
30	0x35536fd7	7.8766374e-07
31	0x357166ff	8.9929375e-07
32	0x35107010	5.380725e-07
33	0x33fd9941	1.1809107e-07
34	0x35880121	1.0133118e-06
35	0x350549e0	4.9653863e-07
36	0x373067ad	1.0514556e-05
37	0x3754b6f3	1.2678781e-05
38	0x35c46b37	1.4634342e-06
39	0x35b7df97	1.3699636e-06
40	0x32b90fdc	2.1544047e-08
41	0x32445399	1.14277094e-08
42	0x36e23265	6.7411916e-06
43	0x36a70020	4.9770024e-06
44	0x36d575d4	6.3616117e-06
45	0x36be9a97	5.680438e-06
46	0x354c4417	7.6095006e-07
47	0x35c55800	1.4703255e-06
48	0x36182905	2.2673642e-06
49	0x353b9635	6.988151e-07
50	0x34ab4903	3.1904355e-07
51	0x34e5ebf8	4.2826264e-07
52	0x37266f69	9.920311e-06
53	0x3784d09b	1.5832766e-05
54	0x36d4665c	6.3300085e-06
55	0x36cc9f5a	6.0982247e-06
56	0x35c58363	1.4715882e-06
57	0x35873c41	1.007582e-06
58	0x353e25e4	7.0835654e-07
59	0x34f1217c	4.491411e-07
60	0x36d89111	6.4541896e-06
61	0x36a010e0	4.770336e-06
62	0x367e6cd1	3.791229e-06
63	0x36237951	2.4359508e-06
64	0x34978537	2.8222868e-07
65	0x3080dd01	9.376039e-10
66	0x342cf2a2	1.6107018e-07
67	0x33aa6461	7.934501e-08
68	0x3382b0a1	6.085725e-08
69	0x35232cce	6.078743e-07
70	0x34909d0c	2.6936357e-07
71	0x3504f2c7	4.952712e-07
72	0x31ff83c1	7.4364555e-09
73	0x30250e87	6.0047295e-10
74	0x34471833	1.8542123e-07
75	0x3467eeaf	2.1600384e-07
76	0x34ac2535	3.2064568e-07
77	0x342ae113	1.5914365e-07
78	0x33752dda	5.708521e-08
79	0x33063c6c	3.125426e-08
80	0x348bcede	2.6041283e-07
81	0x32c53a66	2.2960375e-08
82	0x338054f6	5.975919e-08
83	0x32f1e466	2.8159956e-08
84	0x34a06851	2.9878223e-07
85	0x356ff264	8.9387163e-07
86	0x34d79570	4.01556e-07
87	0x3513eed1	5.510929e-07
88	0x3433cb20	1.674457e-07
89	0x331802d5	3.5392834e-08
90	0x337f42dc	5.9432622e-08
91	0x341e9bd7	1.4771591e-07
92	0x363228cd	2.6547816e-06
93	0x345eec03	2.0761222e-07
94	0x34d0c0ec	3.8883388e-07
95	0x3560e67d	8.378191e-07
96	0x3586c6fe	1.0041692e-06
97	0x34e85ece	4.3282347e-07
98	0x358e7fc6	1.0617011e-06
99	0x358eeec3	1.0649313e-06
100	0x37bb1eaf	2.2306425e-05
101	0x37ce36c6	2.458262e-05
102	0x363a5a35	2.7768667e-06
103	0x36589673	3.2274081e-06
104	0x3346fb28	4.6328893e-08
105	0x330a8ed3	3.2260527e-08
106	0x375bcb19	1.3100705e-05
107	0x376286be	1.3502022e-05
108	0x378cb75c	1.6774684e-05
109	0x37891eb9	1.6345979e-05
110	0x36531acd	3.145705e-06
111	0x36505b15	3.1047432e-06
112	0x36ab059d	5.0968506e-06
113	0x364926b7	2.997387e-06
114	0x35a7c6aa	1.2500288e-06
115	0x35900c80	1.0732474e-06
116	0x37989eb6	1.8193718e-05
117	0x37e54578	2.7331276e-05
118	0x3777da90	1.4773235e-05
119	0x37615b91	1.34323645e-05
120	0x3667bd05	3.4531706e-06
121	0x3630ada2	2.6327111e-06
122	0x35a52b5e	1.230608e-06
123	0x35931c92	1.0960669e-06
124	0x3772a33c	1.446233e-05
125	0x37371b30	1.091398e-05
126	0x36f77996	7.375328e-06
127	0x36cddfe4	6.1355404e-06
128	0x352156dd	6.0103577e-07
129	0x3485e7a8	2.4941733e-07
130	0x349755b8	2.818831e-07
131	0x34a81075	3.1304413e-07
132	0x36554dea	3.1784825e-06
133	0x35f45cd7	1.8206437e-06
134	0x355d0c63	8.234694e-07
135	0x355618dc	7.975739e-07
136	0x31c37e5d	5.689613e-09
137	0x32720335	1.4086983e-08
138	0x35aa7e97	1.270283e-06
139	0x358a6c92	1.0313399e-06
140	0x350e0881	5.2911497e-07
141	0x35eb6f20	1.7541206e-06
142	0x350a2ec5	5.1477065e-07
143	0x3596c30c	1.1232637e-06
144	0x36b1735e	5.2884416e-06
145	0x34b871d9	3.4355506e-07
146	0x340663f9	1.2516092e-07
147	0x34a1f6e0	3.0168212e-07
148	0x36132f94	2.19324e-06
149	0x36261c7e	2.4752512e-06
150	0x35b07f9a	1.3150159e-06
151	0x35a4dfd0	1.228409e-06
152	0x35ddd5bf	1.6527991e-06
153	0x34ac03e8	3.204034e-07
154	0x344aad7e	1.8875832e-07
155	0x348b885a	2.5989976e-07
156	0x367fa3d7	3.8093328e-06
157	0x363ad427	2.7839649e-06
158	0x35bebcd5	1.421106e-06
159	0x3613ab5a	2.2004447e-06
160	0x3548b41c	7.47679e-07
161	0x34cbfee3	3.799715e-07
162	0x354b3f6a	7.571567e-07
163	0x3418ae9d	1.4219627e-07
164	0x364823e0	2.9823204e-06
165	0x361a67d4	2.3008224e-06
166	0x35a93e76	1.260966e-06
167	0x3624a495	2.4533704e-06
168	0x32d139bf	2.4357062e-08
169	0x32c88b8a	2.334652e-08
170	0x36140a00	2.205954e-06
171	0x35cd615a	1.5302023e-06
172	0x362acc3c	2.5450854e-06
173	0x36764e33	3.6702374e-06
174	0x34a99597	3.1587544e-07
175	0x3536329c	6.787393e-07
176	0x35668cc7	8.5886535e-07
177	0x34fcbdc4	4.707673e-07
178	0x34de53d8	4.1411727e-07
179	0x3474b5dc	2.2790431e-07
180	0x36ac95db	5.143445e-06
181	0x3670f60b	3.5906003e-06
182	0x365daecd	3.3033314e-06
183	0x36aa3815	5.0729236e-06
184	0x35243bfe	6.118206e-07
185	0x34c69ef8	3.699604e-07
186	0x34ee704a	4.4412656e-07
187	0x34b15ba2	3.303549e-07
188	0x3701eeb2	7.744575e-06
189	0x366dd960	3.544228e-06
190	0x3622c4ec	2.4254505e-06
191	0x3614c950	2.2170898e-06
192	0x3618da84	2.2776958e-06
193	0x35994952	1.1420727e-06
194	0x3632df51	2.6654054e-06
195	0x36778075	3.688064e-06
196	0x37e3ab1b	2.7140186e-05
197	0x3835514f	4.3229487e-05
198	0x36e4f659	6.823608e-06
199	0x36e8cdd8	6.938102e-06
200	0x33e390d2	1.0596854e-07
201	0x33ad1f9f	8.061692e-08
202	0x37a8cf77	2.0123769e-05
203	0x380326a8	3.1268835e-05
204	0x380daa10	3.3775403e-05
205	0x37dcb5a2	2.6310623e-05
206	0x36b87151	5.496819e-06
207	0x35eaa642	1.7482746e-06
208	0x36f03a98	7.1593786e-06
209	0x363ec6c7	2.842791e-06
210	0x36294efa	2.5228933e-06
211	0x35ccc74b	1.5257186e-06
212	0x37e30323	2.706197e-05
213	0x387dacaf	6.0480725e-05
214	0x37ec2886	2.8152263e-05
215	0x380d4dfe	3.3689656e-05
216	0x3676034b	3.6658773e-06
217	0x363fb7c3	2.8568181e-06
218	0x3630dfc5	2.6356295e-06
219	0x36931f91	4.384616e-06
220	0x379d8c14	1.8781087e-05
221	0x378b088d	1.6574073e-05
222	0x377aca43	1.4948254e-05
223	0x37eb0f3e	2.802128e-05
224	0x34e58de5	4.2757816e-07
225	0x333cbc59	4.3943462e-08
226	0x3404994c	1.2349227e-07
227	0x350bc8bd	5.207365e-07
228	0x35934711	1.0973037e-06
229	0x36256d34	2.465048e-06
230	0x3565b94b	8.5578785e-07
231	0x354e90d6	7.6951744e-07
232	0x32a3853a	1.9036282e-08
233	0x3117a17d	2.2065187e-09
234	0x35b2b13f	1.3313619e-06
235	0x357296db	9.037155e-07
236	0x35e1b60f	1.6816792e-06
237	0x351d5f83	5.8626046e-07
238	0x34836deb	2.4480627e-07
239	0x3596d359	1.1237381e-06
240	0x354705c5	7.414167e-07
241	0x34f8a4c2	4.6313477e-07
242	0x34152f8c	1.3894004e-07
243	0x344e6096	1.9220383e-07
244	0x35f7efea	1.8472758e-06
245	0x365adfec	3.261487e-06
246	0x35e879a3	1.7320748e-06
247	0x35938cf7	1.099338e-06
248	0x34cc7924	3.8086102e-07
249	0x348f7a84	2.6724967e-07
250	0x34359204	1.6910059e-07
251	0x34ae6b1f	3.2487966e-07
252	0x367827e5	3.6978101e-06
253	0x3589dedd	1.0272157e-06
254	0x35a45f70	1.2246728e-06
255	0x361dae3f	2.3496248e-06

exp_avg f4 [8]
0	0x388e4b9a	6.7851695e-05
1	0xb889c665	-6.569623e-05
2	0x3926ae34	0.0001589589
3	0x3998160e	0.0002900813
4	0xb9459b1a	-0.00018845164
5	0x39fbaeea	0.00048004772
6	0x398809b3	0.00025947168
7	0xb6c9e7a6	-6.017234e-06

exp_avg_sq f4 [8]
0	0x3528c194	6.286657e-07
1	0x3712e8a7	8.756447e-06
2	0x34ac66df	3.2112345e-07
3	0x37ab011c	2.0385305e-05
4	0x35ccd4e8	1.5261148e-06
5	0x36403e40	2.8646464e-06
6	0x3812203c	3.4839133e-05
7	0x35ab0e42	1.2744642e-06
