saved_models_zach/easyNpyMini/checkpoint_easyNpySmallMini_1__mode_embed_bl__seed_0_2020-07-17_11:17:54.490592_5000000.tar (torch_old, 13239 bytes, 22 tensors)

gcn.obj_emb.weight f4 [16, 8]
00000000: 851b 90bf 8a80 93bf d64b 80be 5d25 debe
00000010: 1545 593f 8327 313f 6dcc a1be c15f 07c0
00000020: 3801 a53e f4b4 a1bf ff30 b33e bbc3 9d3e
00000030: 776f f53d 936b 9e3f 8ef2 8e3f 7c36 7dbe
00000040: c223 adbf 4614 d9bf 0410 113f 5d23 4b3f
00000050: 8b4d 193f 5b0d c7bf cac6 aebe 4e2f ed3f
00000060: 6b0c 403f 2be3 15bf eb8e 31be a4e1 3b3e
00000070: c0d6 b13f 000d cb3f 9c40 723f 33fb 57bf
00000080: c813 1dbf 6467 013d 2840 fcbe 7060 7e3e
00000090: d01f e13e d637 e63d f80a 243f 3cdf e13e
000000a0: b987 d1bd 9cdd 4a3f 534f 94be 1712 573d
000000b0: 2fda 053f 5557 1340 b704 bcbf 9e18 cbbf
000000c0: 9f4f 2cbf de71 5f3f f415 873f aa1c 363e
000000d0: 10dd 6bbe 0894 c8be 5d15 0b3f 1752 cabe
000000e0: 9476 e4be 2478 3e3f 75af c23f ad45 5a40
000000f0: d9fd c3bf 23f8 9dbf c2ec e83f fc30 0dbf
00000100: 3eba 11bf 3f83 6b3f 392f 8e3f 981a a53f
00000110: ce34 bdbf 8b4d 2440 c23c f2be 4fcd ab3e
00000120: c18d d0bf 00bc 0cbf d6ac f5be 42d6 ffbe
00000130: d092 88bf 57b6 8e3f 2c0c 10be de45 4e3f
00000140: 5c2d bfbd 86e2 2f3f d69b 56bf 25c9 693a
00000150: 5f86 573f 47d1 ccbe 170d 853f d85f b73e
00000160: ace7 7bbe 6e5c 1340 31db f0bf 90ae 4bbd
00000170: dcc1 85bf 3ddd 74bf b458 093d 3cc8 353f
00000180: c5ab d23f 041a aebf e16a b03e 0d16 053f
00000190: ad40 27c0 1326 d9bf 37b8 69be 4356 8f3e
000001a0: 46da 7c3e ef76 9d3d 190f ad3e 59a7 e83e
000001b0: 0ff4 e93e fa88 5dbf cc03 483f 1242 6dbf
000001c0: f015 60be 1cd8 1bc0 5554 95bd 5535 0bbd
000001d0: 9967 763f 2ec6 b23e efe4 6bbf 812c 66bd
000001e0: 2b69 1fbf fe6c edbe f7fc f53f 731a cebe
000001f0: 95c0 fd3d a017 953f 3562 6c3f e492 b13f
-1.1258398 -1.1523602 -0.25057858 -0.4338788 0.84871036 0.69200915 -0.31601277 -2.1152194
0.32227492 -1.2633348 0.3499832 0.30813393 0.11984151 1.2376579 1.1167772 -0.24727815
-1.3526537 -1.6959312 0.5666506 0.79350835 0.59883946 -1.5550951 -0.3413604 1.8530061
0.7501895 -0.58549756 -0.17339675 0.18347794 1.3893661 1.5863342 0.94629836 -0.84367675
-0.6135831 0.03159274 -0.49267697 0.24841475 0.43969584 0.112411186 0.64079237 0.44115627
-0.10230965 0.792444 -0.2896677 0.052507486 0.52286047 2.3022053 -1.4688939 -1.5866888
-0.6730899 0.8728312 1.0553575 0.17784372 -0.23033547 -0.3917544 0.5432947 -0.39515755
-0.44621718 0.7440207 1.5209795 3.4105027 -1.5311843 -1.234135 1.8197253 -0.5515287
-0.5692481 0.9199714 1.1108161 1.2898741 -1.478174 2.5672328 -0.4731198 0.33555076
-1.629326 -0.54974365 -0.47983426 -0.49968153 -1.0669804 1.1149396 -0.14067143 0.8057536
-0.093348235 0.6870502 -0.83831537 0.00089182175 0.8418941 -0.40003416 1.039462 0.3581531
-0.24600095 2.3025165 -1.8816892 -0.049727023 -1.0449786 -0.9565008 0.03353186 0.7100866
1.645867 -1.3601689 0.34456542 0.5198677 -2.6133225 -1.6964744 -0.22824179 0.279955
0.2469264 0.076887004 0.3380058 0.45440176 0.45694014 -0.86537135 0.78130794 -0.9267894
-0.21883368 -2.4350653 -0.07291476 -0.03398641 0.9625183 0.34916824 -0.921462 -0.056194786
-0.6226985 -0.46372217 1.9217824 -0.40254554 0.12390248 1.1647835 0.9233735 1.3872952

embeds.weight f4 [20, 8]
00000000: c7d3 39bf 632a 3ebe 530b 09bf 01c5 423f
00000010: 3394 ce3e cfac a33c ac4e b73f 7c24 20bf
00000020: afa9 95be 468a 263e a91d a1be 1c9a 73bf
00000030: 0bff de3d bb03 f9bf a38d 8fbe 78ef 5b3d
00000040: b9ea 35be ef29 fdbe 157d fdbd 12cc b63f
00000050: 0eaf 283f 7c32 5cbd 70c3 82bd 68e9 0f3f
00000060: 3854 95be ffa3 39bf fe5f febf e386 083f
00000070: 8918 36bf 8250 863f 0031 7c3d f13f 093c
00000080: 09c5 563f 4d10 3fc0 b3e0 20bf 9151 ec3e
00000090: c995 933e ad60 e73e 584c 513f 960e 083f
000000a0: 4a7d 3f3f f433 cf3e 9c8b c4bd e791 da3e
000000b0: c09f 74bd fc45 56bf 1f5b 593d 0fd7 9ebf
000000c0: fd9a 063e 5643 58be 938e b4bf 89e1 92be
000000d0: 9cea 9e3f c14f 043f bd7e bf3f bac0 283f
000000e0: 7711 8abf 8c8d 38bf ef42 bc3f 0820 8d3e
000000f0: 2ab2 2a3f 5290 7ebf 143d 98bf df14 99bf
00000100: eb43 0fbf 9c91 083f 7153 d03e 3f07 ca3e
00000110: 92a0 2f3e 7844 603f 1ffd 92be 1ac5 823f
00000120: 5d5c 98bd fccd 8bbf b0b7 c83e dd32 183f
00000130: cb8a 293f 1e68 9abf 2b81 1b3f 7812 0cbf
00000140: 3ee6 953f 0eac c73d b79f 763f 6c1f 573f
00000150: c277 a0bf 4aa1 7c3f 6d43 fdbe c13a a4bf
00000160: 6b89 743f 464c a43f e075 2abf 9aac 103f
00000170: dc4d 933e ffb3 08bd f6eb 87bf 4558 eabd
00000180: b6c9 afbe 351f c93f b136 443e bd87 c23e
00000190: 303b 14be ec3a 233f 4605 90be 5939 aabf
000001a0: ebdd ca3f 1b35 d4bf 30e3 84bc 8ff1 75be
000001b0: 3b3c 58bf 53d5 a8bd 1b5b 0340 be5a 6dbf
000001c0: ad26 bdbf d5b9 e0bf f8fc 9b3d ad0f 8abf
000001d0: 225d b83f 357f e2bd 1dad 133f f93b 2dbe
000001e0: 791f 83bd 21eb 843f 9625 683f 8d76 f3be
000001f0: 0de9 5ebf 7b37 143e cd90 f33f f5e1 c73e
00000200: 1a45 21bd 482d 4dbf fcb7 fdbe 5f18 b9be
00000210: fbc9 153f 06f8 93bf 3ece 12be 146a 47be
00000220: de3b afbd a17f b23f 71ce 183f e637 f7be
00000230: 4771 bbbe dbdc a9bf ecfe d83f 2531 0440
00000240: 9a92 6fbe d012 353f 087e 143f e45e 893e
00000250: a7c5 03c0 94b5 083f a40f 09bf 2619 5dbf
00000260: 5777 c0bc 47f9 953f ba20 cc3e 157c 4bbe
00000270: def5 93bf 8222 a2be 60b7 703f 68cf 92bf
-0.7258877 -0.18570857 -0.53532904 0.76081854 0.40347442 0.019979862 1.4320884 -0.6255567
-0.2923102 0.16263685 -0.3146794 -0.9515703 0.10888489 -1.9454263 -0.28037748 0.053695172
-0.17765321 -0.49446055 -0.12377373 1.4281027 0.6589211 -0.053759083 -0.06384933 0.56215525
-0.29165816 -0.72515863 -1.9873044 0.5333082 -0.7113119 1.0493319 0.061570168 0.008377061
0.838944 -2.98537 -0.62842864 0.4615598 0.28825215 0.45190945 0.81757116 0.53147256
0.7480055 0.40469325 -0.09596941 0.4268944 -0.059722662 -0.8370054 0.053065415 -1.2409381
0.13145061 -0.21119437 -1.410601 -0.28687695 1.2415347 0.51684195 1.4960552 0.6591908
-1.078658 -0.72090983 1.4707927 0.275635 0.66678107 -0.99438965 -1.189364 -1.1959494
-0.5596301 0.5334718 0.4068866 0.39458653 0.17151096 0.87604475 -0.2870874 1.0216401
-0.07439492 -1.0922236 0.39202642 0.5945261 0.66227406 -1.2063024 0.6074397 -0.5471568
1.1710889 0.09749614 0.96337456 0.8403232 -1.2536547 0.9868361 -0.49465504 -1.283043
0.95522183 1.2835777 -0.6658611 0.5651337 0.2877034 -0.033374783 -1.0618885 -0.11442617
-0.3433358 1.5712649 0.19161488 0.37994185 -0.14475703 0.6376178 -0.28129023 -1.3298751
1.5848974 -1.6578707 -0.016221613 -0.24017929 -0.84466904 -0.08243813 2.0524356 -0.92716587
-1.4777428 -1.7556711 0.07616609 -1.0786034 1.4403422 -0.11059419 0.57686025 -0.16917409
-0.06402487 1.0384256 0.9068235 -0.47551385 -0.8707436 0.14474289 1.9028565 0.3903958
-0.03937254 -0.8014722 -0.4955443 -0.36151406 0.5851132 -1.1560066 -0.14336488 -0.1947406
-0.08556341 1.3945199 0.59690005 -0.48284835 -0.3660986 -1.3270525 1.6952796 2.0654995
-0.23395768 0.7073183 0.5800481 0.26830208 -2.0589387 0.53402066 -0.5353949 -0.863665
-0.023494406 1.1716698 0.39868718 -0.19871552 -1.1559408 -0.31666952 0.9402981 -1.1469545

body.0.weight f4 [8, 8, 2, 2]
00000000: a4e8 213f 60bf 523e 40a8 b0be c8af a0be
00000010: 9b61 00bd 8ca4 4ebe e7e9 16bf 5cdd 86be
00000020: 8d7d 77be 3901 c8be 1bd3 9abe 6b29 4e3f
00000030: 09c1 4cbf 43db 62be d92c 533e d66a 423f
00000040: b67a 1d3e fa6f 3fbe 5bf9 483e cbfd 2ebe
00000050: fc1d 3c3f 32ee 223d 4b1c ba3d 525d d2be
00000060: 9d5f b23d 6da9 b3bd fea5 633e b25d ef3d
00000070: 73ac 883f 8e62 953e 7643 9e3c e431 9dbe
00000080: aca5 83be 3d78 b5be 4f41 383e bc82 4fbb
00000090: 482a 9dbb d1b7 80be 76d9 63be 262c 313e
000000a0: 8ce1 9ebd 5422 3bbe 377a 71be 17bd c2be
000000b0: 36c2 113f 86e9 003f a253 a73c fdca 0a3f
000000c0: 92d6 a93e e636 263f 87cb 84bd 153e 043f
000000d0: 8e67 a03d 54ad 27be 04d4 183d 5536 94be
000000e0: 6bf1 183e f167 1b3f 37d5 723e f454 f7bd
000000f0: 483b 06bf 8ad3 efbe 83a4 09bc e6ed 0a3e
00000100: f9fe 663c c58e ebbd 4b97 23be 16b0 86bf
00000110: dba4 2e3e d28a 0f3e 41b9 6e3d fedc 2fbf
00000120: 072e c7bd f2b5 d9bd c1b8 f9be 882e 6cbe
00000130: 1c19 4dbe d851 823d 9676 8b3e c54e dd3e
00000140: c6df b9be b5bc 373f d0ba 13be 0eec a63e
00000150: 9033 08bf 78fb 9dbd 4c0b 66be a711 873e
00000160: 8e92 943d 4714 e73e c875 873e cfad 133f
00000170: b38b 4d3d 9884 10be 0e21 57bd a0d9 e13c
00000180: 5418 eabd b87a 50be 48c8 90be dd95 663f
00000190: 9690 02be 16a9 be3d c6be d23e 8051 3ebe
000001a0: 20cf dabd fda5 883e 5fa0 64be 7f92 813f
000001b0: dae1 dc3e c3e8 b73d ab2e e33e 80de d83e
000001c0: 16e4 f3be 5fac 20bf 0edc aa3e 2b7b 06bf
000001d0: d289 00be df8d 44bf 7e2d 143b 16b1 f8be
000001e0: c7d6 87be 3795 53be 2f64 02be c133 95be
000001f0: 0d8e 0fbe cc8c 47bf 0c2d 77be 60a8 69be
00000200: cad6 bcbd 8fd1 8fbe 72d8 44be 39a9 613f
00000210: 8786 f0be 82ce a9be f333 953e 6234 d93e
00000220: 0cba e2be c05d acbe c89b 3a3e 8f3e 7f3f
00000230: 75aa adbe 2ca0 b03e 0416 ff3e f038 7cbe
00000240: 0dd6 f53d b0d3 14be c5e6 0d3f dbeb fd3d
00000250: 3f28 ca3d ab41 91be ace6 babe 966a 97be
00000260: a475 613b 7bb0 20be 3866 01be ad2d 97bd
00000270: cbfd c13d ef77 3ebe d641 91be 1dff 163f
00000280: 430f 063e d5bf 95bd c9e1 483e c34d 1d3f
00000290: 1476 253f 9baa 023f 688e c8be 941d 323f
000002a0: c905 5f3e 00d5 863e 1792 aebe 89e7 cbbe
000002b0: 643e 18bf a1cc 42bf ecdc bd3e 1a0f b3be
000002c0: 92cd ca3d dedb 013e f4dd 6d3e 6b81 21bf
000002d0: f4d6 17bf 7305 83bf c886 78be 639f 38bf
000002e0: 6994 58bd 207d 1cbe e18a c43c e7f1 023e
000002f0: 7d31 e23d 7e5e 3b3e de6b 91be f071 38bf
00000300: b9ff 06bd 129d 303e 77fb 443c a86b 803f
00000310: e9c7 8fbe 51b7 d2be 8c88 71bd 030f c13e
00000320: f9e2 69be 26fb 01bf 3cb8 27bf 5b08 fe3e
00000330: 5488 0c3c aaf1 f13d 95ac 653e b863 6cbe
00000340: 90ab a2bd 22a3 87bf 389b b83e c1fa 87be
00000350: 2cda 073f 84de 8a3f af67 29bf 2ec9 d4be
00000360: 0542 513e 3bdd 9cbe f03a c7bd 9fe9 aa3e
00000370: e6d4 a43e 1da1 893e bcc0 b2be 3313 22be
00000380: b5c2 abbd b044 ab3d 4aec e3be fc1a 0ebf
00000390: b12a 8abe 9db7 8b3d 43e1 dd3d 4511 0f3f
000003a0: 26bc 59be e269 8fbe fbf6 8e3e fcd1 eebc
000003b0: 8b5a 29be 2a73 62bc d76b 2c3f 4e0f 3c3f
000003c0: d5cb 813b e634 473d 9234 ea3e 12cd 103f
000003d0: cdc0 943d 6144 a03e 5e0e bdbe c85f 29be
000003e0: b523 f63d f796 70bc 4098 193d 56a4 4ebe
000003f0: d737 df3c ccf5 6c3e 0a9a 11bf 4f63 4dbe
0.63245606 0.20580816 -0.34503365 -0.3138411 -0.031343084 -0.20179957 -0.58950657 -0.2634076
-0.24168988 -0.39063433 -0.30239186 0.8053195 -0.7998205 -0.22153954 0.20622577 0.7594427
0.15378842 -0.1869506 0.19626372 -0.17089002 0.7348325 0.039777942 0.09087428 -0.41086823
0.08709643 -0.0877255 0.2223129 0.11687793 1.0677627 0.29176754 0.019319277 -0.30702126
-0.25712335 -0.35443297 0.17993663 -0.0031663617 -0.0047963 -0.2514024 -0.22250924 0.17301998
-0.077578634 -0.18274814 -0.23581778 -0.3803489 0.5693697 0.5035633 0.020425621 0.54215986
0.33171517 0.6492752 -0.06484132 0.5165723 0.078322515 -0.16374713 0.03731157 -0.28947702
0.14935844 0.60705477 0.23714148 -0.120767504 -0.52434206 -0.4684108 -0.008401039 0.13567314
0.014098876 -0.115018405 -0.15975682 -1.0522487 0.17055075 0.140178 0.05828214 -0.6869658
-0.09725576 -0.106304064 -0.4877377 -0.23064625 -0.2002911 0.06363267 0.2723891 0.4322416
-0.36303538 0.7177232 -0.14426732 0.3260197 -0.5320368 -0.077139795 -0.22465247 0.26380655
0.072545156 0.45132658 0.26457047 0.57687086 0.050182056 -0.1411308 -0.052521758 0.027569592
-0.114304215 -0.20359313 -0.28277802 0.90072423 -0.12750468 0.09309594 0.41161174 -0.18585777
-0.10684037 0.2668914 -0.22326802 1.0122832 0.4314106 0.08979943 0.44371542 0.42357254
-0.47634953 -0.6276302 0.33371013 -0.5253169 -0.12552574 -0.7677898 0.0022610123 -0.48572606
-0.2653105 -0.2066239 -0.1273353 -0.29141048 -0.14019032 -0.77949214 -0.24138278 -0.22818136
-0.09220655 -0.28089568 -0.19223192 0.8814884 -0.46977636 -0.33165365 0.29141197 0.42422777
-0.44282568 -0.33665276 0.18223488 0.9970483 -0.3391911 0.344972 0.49821484 -0.24631095
0.120037176 -0.14533877 0.5543025 0.123985015 0.098709576 -0.28370413 -0.36504114 -0.29573506
0.0034402395 -0.15692322 -0.1263665 -0.07381759 0.09472235 -0.18600439 -0.2837054 0.5898302
0.1309176 -0.0731198 0.1961738 0.6144678 0.646333 0.51041573 -0.39171147 0.6957638
0.2177955 0.2633438 -0.34095833 -0.39825085 -0.594702 -0.7609349 0.37082613 -0.3497246
0.09902491 0.12681529 0.232292 -0.630881 -0.5931237 -1.0236038 -0.24270165 -0.72118205
-0.05287591 -0.15282106 0.023992004 0.12787591 0.110445954 0.18297765 -0.2840261 -0.72048855
-0.03295872 0.17247418 0.0120228445 1.0032854 -0.28082207 -0.41155484 -0.058968112 0.37706766
-0.2284049 -0.5077385 -0.65515494 0.4961575 0.008577425 0.11813672 0.22429116 -0.23084915
-0.07942879 -1.0596659 0.36055923 -0.26558498 0.5306728 1.0849156 -0.66173834 -0.41559738
0.2043534 -0.30637535 -0.09728038 0.33381364 0.3219368 0.26880732 -0.3491267 -0.15827636
-0.08386747 0.083627105 -0.44516212 -0.55509925 -0.26985696 0.06822131 0.10833981 0.55885726
-0.21263179 -0.2801047 0.27922806 -0.029152863 -0.16538446 -0.013821403 0.6735205 0.73460853
0.0039610662 0.048634432 0.45743233 0.5656291 0.07263336 0.3130217 -0.36925024 -0.16540444
0.12018529 -0.01468443 0.037498713 -0.20179877 0.027248306 0.23140639 -0.5687567 -0.20057414

body.0.bias f4 [8]
00000000: fe0c ca3b b9a3 d33e e819 acbc 3d33 5bbd
00000010: e6e2 013e 4b65 0c3e d8e8 a9bd 476e 89bc
0.0061660996 0.41335848 -0.021008447 -0.05351566 0.12684211 0.13710515 -0.082963645 -0.016776217

head.0.weight f4 [16, 16]
00000000: 9d83 4e3d 4e4c d9be 90f1 babd 7e46 afbe
00000010: 74e1 41be 1eed e4be 8317 8a3e c3b2 0b3e
00000020: f211 dcbe b758 bfbe e240 38be a24b 71bc
00000030: 2c5a bdbe 268e 4c3e f5f7 c6be 808c c93d
00000040: 2f7c a5be 36a5 1c3f cd4a f33e 9f1a b6bd
00000050: cdc3 f63e 854b debd 009d a43f 3d0f 413e
00000060: d613 b4be 8049 f33e 2633 24bf 4632 67be
00000070: 8deb a93c 416f 04bf af37 26bf 2f29 4bbd
00000080: 7b1c c9bd b607 30bc d928 99bd 72c2 fe3e
00000090: 54f4 a63e d43d 7e3e 28b5 2c3f c8d6 a0be
000000a0: 6b9b 283d e15c 3e3d 3e6c 6c3d 514f 593e
000000b0: 0952 6d3e 71ab b8be 8b13 b83e 1b3a d1bd
000000c0: 2c50 4ebe af25 4fbf d851 cb3e 06bf 983e
000000d0: 9ec1 b83e 197f a5bb df9f 453e 741b 33bf
000000e0: 9a2c 20bf 55a2 0a3f 49f6 973d 74e4 8dbf
000000f0: f1b6 253f c2c7 7cbf e0fd 833e 00ae 97be
00000100: 5b15 a23e 49b2 893e a004 cd3e e128 ac3e
00000110: d9c5 0c3e c134 eb3e 6eb0 b43e bc8c 5d3e
00000120: acaf 90be 22e1 80be 3af5 163e cf9e 0e3f
00000130: 1413 ef3d 1f71 183f 9ba9 023e f8fd 303e
00000140: 3b5c 803e c17d e93e 0916 0bbf 3bee 8ebe
00000150: a1ec a03c fe54 7a3e f572 913f 5d28 36bf
00000160: 4381 cb3c 2da7 273e 28ab c0be b43d eb3e
00000170: fa4c 8d3e eacd bfbe 367e 30bf 6369 073f
00000180: 268e b2be 1c0e e13e 857e 7d3d 630b 22be
00000190: 0e66 693d 3430 2bbd a7ef cdbd b7de 3b3f
000001a0: 95ea 0a3f 2d8f 67c0 6511 eabd b5f4 27bf
000001b0: 0ee3 9abe 8002 97bf aea1 fb3e e283 62bf
000001c0: 78ca 5abe beb3 5abe a657 273d d70f 093f
000001d0: daf5 a5be de0c bf3b 1781 51be a507 93be
000001e0: 6d6f 1fbe 4968 ff3d 4367 edbd a4f2 a53c
000001f0: b0b6 93be ad7d 723d ab26 983e 0512 193e
00000200: 51c0 0d3e 8228 d63e 39e5 2a3e 9cb8 043f
00000210: 0780 863d 2440 d33e 6630 fd3e 69e6 093e
00000220: ea07 b03e 1b2a c43e 344c f9bb e6bb 753e
00000230: 7f0b 3e3e 332c 8b3c ea90 323e f52c 3ebf
00000240: c53e 583e 30bc 34bf 6f48 883e 97d4 203e
00000250: fd0f 87bd 0926 9d3d bba0 3fbf e4e2 5cbf
00000260: 3d95 0ebf b659 263e fdb1 473e ba96 a03e
00000270: 1626 68be 74bb 4f3f 0868 1abe 881a c63e
00000280: 2a3a cabf 0e77 cfbe 53be 483e 4501 283e
00000290: 4b12 af3c 4c9b 05be 5e63 45bf 2b92 103f
000002a0: 5548 f53d 32aa 86bf 3ee9 15bc 741d 29be
000002b0: 028a a33e ce9b 373e 5f70 f63d 90aa 333f
000002c0: 1553 963d 6499 d4be 3e07 3b3e 6d59 933e
000002d0: 908d 943d 9043 663e 7c77 b4be e177 8ebe
000002e0: daee 5cbd 1d9f aebe 1481 ab3e 2af2 723e
000002f0: ad8d 263d 8f65 f93e b57d 4ebd 7f34 603c
00000300: 0230 35bd 143c 143e fb20 8b3e c8d4 a93e
00000310: 949e 943e cd54 633e c539 5dbe 3978 27be
00000320: ff75 2b3e 5ce1 873e 76aa e7bd d4fb ea3d
00000330: 7c0b 6d3e 2844 d83e b1dc 43bd 0a1e a63e
00000340: 4435 213f 6fd9 973d 4653 6fbf b487 d13e
00000350: eab4 6a3e 9720 da3d b25f 0e3f ee64 d5be
00000360: a7ca b33e 693f 88be 1aa9 6c3e 5e07 fb3e
00000370: a6d3 2ebe 68ee fd3e 8911 3b3f 1b36 b5bd
00000380: bc49 38be c9bb eebd 1681 ee3e 53df aabe
00000390: 0e48 6d3e dbf4 13bf 0fd3 113f 822b 163e
000003a0: aee9 9b3e a463 a23c 9e91 85be 52bf 58bf
000003b0: bb8b 17be 9f74 28bf 6e93 3ebf fb21 003f
000003c0: 1c88 c7be 3161 b23e 0109 c6be 53d2 a13e
000003d0: 0b8e b3be c946 0abf 4295 04bf eb19 c13e
000003e0: af49 9f3e 5f63 52bf 636d 663e bfef 1d3e
000003f0: a914 923e f0e4 91be c06a 383f 850d 77be
0.050418485 -0.42441028 -0.09128106 -0.3423347 -0.1893366 -0.44712156 0.26971063 0.13642411
-0.4298244 -0.37372372 -0.17993501 -0.014727505 -0.36982858 0.199761 -0.3886105 0.098412514
-0.32321307 0.6118959 0.47518006 -0.08891796 0.4819626 -0.10854248 1.2860413 0.18853469
-0.35171384 0.47517014 -0.64140546 -0.22577772 0.020742202 -0.5173226 -0.64928716 -0.049599823
-0.09819885 -0.010744026 -0.07478494 0.49757725 0.32608283 0.24828273 0.6746392 -0.31413865
0.041163843 0.046475295 0.057720415 0.21221663 0.23175825 -0.360683 0.3595241 -0.10216161
-0.2014777 -0.80916876 0.3971088 0.2983324 0.36085218 -0.0050505516 0.19299267 -0.69963765
-0.62568057 0.5415395 0.07420022 -1.1085343 0.6473227 -0.98742306 0.2577963 -0.2962494
0.31656918 0.26893833 0.4004259 0.33624938 0.13747348 0.45938686 0.35290855 0.21635717
-0.28259027 -0.25171763 0.14741984 0.5571107 0.11673561 0.5954761 0.12760012 0.17284381
0.25070366 0.45603755 -0.543305 -0.2791613 0.019644083 0.24446484 1.1363207 -0.7115534
0.02484191 0.16372366 -0.37630582 0.45945513 0.2759779 -0.37461787 -0.6894258 0.5289518
-0.34874076 0.43956077 0.061888237 -0.15824656 0.056982093 -0.041794017 -0.10055476 0.7338671
0.54264194 -3.6181138 -0.11429099 -0.6560777 -0.30251354 -1.1797638 0.4914679 -0.8848249
-0.21366298 -0.21357629 0.040855072 0.53539795 -0.32414132 0.0058303913 -0.204594 -0.2871677
-0.1556985 0.12471063 -0.11591961 0.020257302 -0.28850317 0.059201885 0.29717 0.1494828
0.13842894 0.4182778 0.16689004 0.5184419 0.06567388 0.41259873 0.49450988 0.13466801
0.34381038 0.38313374 -0.007607961 0.23997459 0.18559073 0.01698885 0.17438093 -0.7428735
0.21117695 -0.7059965 0.26617762 0.15706097 -0.065948464 0.0767327 -0.7485463 -0.8628371
-0.5569647 0.1624516 0.19501491 0.31364995 -0.22670779 0.81145406 -0.15078747 0.38692117
-1.5799 -0.4052052 0.19603853 0.16406734 0.021371027 -0.13047522 -0.7710475 0.56473035
0.11976687 -1.052069 -0.009149848 -0.16515142 0.3194123 0.17930529 0.12033152 0.7018213
0.073400654 -0.41523278 0.18264481 0.28779164 0.072535634 0.2248671 -0.3524741 -0.27825835
-0.053938724 -0.3410577 0.33496916 0.23725191 0.040662456 0.48710296 -0.050412852 0.013684391
-0.044235237 0.14476043 0.271736 0.33170152 0.29027236 0.22200318 -0.21604069 -0.16354455
0.1674423 0.26539123 -0.1131181 0.11473814 0.23148912 0.422395 -0.04781789 0.32444793
0.629719 0.07414519 -0.9348644 0.40923846 0.22920576 0.10650747 0.5561477 -0.41678566
0.3511555 -0.26610878 0.23111382 0.49029058 -0.17072925 0.49595952 0.7307363 -0.088482104
-0.17996877 -0.11656911 0.4658286 -0.33373508 0.23172018 -0.57795495 0.56962675 0.14665034
0.3045172 0.019822903 -0.2608766 -0.8466693 -0.14799397 -0.6580295 -0.7444371 0.5005185
-0.3897103 0.34839776 -0.38678744 0.31605777 -0.35069308 -0.5401426 -0.5179025 0.37715086
0.31110904 -0.8218288 0.22502665 0.15423487 0.28531387 -0.28494978 0.7203789 -0.24126251

head.0.bias f4 [16]
00000000: 79ca 2ebe 06b7 17bf 5f7d 323f a31b 8fbf
00000010: 7440 b73f b41f 10bd 0f71 d33e f28e 203f
00000020: 98b6 503f 9de5 b6bd 89fd bdbd 4848 aa3f
00000030: 4614 a33f 6da8 1ebf 6832 3c3e 4451 e53e
-0.17069425 -0.59263647 0.6972255 -1.1180309 1.4316545 -0.035186484 0.41297194 0.6271812
0.81528616 -0.08930514 -0.092768736 1.3303308 1.2740562 -0.6197575 0.18378603 0.44788563

head.2.weight f4 [5, 16]
00000000: d477 ecbe 9438 85be 3415 af3e 5ec1 c7be
00000010: e19f 903e 8e4e 933e 48b5 cf3e f182 f53d
00000020: bf7b 923e d6fa 41bc 3b7b 96be 42e7 dd3e
00000030: 0f3a b83e c06b e9be 8cf6 483f 28b8 1b3f
00000040: c4ed d0be a330 63be 7dff 5e3e 520b aabe
00000050: c623 c73e 8a94 7f3e cfa8 cd3e 2097 7b3e
00000060: 318d bb3e 0450 adbd 1da8 1ebe ae5b ba3e
00000070: 8a95 a23e 69cb b7be cd3c 473f c44c e73e
00000080: 1a60 543e e36e 5fbe 5ab2 b03e 23bc 99be
00000090: 3ad2 be3e 3537 7cbe 6058 b73e a566 edbd
000000a0: 128b f53e b610 023e e524 463d 4c03 cb3d
000000b0: 96a2 973e ceea 3bbe 9b2a 2b3f d78b 473d
000000c0: e83a b6be 7f57 10be e7d2 113d 8e00 34be
000000d0: 4f5c 023f 3a3d db3e fe0f 713e cf77 2d3e
000000e0: 98ce 403d e025 e2be 023a 47be 7481 103f
000000f0: 9355 da3e 9307 91be 9439 ca3e cdf3 253e
00000100: 7650 09bf 937f aabe 06e8 b83e 6ceb dfbe
00000110: b5e5 ae3e 81ef ad3e ffe2 d03e d84f a53e
00000120: d2d9 8a3e 1b7d 48bd 28a6 70be 3486 a73e
00000130: cafb ce3e a03f c6be 0d17 6b3f f60b 1e3f
-0.46185172 -0.26019728 0.34195864 -0.39014715 0.28246978 0.2877087 0.40567994 0.11987866
0.28610036 -0.011839589 -0.29390892 0.43340498 0.35981795 -0.4559002 0.785012 0.60827875
-0.408064 -0.22186522 0.21777149 -0.33211762 0.3889448 0.24959007 0.40167853 0.24569368
0.36631158 -0.084625274 -0.15493818 0.3639807 0.31754714 -0.35897377 0.7782715 0.45175755
0.20739785 -0.21819644 0.3451107 -0.3002635 0.37269765 -0.24630435 0.35809612 -0.115918435
0.47957665 0.12701687 0.04837503 0.09912738 0.2961623 -0.1835129 0.66861886 0.048717346
-0.35591817 -0.14095877 0.035601523 -0.17578337 0.509221 0.4282015 0.23541257 0.16940235
0.047072023 -0.4416952 -0.19455722 0.5644753 0.42643413 -0.2832609 0.39497054 0.16206284
-0.536384 -0.33300456 0.3611452 -0.437343 0.34159628 0.3397179 0.40798184 0.32287478
0.2711931 -0.048947435 -0.23500884 0.32719576 0.40426475 -0.38720417 0.9183205 0.61737

head.2.bias f4 [5]
00000000: 39a0 a63f 58c8 2d3f 4288 5f3f 54f1 a13f
00000010: 2847 1a3f
1.3017646 0.67883825 0.8731729 1.2651772 0.60264826

exp_avg f4 [20, 8]
00000000: 74af 3fba 67ee 4bba 918f 53ba 01d5 c83a
00000010: dabc a93a 85bb aa38 60b5 893a 4897 64ba
00000020: ed50 4bb8 e78a 0ab8 3c05 0cb9 0761 0d39
00000030: 1ffb 15b7 6add 8837 af43 4938 8bd6 c7b8
00000040: f6d3 4d38 677a 61b9 6bc8 e9b9 5354 213a
00000050: ef5b 8939 b0d8 d0b9 b8bd 8839 fba0 adb7
00000060: 1161 76b8 596a f2b8 06bd 8db9 c233 0539
00000070: 7214 db37 a9e0 ac39 2b27 1239 b2c0 8e38
00000080: e7be ca38 ef57 b6b7 90d9 1c38 ecad 3138
00000090: c1a8 fab7 9e47 8ab8 e315 6938 1f51 3e37
000000a0: b396 b9b8 bc44 8eb9 65e6 8637 a717 9339
000000b0: c56d 6039 f9e1 c638 aa8c 3d39 5b1d 9639
000000c0: c37d 95b8 27cb 72b8 bdc8 b3b7 d159 bb38
000000d0: 13f7 5e39 10f4 63b9 efd2 1439 9048 b137
000000e0: 0000 0000 0000 0000 0000 0000 0000 0000
000000f0: 0000 0000 0000 0000 0000 0000 0000 0000
00000100: 0000 0000 0000 0000 0000 0000 0000 0000
00000110: 0000 0000 0000 0000 0000 0000 0000 0000
00000120: 0000 0000 0000 0000 0000 0000 0000 0000
00000130: 0000 0000 0000 0000 0000 0000 0000 0000
00000140: 0000 0000 0000 0000 0000 0000 0000 0000
00000150: 0000 0000 0000 0000 0000 0000 0000 0000
00000160: 0000 0000 0000 0000 0000 0000 0000 0000
00000170: 0000 0000 0000 0000 0000 0000 0000 0000
00000180: 0000 0000 0000 0000 0000 0000 0000 0000
00000190: 0000 0000 0000 0000 0000 0000 0000 0000
000001a0: 022e c3b9 6b78 8538 229d 2239 18eb 1eb9
000001b0: 0e3f 32b9 553b 8e39 fa67 0ab8 d0ed 9d38
000001c0: 0000 0000 0000 0000 0000 0000 0000 0000
000001d0: 0000 0000 0000 0000 0000 0000 0000 0000
000001e0: 0000 0000 0000 0000 0000 0000 0000 0000
000001f0: 0000 0000 0000 0000 0000 0000 0000 0000
00000200: 0000 0000 0000 0000 0000 0000 0000 0000
00000210: 0000 0000 0000 0000 0000 0000 0000 0000
00000220: 0000 0000 0000 0000 0000 0000 0000 0000
00000230: 0000 0000 0000 0000 0000 0000 0000 0000
00000240: 0000 0000 0000 0000 0000 0000 0000 0000
00000250: 0000 0000 0000 0000 0000 0000 0000 0000
00000260: 0000 0000 0000 0000 0000 0000 0000 0000
00000270: 0000 0000 0000 0000 0000 0000 0000 0000
-0.00073122163 -0.000777936 -0.00080704043 0.0015322269 0.0012949959 8.14116e-05 0.0010506324 -0.00087200524
-4.847434e-05 -3.3031127e-05 -0.0001335339 0.00013482953 -8.939561e-06 1.6315567e-05 4.798517e-05 -9.529021e-05
4.9073213e-05 -0.0002150327 -0.00044590546 0.0006154228 0.00026199172 -0.00039834296 0.00026081293 -2.069817e-05
-5.874137e-05 -0.00011559268 -0.0002703445 0.0001270315 2.6116355e-05 0.0003297378 0.00013938236 6.80698e-05
9.667669e-05 -2.1737038e-05 3.739592e-05 4.2362066e-05 -2.9880905e-05 -6.5936925e-05 5.5571913e-05 1.134377e-05
-8.849557e-05 -0.00027135562 1.608133e-05 0.00028055647 0.00021403197 9.4834664e-05 0.00018076846 0.000286321
-7.1282986e-05 -5.7886497e-05 -2.1431939e-05 8.9335845e-05 0.00021263612 -0.00021739327 0.00014192959 2.1133834e-05
0.0 0.0 0.0 0.0 0.0 0.0 0.0 0.0
0.0 0.0 0.0 0.0 0.0 0.0 0.0 0.0
0.0 0.0 0.0 0.0 0.0 0.0 0.0 0.0
0.0 0.0 0.0 0.0 0.0 0.0 0.0 0.0
0.0 0.0 0.0 0.0 0.0 0.0 0.0 0.0
0.0 0.0 0.0 0.0 0.0 0.0 0.0 0.0
-0.00037227577 6.364364e-05 0.0001550806 -0.00015155633 -0.00016998893 0.00027128556 -3.29986e-05 7.5306394e-05
0.0 0.0 0.0 0.0 0.0 0.0 0.0 0.0
0.0 0.0 0.0 0.0 0.0 0.0 0.0 0.0
0.0 0.0 0.0 0.0 0.0 0.0 0.0 0.0
0.0 0.0 0.0 0.0 0.0 0.0 0.0 0.0
0.0 0.0 0.0 0.0 0.0 0.0 0.0 0.0
0.0 0.0 0.0 0.0 0.0 0.0 0.0 0.0

exp_avg_sq f4 [20, 8]
00000000: 32a5 3338 1995 6437 f2f8 8138 1fb1 9c38
00000010: 6086 be38 fb87 ea37 f47b b038 a8d3 3138
00000020: f587 f534 8988 ee34 04a4 5634 47b6 4934
00000030: c8a2 0f36 346e 2d36 1749 9135 0755 6235
00000040: 1c49 3236 3e5c 3c36 bc13 8736 6118 b837
00000050: c26c 9336 2585 f636 277e 5a36 d945 c935
00000060: 263f d535 2267 1536 0762 df36 fb6e 6e36
00000070: 91e7 d535 2fbb 0536 a4e8 4f36 2001 8a35
00000080: 7d9e 2336 2c83 1736 740d 0436 fcea 9e36
00000090: 3b1e 0c35 9e2e a335 b971 3e36 6afb 0c35
000000a0: 0557 4a36 dd3d f135 47b0 2037 b605 3c37
000000b0: 4fd4 6236 b949 8637 90be 9236 0a80 7236
000000c0: 8e7a 8335 a2ed 3535 0140 e836 dca5 6736
000000d0: 3362 1536 e291 2c36 0a95 4836 2160 e635
000000e0: 0000 0000 0000 0000 0000 0000 0000 0000
000000f0: 0000 0000 0000 0000 0000 0000 0000 0000
00000100: 0000 0000 0000 0000 0000 0000 0000 0000
00000110: 0000 0000 0000 0000 0000 0000 0000 0000
00000120: 0000 0000 0000 0000 0000 0000 0000 0000
00000130: 0000 0000 0000 0000 0000 0000 0000 0000
00000140: 0000 0000 0000 0000 0000 0000 0000 0000
00000150: 0000 0000 0000 0000 0000 0000 0000 0000
00000160: 0000 0000 0000 0000 0000 0000 0000 0000
00000170: 0000 0000 0000 0000 0000 0000 0000 0000
00000180: 0000 0000 0000 0000 0000 0000 0000 0000
00000190: 0000 0000 0000 0000 0000 0000 0000 0000
000001a0: 207b be35 e8bd 4635 42a5 c536 bf4c 0b37
000001b0: df56 3f35 cc0f d836 f240 b336 a4e0 fb34
000001c0: 0000 0000 0000 0000 0000 0000 0000 0000
000001d0: 0000 0000 0000 0000 0000 0000 0000 0000
000001e0: 0000 0000 0000 0000 0000 0000 0000 0000
000001f0: 0000 0000 0000 0000 0000 0000 0000 0000
00000200: 0000 0000 0000 0000 0000 0000 0000 0000
00000210: 0000 0000 0000 0000 0000 0000 0000 0000
00000220: 0000 0000 0000 0000 0000 0000 0000 0000
00000230: 0000 0000 0000 0000 0000 0000 0000 0000
00000240: 0000 0000 0000 0000 0000 0000 0000 0000
00000250: 0000 0000 0000 0000 0000 0000 0000 0000
00000260: 0000 0000 0000 0000 0000 0000 0000 0000
00000270: 0000 0000 0000 0000 0000 0000 0000 0000
4.2830776e-05 1.36245735e-05 6.197569e-05 7.471651e-05 9.084935e-05 2.7958295e-05 8.415422e-05 4.239721e-05
4.5733728e-07 4.4430297e-07 1.9989972e-07 1.8785896e-07 2.1403412e-06 2.5843156e-06 1.0824614e-06 8.431529e-07
2.6566622e-06 2.8067875e-06 4.025611e-06 2.1945862e-05 4.3936025e-06 7.3468714e-06 3.2557962e-06 1.4995995e-06
1.5888115e-06 2.2262761e-06 6.65733e-06 3.5529363e-06 1.5937131e-06 1.99275e-06 3.0980818e-06 1.0282129e-06
2.4381145e-06 2.2577105e-06 1.9677364e-06 4.7361227e-06 5.2198055e-07 1.2158014e-06 2.8378402e-06 5.251992e-07
3.0150998e-06 1.7973904e-06 9.577786e-06 1.1207003e-05 3.3800204e-06 1.6008375e-05 4.3733235e-06 3.6135339e-06
9.795929e-07 6.7773556e-07 6.92159e-06 3.4518225e-06 2.225989e-06 2.5714912e-06 2.9889075e-06 1.7164313e-06
0.0 0.0 0.0 0.0 0.0 0.0 0.0 0.0
0.0 0.0 0.0 0.0 0.0 0.0 0.0 0.0
0.0 0.0 0.0 0.0 0.0 0.0 0.0 0.0
0.0 0.0 0.0 0.0 0.0 0.0 0.0 0.0
0.0 0.0 0.0 0.0 0.0 0.0 0.0 0.0
0.0 0.0 0.0 0.0 0.0 0.0 0.0 0.0
1.4191937e-06 7.40371e-07 5.890296e-06 8.3029145e-06 7.127946e-07 6.4391406e-06 5.3421763e-06 4.691584e-07
0.0 0.0 0.0 0.0 0.0 0.0 0.0 0.0
0.0 0.0 0.0 0.0 0.0 0.0 0.0 0.0
0.0 0.0 0.0 0.0 0.0 0.0 0.0 0.0
0.0 0.0 0.0 0.0 0.0 0.0 0.0 0.0
0.0 0.0 0.0 0.0 0.0 0.0 0.0 0.0
0.0 0.0 0.0 0.0 0.0 0.0 0.0 0.0

exp_avg f4 [8, 8, 2, 2]
00000000: af7a c7b8 1fb5 99b9 9be5 c4b8 0b35 1339
00000010: 8f30 27b9 e31a d8b8 f387 29ba c5a0 b5b9
00000020: a649 13ba 2bf8 88b9 c02b 83b9 38a8 d1b8
00000030: dba6 5438 8a35 a739 ac60 ec39 2def 8839
00000040: bba2 5cb6 62cc 5738 c747 4a38 b6ad 6838
00000050: b355 0839 50f7 1638 1227 4c39 9436 20b8
00000060: a62d 4839 aa68 f339 e883 6a39 9cc8 a539
00000070: b627 2038 fb54 87b9 f598 1e39 3e0b dbb8
00000080: 3b15 15ba 27ae 24ba 5c5e 9fb9 54d3 9538
00000090: 5288 80b9 758d 9db9 9ac0 80b7 2f96 55b9
000000a0: 19f2 7bba 8439 83ba b81a ffb9 b50d d4b9
000000b0: e4c1 7839 a6bf 253a 0901 9f3a 0528 853a
000000c0: be70 e438 8e74 d739 73eb 663a 9c18 0d3a
000000d0: 26e0 b1b9 31a9 5c39 7a21 7cb9 92f2 67b9
000000e0: 998d 463a 6927 b83a 3557 af38 d2f6 aa39
000000f0: d308 a0b9 cd9a d2b9 0e42 ee37 c9fb d4b8
00000100: 23e7 48b9 dda0 d5b9 6879 3fb9 bb65 f238
00000110: aa94 a3b8 7e7c fbb8 caa7 09b9 8e4b 4b37
00000120: 3650 edb9 3a5b a6b9 4f9c 45b9 f7ab 86b9
00000130: a454 22b8 739f 043a 3764 2d3a 5c03 8d39
00000140: 35d1 3439 ea3d 9339 2c6a b939 4d9c 3d39
00000150: cddb 76b9 00cc 1a39 75dd abb8 98cb cfb8
00000160: 6fe1 be39 d8b1 713a 4935 b337 e06e cc39
00000170: 0e8b f3b7 1c2d bcb9 ded7 2338 1bc1 4fb9
00000180: 9a1c 7bb8 7f82 71b8 f95d 48b7 31f9 96b7
00000190: 8198 ba36 f6cb cab7 c1c0 9fb8 04b2 7db6
000001a0: d00f 08b7 383c 8ab8 1a64 38b9 0753 40b7
000001b0: 8f43 da36 d5ef 8c38 0085 ef38 1992 ff38
000001c0: 86af ab37 26b2 ab37 bc1b 48b9 a0ee 7d38
000001d0: 13cd d9b8 8fc9 b337 214a c338 5aee c2b7
000001e0: 8981 7838 7e34 e538 907c 21b9 f6ac 0ab8
000001f0: 962f 4cb8 646b 45b8 3c7b 1eb8 be13 d837
00000200: 6267 17b9 b9bb 8238 af20 17b8 9a88 58b9
00000210: 42b5 3238 8de9 72b7 219e 8739 6e45 6f38
00000220: db03 3939 5d5f 0ab9 cd6d 00b9 c102 65b8
00000230: ca6e 8438 477f 1fb9 7289 82b8 8f45 6339
00000240: e707 c0b8 36b2 c7b7 8255 0a39 1854 4e39
00000250: a63e 8eb9 6e8b 82b8 5fc4 11b8 75f1 28b4
00000260: 6927 06b8 5542 08b9 d700 5036 d9c3 68b9
00000270: 43a7 48b9 0bf5 f438 8295 18b8 f8d3 1039
00000280: 1e8b af39 12ca 8239 651a 52ba 6e20 27b9
00000290: 5ac0 b938 941c 6d37 607f 1d3a 27a6 44b9
000002a0: 9ab5 cd38 948f 3b38 15f1 9eb8 86a0 f538
000002b0: 2940 09ba 50c8 14b9 63e7 6439 f9f9 86b8
000002c0: 00c7 f7b8 00c4 17b6 57a3 0f3a 3a32 16b9
000002d0: a67b 5fb9 20ed 8439 2cdc ee38 05b2 5039
000002e0: 648e 2dba c114 6db9 5781 1dba ddb6 90b8
000002f0: 00ac c239 cf15 7839 c5c1 083a c96e 8239
00000300: 735b ccb8 6204 7638 81f8 a0b9 567e 1838
00000310: 5483 f3b7 bf4b cbb8 dd30 1d39 0b03 36b8
00000320: 206b 0cb8 1fe8 a3b9 8996 75b7 8e3c 51b7
00000330: 9f1f 8e38 4fec 29b8 c78c 8239 1702 1239
00000340: 19ba 14b9 18d9 bdb8 ecce cd39 d7fa c038
00000350: c60e b2b8 1ffe 3a39 8a74 0cb7 5988 38b8
00000360: 3871 8eb8 44b5 cbb8 cdcc e7b7 27f3 49b9
00000370: 1686 e3b8 cb5a 0039 ce62 7039 8a5a a638
00000380: 3607 ae37 c499 8cb7 ae33 10b9 88f4 79b9
00000390: 4d9b 3db8 fe03 e6b5 60d3 5638 d26f 36b9
000003a0: e153 73b8 7150 7c38 2fed 4137 007e 9638
000003b0: 5406 5838 f3fa ff37 05d5 54b6 f6ae 1139
000003c0: cf0f 0cb9 85b2 01b9 7a84 c937 45de 5ab7
000003d0: 40cb 0e39 007f b3b7 ad73 8837 5e0a bf38
000003e0: df2a ffb8 b4c9 07b9 cd0f 2138 3d17 cb38
000003f0: c771 7636 9816 53b8 ed8a 95b7 65fd 9338
-9.511911e-05 -0.0002931738 -9.388776e-05 0.00014038772 -0.0001594445 -0.00010304691 -0.00064670964 -0.00034642793
-0.00056185795 -0.0002612484 -0.00025018863 -9.99723e-05 5.0700135e-05 0.00031892612 0.00045085454 0.0002611814
-3.2877276e-06 5.145034e-05 4.82274e-05 5.547489e-05 0.00013001896 3.5993115e-05 0.00019469511 -3.8197802e-05
0.00019090492 0.00046426553 0.00022365118 0.00031620718 3.8183956e-05 -0.00025812522 0.00015125035 -0.00010444828
-0.00056870625 -0.0006282054 -0.00030397146 7.1442366e-05 -0.0002451563 -0.00030050767 -1.5348476e-05 -0.0002036921
-0.00096109655 -0.0010011648 -0.00048657297 -0.00040446004 0.00023723353 0.00063228083 0.0012131046 0.0010159021
0.00010892887 0.00041094836 0.00088088884 0.000538239 -0.00033927074 0.00021043864 -0.00024045064 -0.00022120241
0.00075742 0.0014049831 8.360894e-05 0.00032608822 -0.00030524153 -0.00040169657 2.840257e-05 -0.000101558464
-0.00019159591 -0.00040746378 -0.00018260407 0.00011558408 -7.8001365e-05 -0.00011991801 -0.00013127844 1.2117334e-05
-0.00045263924 -0.00031729956 -0.00018845614 -0.00025686595 -3.8702638e-05 0.000505916 0.00066143594 0.0002689612
0.00017244073 0.00028084154 0.00035365054 0.00018082671 -0.0002354227 0.0001476258 -8.195165e-05 -9.9084515e-05
0.00036407585 0.0009219921 2.1363276e-05 0.0003899252 -2.903261e-05 -0.00035891763 3.906327e-05 -0.00019812996
-5.98697e-05 -5.758041e-05 -1.1942809e-05 -1.7997432e-05 5.5609858e-06 -2.4175253e-05 -7.617614e-05 -3.7803557e-06
-8.109913e-06 -6.5915694e-05 -0.00017584898 -1.1463423e-05 6.504771e-06 6.7203924e-05 0.00011421181 0.0001218656
2.0466523e-05 2.0467745e-05 -0.00019083818 6.0542137e-05 -0.000103855644 2.143232e-05 9.312132e-05 -2.3237593e-05
5.9248447e-05 0.00010929348 -0.0001540056 -3.3062846e-05 -4.8681708e-05 -4.7068475e-05 -3.7784906e-05 2.57584e-05
-0.00014438995 6.233849e-05 -3.6031644e-05 -0.00020650253 4.2607317e-05 -1.4478702e-05 0.00025867022 5.7046702e-05
0.00017644411 -0.00013196231 -0.00012247935 -5.460042e-05 6.3148866e-05 -0.00015210836 -6.224484e-05 0.0002167432
-9.156745e-05 -2.3805635e-05 0.0001319256 0.00019677018 -0.00027131027 -6.224854e-05 -3.475358e-05 -1.5734061e-07
-3.1984793e-05 -0.00012994681 3.0994904e-06 -0.00022198203 -0.00019135796 0.000116804695 -3.6378864e-05 0.00013811875
0.00033482251 0.00024946086 -0.00080147973 -0.00015938442 8.857316e-05 1.4132955e-05 0.0006008055 -0.00018753913
9.808988e-05 4.4717992e-05 -7.578932e-05 0.0001171241 -0.0005235696 -0.00014189002 0.00021829973 -6.436179e-05
-0.000118149444 -2.261484e-06 0.00054793566 -0.00014323826 -0.00021313 0.00025353674 0.000113897346 0.00019902743
-0.0006620644 -0.00022609813 -0.0006008348 -6.900516e-05 0.00037130713 0.00023659247 0.0005216862 0.00024878074
-9.744512e-05 5.8655052e-05 -0.00030702728 3.6357284e-05 -2.9029012e-05 -9.693903e-05 0.0001499089 -4.3395015e-05
-3.347837e-05 -0.00031262726 -1.4638187e-05 -1.247147e-05 6.7769775e-05 -4.051282e-05 0.0002490042 0.00013924424
-0.00014183707 -9.052659e-05 0.00039254816 9.201996e-05 -8.490453e-05 0.0001783301 -8.371784e-06 -4.3996002e-05
-6.792176e-05 -9.713558e-05 -2.7632714e-05 -0.00019259435 -0.00010849179 0.00012240854 0.00022924991 7.932361e-05
2.0745774e-05 -1.6760903e-05 -0.00013752162 -0.00023837585 -4.5205747e-05 -1.7137497e-06 5.1218434e-05 -0.00017398529
-5.8013833e-05 6.01564e-05 1.155892e-05 7.176027e-05 5.1504307e-05 3.0515226e-05 -3.1714455e-06 0.00013893456
-0.0001335733 -0.00012368902 2.4022756e-05 -1.3045564e-05 0.00013617892 -2.1397602e-05 1.626633e-05 9.109521e-05
-0.00012167333 -0.00012949744 3.8400107e-05 9.684123e-05 3.6723084e-06 -5.0327362e-05 -1.7826877e-05 7.0567046e-05

exp_avg_sq f4 [8, 8, 2, 2]
00000000: fddd 8b35 c490 6336 b183 4636 d9d1 3936
00000010: 09a5 ae35 acab 0935 aff1 5337 a5dc 1c37
00000020: 2636 6937 56e7 9836 dd5e 7b36 7f48 8c35
00000030: 9d38 cb35 255f 8336 fa0b 6336 8fc6 e836
00000040: 2cba 2436 eae9 a635 1e9e b535 a91c 0136
00000050: a0a2 4836 40de f934 8c13 8b35 569a b034
00000060: 9be0 ce36 2e7d 5b37 32c8 f036 0449 e136
00000070: 882f 4835 b44b 2036 e7ea ff35 1236 f335
00000080: 3c3c ec37 416a 2338 e8a0 2c38 e931 2837
00000090: a200 b936 6136 b536 ecfc 8738 b9a5 4038
000000a0: 5a10 9a38 2f3c 7338 b42a b437 f475 dd37
000000b0: dcb6 b137 508a 1738 cf07 5c38 0225 4738
000000c0: ac18 c937 ddc2 8d37 cf4f b637 db15 2237
000000d0: 54c4 1337 ffdc f236 692b 9736 490c ed36
000000e0: 534b 1939 cc92 2939 f128 c438 bbcf 9838
000000f0: bde5 4b37 3798 ba37 4ad4 d537 3c2c e137
00000100: 08dd 3837 28b1 8137 5ca7 f137 93cf bb36
00000110: c712 1e36 4ae0 f935 6d7a 6438 691a db37
00000120: c3b7 dc37 32e9 9937 900b 1237 a7d7 8337
00000130: 88f4 2737 907c 8537 40a9 6137 d201 8c37
00000140: 247c 1837 557b ef36 fec2 2f37 a63d 9c36
00000150: 79dc b136 2158 5336 fd0e 2f36 15d9 7636
00000160: 9a4b 6538 6e6f 8638 7fad 5d38 26f7 1138
00000170: 92c1 c336 bd19 3037 b379 7637 fba0 3037
00000180: 69d1 3e35 312f 7e35 7377 ef34 adc7 5535
00000190: 6980 5934 c639 a433 859f db34 69eb 2636
000001a0: e08e f335 86ac 2b35 4fe2 0736 b242 d033
000001b0: 2381 7e35 5dd2 8a35 a589 8235 4ff6 fb35
000001c0: b7d2 1835 1642 b034 ad0d 3035 ddb8 f034
000001d0: 6179 5c35 3298 aa34 05e0 1535 4de5 1535
000001e0: b9d1 4c36 7db8 7136 124b cc35 296c 2d35
000001f0: c474 1135 df4d 3835 2833 5435 721a c035
00000200: 609a 1f36 3be6 f135 da5e 4936 d0b0 9736
00000210: 2724 da34 5ded 1635 6ccf 2e36 da99 7137
00000220: eb7a 9836 5272 c636 9259 7c35 6f67 5735
00000230: 6c47 2736 c2e6 0436 41cf 4636 936c 1a36
00000240: 4538 3736 c823 ba35 d04a be35 22d6 9a35
00000250: dffe f235 a83e a635 a994 ac35 6e7d 7335
00000260: 7ec2 2b37 0127 0537 5a0d bf36 9f84 b536
00000270: b0c9 1f36 18b7 c335 0f2c 8b36 7697 3036
00000280: 7b16 2936 d648 3436 e0bd c035 ae1a 6336
00000290: 3a16 6634 6f42 3634 c17a e535 427a a835
000002a0: 1b40 7236 245d 4f36 d244 4236 eff4 7536
000002b0: ae50 f835 2a86 0936 7484 7636 5359 4635
000002c0: 6dc3 e435 d0fa f435 c7b9 1236 1565 9535
000002d0: 7886 2d36 382b 1636 5dd9 4e35 656e ec35
000002e0: 753d 2637 a3eb 3c37 1ac7 ae36 1b97 7e36
000002f0: aba9 bd35 75ce cd35 d88f ef35 52aa a636
00000300: f685 3436 f6f6 6736 7dcf 2836 4f9d 8436
00000310: 99e6 c035 c144 8635 feb8 4336 86de 1737
00000320: 0ed5 7a37 8ca9 3137 1daf 4036 5964 8a35
00000330: fe93 5936 4222 8636 0e34 d336 7708 d536
00000340: 6e4d 8136 532a 2336 63b1 2b36 d1fb bd35
00000350: b067 2a36 9abb ac35 8fe7 8035 8aab 0336
00000360: ddd5 8337 61db 9537 3dba 2837 29e0 f636
00000370: 3a18 db35 afc9 0236 8bfe 8636 b364 d036
00000380: bfc2 9035 b513 3435 fbb7 fe35 71fe 8935
00000390: 4526 0734 8d49 f434 5ea6 2336 9d67 6b36
000003a0: cc6f 8635 7ded 7436 46e1 6235 1617 3836
000003b0: 594e f635 3785 d835 5564 eb35 694a d435
000003c0: c0f1 2e35 c167 6f35 aaae 5135 374b bb35
000003d0: b88c 9c35 b2ab 0936 e03e 8035 b57d b035
000003e0: 0f67 8836 2c09 5236 f58c 2736 fd6d f235
000003f0: 3277 a235 3ad0 5f35 fb23 1236 6d63 c835
1.0420914e-06 3.39099e-06 2.9580954e-06 2.7689296e-06 1.3012042e-06 5.128629e-07 1.2632851e-05 9.349697e-06
1.390049e-05 4.556884e-06 3.7457132e-06 1.0451912e-06 1.5141155e-06 3.9151805e-06 3.3832607e-06 6.937254e-06
2.454627e-06 1.2436042e-06 1.3531569e-06 1.923918e-06 2.9896983e-06 4.6541572e-07 1.0361996e-06 3.289485e-07
6.165426e-06 1.3082563e-05 7.175863e-06 6.7140227e-06 7.4574973e-07 2.3885923e-06 1.9067346e-06 1.8120647e-06
2.8161441e-05 3.8961185e-05 4.115785e-05 1.0025201e-05 5.5135033e-06 5.400551e-06 6.484412e-05 4.593071e-05
7.346338e-05 5.7991765e-05 2.1477557e-05 2.640018e-05 2.1185195e-05 3.613002e-05 5.245936e-05 4.7479763e-05
2.3972556e-05 1.689925e-05 2.1733254e-05 9.661041e-06 8.807594e-06 7.2378893e-06 4.5052043e-06 7.0645806e-06
0.00014619277 0.00016171782 9.353634e-05 7.2866176e-05 1.2153233e-05 2.2243808e-05 2.5490433e-05 2.6842688e-05
1.10187175e-05 1.5460493e-05 2.8807372e-05 5.597199e-06 2.3554765e-06 1.8617222e-06 5.4473454e-05 2.6119133e-05
2.6311614e-05 1.8347611e-05 8.70497e-06 1.5716838e-05 1.001091e-05 1.591284e-05 1.3450452e-05 1.6690148e-05
9.08881e-06 7.137113e-06 1.0476213e-05 4.656339e-06 5.3006775e-06 3.1492748e-06 2.6085756e-06 3.6783215e-06
5.4668264e-05 6.410373e-05 5.2852087e-05 3.480087e-05 5.8339874e-06 1.049641e-05 1.4691078e-05 1.0527899e-05
7.108525e-07 9.4691046e-07 4.460413e-07 7.963925e-07 2.0256415e-07 7.647354e-08 4.0907995e-07 2.4872954e-06
1.8146493e-06 6.395352e-07 2.0248297e-06 9.6978866e-08 9.481029e-07 1.0343025e-06 9.725815e-07 1.8772643e-06
5.6931043e-07 3.2830638e-07 6.558501e-07 4.483799e-07 8.2133016e-07 3.1775704e-07 5.5832817e-07 5.58405e-07
3.0520443e-06 3.6019185e-06 1.5221033e-06 6.4604916e-07 5.4186626e-07 6.865866e-07 7.9050596e-07 1.4312811e-06
2.3782704e-06 1.8022905e-06 3.0006545e-06 4.5207344e-06 4.0631969e-07 5.6224764e-07 2.6048756e-06 1.4400541e-05
4.5442625e-06 5.9141685e-06 9.400766e-07 8.0244257e-07 2.4926512e-06 1.9803852e-06 2.9624937e-06 2.3010987e-06
2.7301878e-06 1.3868494e-06 1.4177876e-06 1.1536215e-06 1.8104582e-06 1.2386199e-06 1.2858264e-06 9.070708e-07
1.0237678e-05 7.936499e-06 5.693798e-06 5.4096595e-06 2.3810244e-06 1.458192e-06 4.147652e-06 2.6314206e-06
2.5196048e-06 2.6864486e-06 1.4360376e-06 3.3841166e-06 2.1428505e-07 1.6974239e-07 1.7097556e-06 1.2552557e-06
3.6098124e-06 3.0899619e-06 2.8948311e-06 3.6650415e-06 1.8500921e-06 2.0492685e-06 3.6733954e-06 7.389073e-07
1.70442e-06 1.8252413e-06 2.1863832e-06 1.1130784e-06 2.585728e-06 2.2376898e-06 7.7057285e-07 1.7615499e-06
9.90868e-06 1.1260537e-05 5.2087826e-06 3.7936904e-06 1.4130977e-06 1.5333777e-06 1.7848752e-06 4.9670134e-06
2.6900066e-06 3.4565433e-06 2.5154725e-06 3.9522197e-06 1.4372227e-06 1.0003788e-06 2.9164944e-06 9.052112e-06
1.4950767e-05 1.0589498e-05 2.8712159e-06 1.0311006e-06 3.2421663e-06 3.9974993e-06 6.29435e-06 6.34888e-06
3.8535136e-06 2.4313529e-06 2.5584238e-06 1.4154886e-06 2.5392328e-06 1.2869598e-06 9.604136e-07 1.962037e-06
1.5716005e-05 1.786434e-05 1.0056942e-05 7.357467e-06 1.6323822e-06 1.9488905e-06 4.023144e-06 6.210606e-06
1.0785515e-06 6.7083903e-07 1.897802e-06 1.0281348e-06 1.2586777e-07 4.5502057e-07 2.4385731e-06 3.507804e-06
1.0016315e-06 3.649707e-06 8.4519377e-07 2.7431574e-06 1.835123e-06 1.6132025e-06 1.7538065e-06 1.5816887e-06
6.5171844e-07 8.918542e-07 7.8112737e-07 1.3954476e-06 1.166386e-06 2.051453e-06 9.555042e-07 1.3149607e-06
4.0651134e-06 3.1297777e-06 2.4966987e-06 1.8062416e-06 1.2104631e-06 8.3376983e-07 2.1776639e-06 1.4930098e-06

exp_avg f4 [8]
00000000: 7a7d ce39 c090 993a bbcf 0f3a bf5a b338
00000010: aa5f 4838 641c 98b9 f4ad a738 253a 62b8
0.0003938487 0.0011716112 0.00054859713 8.552288e-05 4.777281e-05 -0.00029012852 7.995582e-05 -5.393675e-05

exp_avg_sq f4 [8]
00000000: 4b82 0037 432a df38 c3dc 1638 37b7 fe35
00000010: 1b68 ab36 852e 0937 77a2 4137 fea3 cd35
7.659731e-06 0.000106413405 3.5968387e-05 1.8977797e-06 5.1083166e-06 8.1766675e-06 1.1541523e-05 1.5321418e-06

exp_avg f4 [16, 16]
00000000: 0400 0000 0400 0000 0400 0000 0400 0000
00000010: 0400 0000 0400 0000 0400 0000 0400 0000
00000020: 0400 0000 0400 0000 0400 0000 0400 0000
00000030: 0400 0000 0400 0000 0400 0000 0400 0000
00000040: 55db 42b9 9e20 c5b9 23cf 89ba 275b b2ba
00000050: 767b 4dba f3da c3b9 9ee5 4bb9 42b8 35b9
00000060: 5538 89b9 a1c2 cdb9 535b 5fb9 b9d2 48b9
00000070: 79ca b7b9 e7b5 dbb9 c789 ebb9 2e56 28ba
00000080: d8dc 80b9 f0cc ee39 e84d a33a 0628 913a
00000090: 0682 4e3a 5eda 483a f041 2239 a82e 2839
000000a0: bddb 4e39 8b2c e139 b6d2 b139 41eb 4bb7
000000b0: 589a 1eb9 2e0e 9639 658e 373a 059e 583a
000000c0: 5067 b239 7b6b 8fb9 3a83 e1b9 ea74 8ab9
000000d0: fb67 83b9 1ba8 62ba bfbd ce38 e125 a0b6
000000e0: a7dc aa37 0dfb 11b9 dfc4 15b9 09cd a139
000000f0: 511b fe39 85c1 5139 0578 f5b9 4577 c1b9
00000100: d1e8 51b9 7197 243a 632a be3a a219 c63a
00000110: f940 a23a 5ba4 813a c3f7 9e38 628c b939
00000120: b44a 3939 296b 123a 08bb e939 774d 3d39
00000130: 88f7 bab8 4e93 223a 2db2 773a 93a8 653a
00000140: 454b e1b9 1fe4 4839 994a 23b9 585f 04ba
00000150: d5c7 36b9 0492 1639 73d8 5bb9 cb0c 1337
00000160: 4740 8fb9 8aff 8c37 f00d 33b9 6244 67b9
00000170: 0507 13b9 c096 cab8 061d 4c38 cc3e cf38
00000180: d0cf d1b6 2862 3031 b505 a3b8 f6b2 7b36
00000190: 1a21 1e37 1e2c 2738 1cbd b737 a42a 8db0
000001a0: 1d12 7435 259a d030 94ed 6238 bf22 80b7
000001b0: f7b8 83b7 0400 0000 ff57 45b7 7b05 2b36
000001c0: b106 36b9 0a37 9139 6675 173a 8786 8a39
000001d0: a5d4 a039 1067 093a 4288 51b9 442c 0638
000001e0: 949a b5b8 a758 8a39 6c3b 29b8 3932 04b9
000001f0: 4b08 21b9 5de4 1139 0b5e 063a cc76 2c3a
00000200: 2e06 6bb9 a42e b539 2ec9 993a 8b37 903a
00000210: 1753 343a 26f6 393a e959 a839 ce93 2a39
00000220: 3d2f 9839 5d86 ce39 0ca7 e539 816e 7538
00000230: 36e1 d7b8 1d8a 9a39 9eb2 203a 9d38 2b3a
00000240: e565 fa37 ce1d 2bb9 0aba 8bb9 c7ca 8eb9
00000250: e5d2 d3b9 79f0 8fb9 f7a6 fd38 5465 45b8
00000260: 561b 9d38 1452 2eb8 1574 04b9 c31f 80b9
00000270: 3055 0639 295a fdb8 bf9c 18b9 b763 29b8
00000280: fcd2 f3b8 67c7 d2b9 14b1 07ba 8cd7 53ba
00000290: edd0 21ba febd 8cb9 f229 5938 15ef e0b8
000002a0: 30a5 1db7 20fc 64b9 bf88 3237 7268 99b8
000002b0: 0689 68b9 549a 83b9 ef28 82b9 5c83 c4b9
000002c0: ca64 cfb8 d4d1 643a b635 ad3a 3b16 ea3a
000002d0: 3d38 ac3a 8a86 8d3a 3935 0bb9 56c2 b339
000002e0: d9cb b938 c46c 133a 0d74 da39 2d43 d238
000002f0: 204b 5739 83fb fa39 ae6c 513a d333 813a
00000300: 9102 67b9 a168 383a 952d c53a 5ad5 ca3a
00000310: 88dd a33a c8e2 873a 231c b336 51b3 a939
00000320: 831d 1739 4390 173a 220a d439 6a65 d538
00000330: bc34 b6b8 9552 103a 0087 7b3a 243b 843a
00000340: a799 7439 d423 50ba 53fe e4ba c713 eaba
00000350: ffc0 91ba d9f9 abba fab2 10b8 1052 38b9
00000360: 502f 93b9 d124 f2b9 cee8 f8b9 ac49 9db8
00000370: c4f0 7bb9 9180 a8b9 467f 81ba 7abb 91ba
00000380: f6ac 9e37 4a64 52b7 3981 6739 ce2f 5539
00000390: 2ace fd37 dbcc 0cb9 16b3 d338 0653 3c39
000003a0: 8a1b 1338 647d 0339 70aa 7c38 8d9d 0039
000003b0: 5294 dd38 2db2 4a39 a11f f6b7 cc67 4538
000003c0: 223a 27ba 9265 343a e730 3938 54b1 d1b9
000003d0: a33a de38 3fb8 4e39 4159 c0b9 e6ce 5b39
000003e0: 6b37 f3b9 74fb 6339 7cbb 81b9 1d90 7eb9
000003f0: 5adc 0db9 5e1c 0cb8 07e1 5f39 cd13 5139
6e-45 6e-45 6e-45 6e-45 6e-45 6e-45 6e-45 6e-45
6e-45 6e-45 6e-45 6e-45 6e-45 6e-45 6e-45 6e-45
-0.0001858299 -0.0003759907 -0.0010514002 -0.0013607488 -0.00078385265 -0.00037356428 -0.00019445128 -0.00017330147
-0.00026172647 -0.00039245657 -0.00021300958 -0.00019151987 -0.00035055334 -0.00041906463 -0.00044925345 -0.0006421533
-0.00024578604 0.00045547588 0.0012459131 0.001107455 0.00078776514 0.0007661934 0.00015474088 0.0001603911
0.0001972755 0.0004294853 0.00033917063 -1.2154517e-05 -0.00015125552 0.00028620794 0.00070021144 0.0008263293
0.0003402778 -0.00027355165 -0.00043013116 -0.0002640852 -0.0002506374 -0.00086462655 9.8581884e-05 -4.7727813e-06
2.0368328e-05 -0.00013921801 -0.00014283088 0.00030861076 0.00048467008 0.00020003885 -0.00046819463 -0.0003690069
-0.00020018524 0.000627867 0.0014508482 0.001511384 0.0012378983 0.0009890901 7.580176e-05 0.00035390543
0.00017670804 0.0005585426 0.00044580572 0.00018053302 -8.9152774e-05 0.00062017597 0.00094488525 0.0008760776
-0.00042971424 0.00019158468 -0.00015572681 -0.0005049608 -0.00017431316 0.0001435951 -0.00020966101 8.764861e-06
-0.00027322976 1.6808295e-05 -0.00017075962 -0.00022055351 -0.00014021627 -9.66019e-05 4.866442e-05 9.882226e-05
-6.252878e-06 2.5667166e-09 -7.773509e-05 3.7506084e-06 9.425241e-06 3.985699e-05 2.190336e-05 -1.0271219e-09
9.092344e-07 1.5177802e-09 5.410386e-05 -1.5274969e-05 -1.5702548e-05 6e-45 -1.1762603e-05 2.5484176e-06
-0.00017359365 0.00027697562 0.00057776866 0.00026421642 0.0003067601 0.0005241493 -0.00019982553 3.1989315e-05
-8.659545e-05 0.00026387462 -4.034808e-05 -0.0001260721 -0.00015357246 0.0001391335 0.0005125708 0.00065789814
-0.00022413649 0.0003455776 0.001173293 0.0011002881 0.00068788364 0.0007093869 0.00032110445 0.00016267525
0.00029026894 0.0003939149 0.00043802743 5.8515467e-05 -0.00010293948 0.0002947607 0.00061301317 0.00065315684
2.984977e-05 -0.00016318934 -0.00026650756 -0.00027235431 -0.00040402185 -0.00027454252 0.0001209508 -4.706283e-05
7.491435e-05 -4.1561274e-05 -0.00012631745 -0.00024437727 0.0001281097 -0.00012080774 -0.00014554242 -4.0385607e-05
-0.00011626442 -0.00040202888 -0.0005176228 -0.000808113 -0.0006172795 -0.00026844436 5.1775896e-05 -0.00010725685
-9.39639e-06 -0.00021837698 1.0641465e-05 -7.315063e-05 -0.0002217629 -0.0002510125 -0.0002482603 -0.00037481904
-9.8893026e-05 0.00087287766 0.001321486 0.0017859408 0.0013139319 0.0010797542 -0.000132759 0.00034286332
8.859457e-05 0.00056238123 0.00041666665 0.00010026093 0.00020531984 0.00047871107 0.0007988912 0.0009857364
-0.00022030833 0.0007034634 0.0015043492 0.0015474961 0.0012501935 0.0010367269 5.3378913e-06 0.00032367793
0.00014411476 0.00057816895 0.0004044334 0.00010175521 -8.688259e-05 0.000550547 0.00095950067 0.0010088426
0.00023326893 -0.0007939909 -0.0017470814 -0.0017858677 -0.0011120139 -0.0013120725 -3.449896e-05 -0.00017578178
-0.00028073275 -0.00046185267 -0.000474757 -7.500066e-05 -0.00024026918 -0.00032139246 -0.0009879849 -0.0011118494
1.8915609e-05 -1.2540326e-05 0.00022078016 0.00020331072 3.0255953e-05 -0.00013427755 0.000100946214 0.00017960006
3.507318e-05 0.00012539845 6.0240214e-05 0.00012265723 0.00010565728 0.00019330597 -2.9340214e-05 4.706513e-05
-0.0006379207 0.000688159 4.415298e-05 -0.00039995706 0.00010596707 0.00019714328 -0.00036687593 0.00020962543
-0.0004638986 0.0002174208 -0.00024744484 -0.00024277014 -0.00013528895 -3.340502e-05 0.00021350766 0.0001993917
