saved_models_zach/easyNpyMini/easyNpySmallMini_2__mode_embed_bl__seed_1_2020-07-17_12:20:42.014316.pth (torch_old, 63200 bytes, 8 tensors)

weight f4 [16, 8]
000000 ba 46 c3 bf 31 0f 40 bf 4b 6b 27 bf 99 03 ce bf
       -1.5255959 -0.7502318 -0.6539809 -1.6094848
000010 73 24 cd bd ce f3 1b bf 5b d2 7a bf de f6 cd bf
       -0.10016718 -0.6091889 -0.97977227 -1.6090963
000020 1c 4f 36 bf 73 81 9b 3e 12 fe 46 bf be be 80 be
       -0.7121446 0.303722 -0.7773143 -0.25145525
000030 e0 9a 63 be 55 f3 d7 3f 4a e8 69 3e ec 6d ef 3e
       -0.22227049 1.6871134 0.22842517 0.4676355
000040 c9 6c 32 bf d5 93 94 bf 36 15 33 3f 0e dc 4b 3e
       -0.6969724 -1.1607615 0.6995424 0.19908163
000050 04 9e 5d 3f 04 45 7a 3e 8f b4 29 bf c1 ab 4e 3f
       0.8656924 0.2444039 -0.66291136 0.80730826
000060 df 03 8d 3f 94 28 34 be 38 b7 0f c0 89 25 b9 bf
       1.1016806 -0.17593604 -2.2455578 -1.446458
000070 f6 7d 7a 3d 80 24 1e bf 4e 4e 4c bf 3c c8 06 be
       0.061155282 -0.61774445 -0.79806983 -0.13162321
000080 67 8e f0 3f d4 b9 93 bd 9e 8e 21 3e 24 01 46 bf
       1.8793458 -0.07213178 0.1577706 -0.7734549
000090 78 d5 4b 3e d6 32 3b 3d bd a0 1c 3e 2c 8c f3 be
       0.1990565 0.045702778 0.15295692 -0.4756788
0000a0 5d 5e e3 bd 65 e1 95 3e 29 a2 21 be 02 d3 eb bc
       -0.11101983 0.29273525 -0.15784515 -0.02878714
0000b0 e8 da 16 40 84 c7 84 bf fc 92 c9 3f ab 3d 21 bf
       2.357111 -1.0373387 1.5747981 -0.6298472
0000c0 8b 69 6d bf 65 8e 0b 3f f2 bd 87 3d b9 c3 df be
       -0.9273917 0.5451415 0.06628026 -0.43704012
0000d0 cb 39 43 3f b8 0d e2 3e 42 23 95 3f 2e fc 00 40
       0.7626006 0.44151092 1.1651385 2.0153918
0000e0 da b5 0c 3e 05 4b 70 3f 12 77 3e be 15 07 25 bf
       0.13741246 0.9386447 -0.18600109 -0.6446393
0000f0 02 06 c5 3f 4b 9d 5e bf 9f 31 55 c0 8e 74 3f bf
       1.5392458 -0.8695876 -3.3311536 -0.74787223
000100 8a ea d0 bc 7f fc 82 bf 97 9f 18 bf 3b b5 80 bf
       -0.025502462 -1.0233306 -0.59618515 -1.0055307
000110 2e a9 57 be 40 51 f7 bb dd 32 d6 3f fa 74 29 3c
       -0.2106063 -0.0075475276 1.6734272 0.010342831
000120 81 36 34 bf 51 b6 3d be 43 09 7f bf 25 cd 54 bf
       -0.70395666 -0.1852658 -0.9962351 -0.83125526
000130 14 0b ec be 90 61 0f bf f6 88 ca 3e 83 76 7b bf
       -0.46102202 -0.56008244 0.39557618 -0.9822771
000140 1b a9 01 bf 0c 57 cc 3d cd 6a 27 bf 47 50 3b 3f
       -0.5064866 0.099775404 -0.6539734 0.7316937
000150 f5 99 b7 bf 49 35 00 bf 99 c0 2f 3e 3d d5 23 be
       -1.4343859 -0.50081307 0.17163314 -0.15999313
000160 52 5f 82 3e 46 80 00 bf 0b 46 85 bf dd 75 3b 3f
       0.2546335 -0.5019573 -1.0412 0.7322672
000170 02 30 86 bf d1 16 f1 be d3 0f 95 3e 66 cf fe 3f
       -1.0483401 -0.4708772 0.29113635 1.9907043
000180 7b 54 29 3f 51 4f 98 3f 5e 08 51 3f af dc 69 bf
       0.6614453 1.1899205 0.8165339 -0.9135236
000190 74 4c b1 3f 3a 58 50 bf a8 75 6d bf d0 54 8e 3f
       1.3851457 -0.81384623 -0.92757654 1.1119633
0001a0 05 e8 aa 3f ad b1 1a 3f 71 d9 d3 bd 9c d8 1a be
       1.3352057 0.6042736 -0.10344208 -0.15121692
0001b0 87 88 06 c0 c2 b9 1e bf ac 36 bd bf d3 13 91 bf
       -2.102083 -0.62002194 -1.478231 -1.1334175
0001c0 1d b1 5f 3f 29 6d 0f bf 96 94 a4 3f 5e 1b 51 3f
       0.8737963 -0.5602594 1.2857845 0.81682384
0001d0 3d 3b 52 3e 02 37 9c 3e c9 22 09 3f 48 c4 dc be
       0.2053041 0.30510718 0.535687 -0.431185
0001e0 8a b8 23 40 f1 f6 6e be 35 ba 5c bc 48 29 ee 3f
       2.5581384 -0.23336388 -0.01347213 1.8606348
0001f0 f4 7d fd bf f7 37 e6 3f 98 82 d0 3d 44 15 ae 3e
       -1.9804063 1.7985829 0.10181159 0.340006

weight f4 [20, 8]
000000 80 1a 63 3d 19 19 b0 bf ff 9c 2d 3d a8 36 34 3f
       0.055445194 -1.3757659 0.04238605 0.703959
000010 4c fa 88 be 25 89 d5 bf f4 4a a9 3e ac 4d 4d bf
       -0.2675346 -1.6682478 0.33064997 -0.8019664
000020 9c 02 65 bf f8 88 ce bf 2c 44 3a bd 41 63 c1 3d
       -0.89457107 -1.613555 -0.04547517 0.09442759
000030 a9 e5 31 40 b3 ce 9c 3f c2 a3 bc 3f 85 8e f6 bf
       2.7796423 1.225058 1.4737475 -1.9262244
000040 6e 40 6b bf 93 06 07 bf 6f 9b 7d 3f e2 e4 35 3e
       -0.91895187 -0.52744406 0.990653 0.17763093
000050 3e ec 5b 3e 27 c5 ca be 7d 08 be 3e d5 5d 32 bf
       0.21476838 -0.3960354 0.3711585 -0.69674426
000060 41 81 7e 3f 5a 0a 63 3e 22 9f 22 3e 18 27 6f 3f
       0.99415976 0.22171918 0.15881017 0.9341903
000070 6a 88 2f 3f 84 bc 78 3f a4 a8 30 bf 8a 70 43 40
       0.68567526 0.9716265 -0.69007325 3.0537438
000080 93 50 69 be e0 7a e3 3f 8f 6a ad 3e 7b 3e 9e bd
       -0.22784643 1.7771873 0.3387036 -0.07726761
000090 d6 07 a6 3e 7a 2e e2 bf ce aa 7e 3f 3e 10 19 40
       0.32427853 -1.7670434 0.9947938 2.3916163
0000a0 16 f9 f7 3d 99 18 43 3f 59 3a b3 3f 12 4d 02 bf
       0.12108056 0.7620941 1.4002181 -0.5089885
0000b0 31 35 dc be fc 07 79 bf 19 c3 ae 3e 37 a2 8b bf
       -0.43009332 -0.9727781 0.34133223 -1.0908879
0000c0 bd da 2f be cd 6f 8c 3f eb 11 82 be 08 24 17 40
       -0.17173286 1.0971619 -0.25404295 2.3615742
0000d0 59 35 f8 3e 7e d4 ba 3e e6 74 2a bf f6 ac db 3e
       0.484782 0.36490244 -0.6658462 0.42905396
0000e0 a6 73 dc 3f 43 6e 9b be 70 9b 74 3e 3b 08 ac 3f
       1.7222793 -0.3035756 0.2388742 1.3440012
0000f0 fe 67 d3 3d 68 d8 8c 3f b5 f0 ae be cd 84 72 3f
       0.10322569 1.1003542 -0.3416802 0.9473389
000100 43 8a 11 bf b4 6c 56 3f fe 4e e4 3f 67 1d 48 be
       -0.56851596 0.8375962 1.7836607 -0.19542466
000110 8b d1 03 3f 25 7a ec bf e9 ab 3a c0 88 3c 11 bf
       0.5149161 -1.8474776 -2.9167426 -0.5673299
000120 57 91 0a bf 20 2a 65 3f fb eb 61 bf c8 24 08 3f
       -0.5412802 0.895174 -0.882507 0.53181124
000130 07 dc c5 bf 82 75 31 be 5a 6e 3a 3f d1 b8 69 3d
       -1.5457772 -0.17329982 0.72824633 0.05706102
000140 fa cf 67 3f fd ec 85 3f d8 45 05 bf 8e 69 ad 3f
       0.9055172 1.0462948 -0.520597 1.3547838
000150 78 d6 70 3e ed 05 f5 3f 85 0f eb 3f 47 8a a9 3f
       0.23519313 1.9142433 1.8364111 1.3245324
000160 fc 10 78 bf 9f 35 a0 3f e7 eb 9a 3f ce 25 07 bf
       -0.96900916 1.2516364 1.2103242 -0.5279206
000170 ce cf 5f 3e cd 05 13 bf 13 83 ba 3f ad ae e2 3f
       0.21856615 -0.57430726 1.4571251 1.7709557
000180 60 30 d3 3f b4 2f dd be 0a c4 8a be 7b 36 b8 bf
       1.6499138 -0.43200457 -0.2710269 -1.4391626
000190 05 9f 9f 3f 8e 0d a3 3f 80 2a c8 3e 74 40 c6 3e
       1.2470404 1.2738512 0.39094925 0.3872105
0001a0 bc 6c 31 be e6 b5 ad 3f be 60 4c 3f 96 08 e6 be
       -0.17326635 1.3571136 0.79835117 -0.44928426
0001b0 f0 e6 ee 3f 62 55 1e c0 0b 0b 6a bf 52 96 5e 3f
       1.8664227 -2.4739614 -0.914231 0.8694812
0001c0 92 4b 5c 3e 28 3f 70 3f 4f 9c bb 3f 1b 75 0e bf
       0.21513203 0.9384637 1.4657077 -0.5564744
0001d0 e3 ad 3e bf 4d 02 4f be 10 2e 6b be 3e 80 ae 3a
       -0.7448408 -0.20215721 -0.2296679 0.0013313366
0001e0 2a 24 c0 3e de c0 14 bf d5 82 12 bf 6c 3e 81 3f
       0.3752759 -0.5810679 -0.57230884 1.0097175
0001f0 b5 5e d8 bd 47 00 97 bf a7 ea b9 bd 43 28 10 3f
       -0.10564939 -1.179696 -0.090779595 0.56311435
000200 12 c5 a0 bf 18 43 65 3f 30 7f 2b 3e 1e 5d 40 3f
       -1.2560141 0.895555 0.16747737 0.75142086
000210 be 82 1a 40 7f a2 82 3f 18 87 e1 be 35 f9 dd bf
       2.4142299 1.020584 -0.4404838 -1.7341677
000220 9f 3c 9e bf f4 0e ca 3f c0 da 8e bf 97 8c 44 3f
       -1.236225 1.5785813 -1.1160507 0.76777023
000230 b8 94 16 bf e6 9b 07 40 fb cc 0a bf 6e 64 1d c0
       -0.58820677 2.1188903 -0.54219025 -2.4592547
000240 a3 2f 8e bf 3f 32 8f bf ff 0b 42 3f d7 c6 fd be
       -1.1108288 -1.1187209 0.75799555 -0.49565765
000250 62 ba 49 be 79 ca 08 bd 7d 23 38 3f bd 3e 88 3f
       -0.19700006 -0.033396218 0.7192915 1.0644146
000260 b1 82 55 3f 94 46 f5 bf 76 1e af be 02 16 29 bf
       0.83402544 -1.9162164 -0.34202927 -0.66049206
000270 de 52 a1 3e 4f 35 92 3f 3d 6b 9c 3e 98 31 14 bf
       0.31508535 1.1422518 0.30550566 -0.57888174

weight f4 [8, 8, 2, 2]
000000 a5 15 c9 bd f0 b5 d0 be 4d 48 0f bf 0f 6d a1 bf
       -0.098185815 -0.40763807 -0.559697 -1.2611407
000010 27 49 45 3e 57 6a 83 3f 98 58 49 be 58 1a 9a 3e
       0.19266187 1.0266827 -0.19662702 0.30098224
000020 c1 76 19 bf 3b 7f fa be 93 78 bc 3d 73 f6 70 be
       -0.5994683 -0.48925194 0.09202685 -0.23531513
000030 55 bd 60 3e d8 2b d7 bc d1 20 e3 3c 46 62 40 bf
       0.21947224 -0.026266024 0.027725609 -0.75149953
000040 01 65 bc 3b 4a 97 87 3e de ef d5 3e e8 e0 e1 3e
       0.0057493453 0.26482612 0.41784567 0.44116902
000050 c2 8b ae bc ad 3a 3d 3f 62 05 a6 be 25 7f 81 be
       -0.021306876 0.7391766 -0.32425982 -0.25292316
000060 57 d1 03 bf 36 dc 2f bf e3 af ee 3c 21 95 fe bd
       -0.514913 -0.6869539 0.029136604 -0.12430788
000070 5f d1 56 3e ab fa 17 3f 26 ad 1d 3b d3 d2 6e 3f
       0.20978306 0.59366864 0.0024059503 0.9329044
000080 13 d1 2a 3d 2b 30 6c 3e f1 aa f9 bd b6 a4 0a 3e
       0.041703295 0.2306525 -0.121908076 0.13539395
000090 3e 62 a6 bd 7e 50 b7 be fa 98 e2 be 87 e2 b2 3e
       -0.08124207 -0.35803598 -0.44257337 0.34938452
0000a0 27 06 5c be e1 ac 8c be 5f 3c b0 3e 70 9f e5 3c
       -0.21486722 -0.27475646 0.3442106 0.028030127
0000b0 e3 55 34 3e 8c 34 1f 3b 98 ee b2 b9 56 88 b7 be
       0.17610888 0.0024292795 -0.00034128572 -0.35846204
0000c0 4d 1a b4 bd 76 0e fe be 90 c2 95 be b6 f8 e9 bd
       -0.08794079 -0.49620408 -0.29250002 -0.11424391
0000d0 82 5c dd be f5 ac 2a bf 55 66 65 3c 3e 5f d2 3d
       -0.4323464 -0.6667016 0.014001449 0.10272072
0000e0 c4 13 31 bc 5a c1 3c 3e 57 01 bb 3e 50 8c 9c bb
       -0.010807935 0.18433133 0.3652446 -0.0047774687
0000f0 d1 2d 16 bc 58 2a 47 be 7a 36 2d be f5 c9 5a 3b
       -0.009166197 -0.19449747 -0.16915312 0.0033384536
000100 43 bf c4 3d 6b 9c d2 bd e4 73 93 bf bc ca 9d 3d
       0.09606793 -0.102837406 -1.1519742 0.07704684
000110 ad fc b8 3c 19 4b 71 3e 13 a2 c1 be cf cd 4b be
       0.022581423 0.23563804 -0.37818965 -0.19902728
000120 f3 d9 ae bd 36 14 9b be 96 40 8a bd 58 7d 2c be
       -0.08537664 -0.30288857 -0.067506 -0.1684469
000130 a6 0d 8d be f4 2e 95 be 90 b2 fd bd 66 d4 21 3d
       -0.27549475 -0.29137385 -0.12387574 0.0395092
000140 4f a6 0e 3f 57 1a b0 bc 0a 58 9a 3f d8 90 9a 3e
       0.55722517 -0.021496935 1.2058117 0.30188632
000150 e0 4d 01 3f 1a a9 0c 3e eb 50 33 3e 4e de 52 3e
       0.5050945 0.13736382 0.17511337 0.20592615
000160 fd 4c 0f bf 4b e1 96 bd 9e 25 17 bf c0 af 79 be
       -0.5597685 -0.0736719 -0.59041774 -0.2438345
000170 a4 8f 39 3f d9 1d 71 3d 10 bc 1e 3f 42 0d ea bc
       0.72484803 0.058866356 0.6200571 -0.028570775
000180 ba 2a 12 be 5a 05 86 be c3 5b d9 3d c2 0c 9d 3e
       -0.14274111 -0.26175958 0.10613205 0.30673796
000190 f4 f9 a1 be 9e f3 09 be e9 1c 58 3d 8d 3f 25 3f
       -0.31636012 -0.13471839 0.052761946 0.64550096
0001a0 36 fc 98 3d 06 18 1c 3e 55 78 b6 3e 64 ba 84 3d
       0.074699804 0.15243539 0.3563868 0.06480864
0001b0 76 9b b7 3e 4a 72 72 3e be 7b b0 bc 99 c2 8f 3e
       0.35860795 0.2367641 -0.02154338 0.28078154
0001c0 d7 35 52 be 4b a9 51 3e ae af 6b be 9d 13 af be
       -0.20528351 0.20474736 -0.23016235 -0.3419465
0001d0 a3 92 a9 be 23 10 c8 be f5 f0 99 bc 33 c8 ef 3c
       -0.33119687 -0.3907481 -0.018791655 0.029270267
0001e0 4b 4e 09 3f b1 03 0d 3f b6 df aa 3e a5 ea 8a 3e
       0.5363509 0.5508376 0.33373803 0.27132145
0001f0 a3 a5 c4 be 6f 83 40 bf 1d 3a 37 3e 47 90 af 3e
       -0.3840762 -0.7520055 0.17893262 0.34289762
000200 54 61 09 bf 6b 52 e4 3e 1d 7c b8 bb 08 6b 80 bf
       -0.53664136 0.4459413 -0.00563003 -1.0032663
000210 1b 16 94 3a 8b f2 1f be f4 65 27 be 63 29 13 3f
       0.0011298092 -0.15619867 -0.16347486 0.57485026
000220 af c4 bc bd e1 37 4f be 3e 4a 03 3d d6 a2 0c 3e
       -0.09217202 -0.2023616 0.032053225 0.13733992
000230 ed b9 bf 3c 57 2d 82 3e 27 f6 f4 3e 16 e8 a8 be
       0.023404086 0.25425217 0.4784405 -0.32989568
000240 f4 d3 04 3f b2 a7 0e 3f 33 16 a0 be 87 78 24 3f
       0.51885915 0.5572463 -0.31266937 0.6424641
000250 a3 1a 19 3f e7 ba 76 3a 33 db c3 bb cc ff 3d 3d
       0.5980627 0.0009412006 -0.0059770583 0.046386525
000260 ed 4d 13 3d c7 e8 9c bd 0c 88 82 bc 40 25 e3 be
       0.035962988 -0.07661586 -0.015934013 -0.44364357
000270 1d 1f 39 be 84 e2 14 3f 51 9f fc 3d 84 66 7a 3e
       -0.18078275 0.58158135 0.12335075 0.24453169
000280 76 3d b8 be 1a c7 26 bf 4f df 80 be 8a 3b 5f 3e
       -0.3598439 -0.65147555 -0.2517037 0.21800056
000290 fe 79 05 3f 36 74 b4 3e 59 22 96 be c7 cd 64 be
       0.5213927 0.35244912 -0.2932308 -0.22344123
0002a0 ea 54 a8 be ae c0 d6 be 1e 61 81 3e 5e be 17 3e
       -0.32877284 -0.41943878 0.25269407 0.14818713
0002b0 89 18 f7 bc e1 92 b8 be b4 fb c1 be 1f f9 03 bf
       -0.030163066 -0.3604956 -0.37887347 -0.51552004
0002c0 87 6e 94 bd ba 0c 66 3f 25 52 eb be 50 0f 96 bf
       -0.07247644 0.8986317 -0.4596111 -1.1723423
0002d0 ca 42 18 3e 16 da 84 3e 6b 8d 4e be 39 10 06 bf
       0.14869228 0.25947636 -0.20171134 -0.52368504
0002e0 ed e7 3a 3d de f7 a3 3e 08 59 e7 3e 1c 25 95 3e
       0.045631338 0.32025045 0.45185113 0.29129875
0002f0 b7 49 24 be f7 84 2b 3e a1 07 af bb 8a 74 3b bf
       -0.16043745 0.16749941 -0.0053414856 -0.732247
000300 13 22 f5 3e 6e c9 94 3e a4 fc da bd 85 8f 0b bf
       0.4787756 0.2905993 -0.106927186 -0.5451587
000310 6d ee 48 3e 63 3c d4 bd 1d 12 4b 3e 9d 8d 06 bf
       0.19622202 -0.1036308 0.19831128 -0.52559835
000320 7e 12 8d 3d 63 85 6e 3d 64 80 02 3d 4f 3b ac 3e
       0.06888293 0.058232676 0.031860724 0.33639
000330 8d e8 90 3e 2e 77 a9 3e 6b 19 3b 3e 30 23 80 3e
       0.28302422 0.3309874 0.18271415 0.25026846
000340 be 85 04 3f f0 b6 7c 3e 7b 0f f5 3e f6 94 60 3e
       0.51766574 0.2467916 0.47863373 0.21931824
000350 64 56 5f bd 37 bb df be 40 f4 89 be a2 bb a1 be
       -0.054525748 -0.4369752 -0.2694416 -0.31588465
000360 17 63 e2 be 35 50 98 be 91 51 ad be e7 6e 07 3f
       -0.44216225 -0.29748693 -0.33851293 0.529036
000370 5c 4e 36 3f de 38 90 3e 6a e7 1c bc 43 db 45 bf
       0.71213317 0.28168386 -0.009576658 -0.7728769
000380 1c 99 90 be 51 98 da bd c2 fd b9 bc 50 a0 52 3d
       -0.28241813 -0.10673583 -0.022704009 0.051422417
000390 0f 8f af 3c 72 b1 a5 be db 66 53 be 46 94 03 bf
       0.02143052 -0.32361943 -0.20644705 -0.5139812
0003a0 c8 0c 5e be 17 ce ca 3d 43 05 f3 3e 84 84 02 3e
       -0.21684563 0.0990259 0.47464952 0.12745863
0003b0 11 3a 5f be 8f 00 2c bf 0e ca 50 bf 27 f0 f9 be
       -0.21799494 -0.6718835 -0.8155831 -0.48816034
0003c0 78 c7 e9 3d bf 95 65 be ea a1 46 be 78 87 13 bf
       0.11414999 -0.22420405 -0.19397703 -0.57628584
0003d0 13 af 03 bc b9 5b 84 be 0b c0 07 bf f8 9f 02 3e
       -0.008037346 -0.2585123 -0.5302741 0.12756336
0003e0 7d 65 d7 3e f2 3a 94 3e 66 7a a7 3e c7 71 2e 3f
       0.42069617 0.28951222 0.3271057 0.6814236
0003f0 43 f2 80 be 3b fa d0 be 91 64 c6 be ea 8d fc bd
       -0.2518483 -0.4081591 -0.387486 -0.123317555

bias f4 [8]
000000 2e b5 89 be f3 24 cd 3d 28 23 c1 be 3e 64 c2 3e
       -0.26896042 0.10016813 -0.37722135 0.37967104
000010 c4 58 2c 3e 5f 8a 36 be 7c 21 50 3e e3 58 b0 be
       0.16830736 -0.17826222 0.20325273 -0.34442815

weight f4 [16, 16]
000000 1e e3 81 be db 1f 03 c0 ed 6e c7 3e db cb b9 3e
       -0.2536859 -2.0488193 0.38951817 0.36288342
000010 73 6a 93 3e 24 a3 0d 3f 96 00 85 be 81 d2 1c bf
       0.28792152 0.5532706 -0.2597701 -0.61258703
000020 6f e5 83 3e ed 4f b7 be a6 37 28 bf 90 da f3 3e
       0.2576098 -0.35803166 -0.6570991 0.47627687
000030 bf 5a 7e bd be 03 cc 3c 69 02 57 3d da 75 bd 3e
       -0.06209826 0.024904128 0.052492533 0.37003976
000040 ca ca 2b 3e 3a 88 95 bf 84 2a 2b 3f 33 ac 1b 3e
       0.16776577 -1.1682198 0.6686175 0.15202408
000050 e1 85 f7 bf 00 41 54 3e 49 85 c9 be 27 29 d9 be
       -1.9337732 0.2072792 -0.393595 -0.4241421
000060 29 ec ad 3e c9 44 7e 3f 16 97 c5 be f3 6e 38 3f
       0.33969238 0.9932371 -0.38591832 0.72044295
000070 d5 d3 3b 3f 1b 09 ae bd 39 5c 6c bf de a7 9f bd
       0.73370105 -0.084978305 -0.9232822 -0.0779569
000080 5b 56 c2 3e 85 ab 21 3f a9 e4 8b bd 9a 60 a7 3e
       0.3795651 0.63152343 -0.06830723 0.3269089
000090 4b 57 06 bf 18 e2 39 3f b5 42 3d 3e 6e a6 c5 3d
       -0.5247695 0.72610617 0.18482478 0.096508846
0000a0 f3 b0 60 3d ed d1 7a bf 04 e9 2e 3f c8 02 43 3f
       0.054856252 -0.9797657 0.68324304 0.7617612
0000b0 cf 8b fe 3d e3 ba a6 be 0c 68 5f be 7c d6 bd 3e
       0.1242901 -0.32564458 -0.21817034 0.370777
0000c0 a5 1d 50 bf 03 61 83 bf 20 d5 d7 3e e6 20 df 3e
       -0.81295234 -1.0263981 0.4215479 0.43579787
0000d0 6f f2 de 3e 0e 83 7f c0 15 28 d9 bd 1d 1c 3c be
       0.43544337 -3.992374 -0.10603348 -0.183701
0000e0 07 df ea 3d 80 ae 90 bb 53 b9 10 3f aa 64 8f 3e
       0.1146832 -0.0044153333 0.5653278 0.28006488
0000f0 9e 40 21 be f5 6f c6 be 7d 56 ec 3d 53 60 a3 3e
       -0.15747306 -0.3875729 0.11539934 0.31909427
000100 f4 7b 1a bf 68 61 a6 3d ff ca d8 3e f3 bd 23 3c
       -0.6034539 0.081240475 0.42342374 0.009994018
000110 f1 b6 4e 3f 17 7b 60 3e e1 fa 62 be 7e 52 0e 3e
       0.80747896 0.21921955 -0.22166015 0.13898656
000120 37 f3 97 3e c0 05 11 3f ea f5 98 3e 03 06 17 3f
       0.29677746 0.566494 0.29875118 0.5899355
000130 5a 90 8c be 98 12 6d 3e 8a 5a 64 3e 16 91 15 be
       -0.27453882 0.23151624 0.22300163 -0.14606127
000140 90 d6 6d 3e e2 fb 42 bf 7b cb 99 3e 7a cf 24 3f
       0.2322638 -0.7616559 0.30038056 0.64379084
000150 14 e6 14 3d a2 53 fd bb a9 6d 17 be dd 4f 8a bf
       0.036352232 -0.007730917 -0.14787926 -1.0805622
000160 d1 4b c3 be 6e 44 07 3f 99 b6 c8 be 82 3a a9 bd
       -0.3814378 0.5283879 -0.3920181 -0.082631126
000170 b8 9f 26 be 45 cc e0 bd c3 1a cc 3e 1d 91 57 3f
       -0.16271865 -0.10976461 0.39864168 0.842058
000180 e5 36 7d be 1e 9f f9 bd 05 c4 2e be a2 0e 3b 3d
       -0.24727972 -0.12188552 -0.17066963 0.04566825
000190 f9 43 65 be 9c 34 3a be 18 f8 3f be bf 9d 49 be
       -0.22389211 -0.18184131 -0.18746984 -0.19689082
0001a0 d8 02 ef bd 86 55 6b 3e 20 f2 89 bd c6 d3 45 3d
       -0.11670464 0.22981843 -0.06735635 0.048297666
0001b0 c1 4b 8d be 93 05 33 3e fd 64 91 bd cd 00 80 be
       -0.27596858 0.17482595 -0.0709934 -0.2500061
0001c0 52 03 6e 3e dd 29 90 3b ed b6 e5 3e a0 9c a3 bd
       0.23243454 0.0043995217 0.44866124 -0.07988858
0001d0 d1 63 c1 bf e2 a5 84 3c 99 8b 1d be 89 b3 0e 3e
       -1.5108587 0.01619238 -0.15385284 0.13935675
0001e0 13 1f 4d be c3 9b 02 3f 40 44 42 bd 59 9a 99 be
       -0.20031385 0.51018924 -0.04742837 -0.3000057
0001f0 b9 5b 80 be b1 71 25 bd d7 c9 5c bd 15 e8 8b be
       -0.2506998 -0.040391628 -0.053903427 -0.27325502
000200 9f 41 75 3e fe c1 b6 3e 01 c3 a7 3d d3 ef 08 3f
       0.23950814 0.3569488 0.08191491 0.5349094
000210 94 e6 80 be a5 80 c7 3e 53 84 c0 3e c1 3a 9b 3e
       -0.25175917 0.38965335 0.37600955 0.30318263
000220 83 ae bd bb 94 81 97 3d 85 f4 27 3e 98 ae a4 3e
       -0.0057886257 0.07397762 0.1640187 0.32164454
000230 93 ef a6 3e 78 ef c7 3e 06 1c 27 be 9f 08 a3 3e
       0.32604656 0.39049888 -0.16319284 0.31842515
000240 b8 e7 b2 3e b4 8d a6 bd 0d 4b 01 3f c1 c7 eb bd
       0.34942412 -0.081324965 0.50505143 -0.115127094
000250 85 9d 9b bf bb 0e 92 bd 2f 2a 33 be 69 04 60 3e
       -1.2157446 -0.07131716 -0.1749656 0.21876682
000260 ba ef bc bd 8e 64 3a 3e 1f a4 31 3b e3 1e bf bd
       -0.09225412 0.18202421 0.002710588 -0.09332063
000270 5d a0 a3 3e 67 fb 88 bc d0 66 da be 7e 50 b3 be
       0.31958285 -0.01672144 -0.42656565 -0.35022348
000280 64 3d 2c 3e d4 42 11 be 0f 32 b6 3a 17 ec b3 3e
       0.16820294 -0.14185649 0.0013900417 0.3514106
000290 c6 3d 43 bd 41 5a 85 bd 52 d5 91 3e 04 9d 7b 3e
       -0.047666334 -0.06511355 0.28483063 0.24571615
0002a0 0b 9a 3a 3e c9 3a ff 3e 06 aa 0a 3e ef 11 23 3e
       0.18222825 0.49849537 0.13541421 0.1592481
0002b0 cd 89 07 3f ad 25 08 3f d0 b3 89 3e 92 38 ca 3d
       0.5294464 0.5318249 0.26895 0.09874071
0002c0 42 fe c9 3e 11 02 76 3e e2 de 3e 3d 06 12 77 3d
       0.39451796 0.24024226 0.046599276 0.060319923
0002d0 71 36 5d 3f 4a 55 11 c1 49 4d 17 be 79 88 87 bc
       0.86411196 -9.083323 -0.14775576 -0.016544567
0002e0 2c 78 aa 3d 72 90 f1 be aa 77 ae 3e 31 bf e1 3e
       0.08323702 -0.47180516 0.3407567 0.4409118
0002f0 89 d5 82 be b6 a7 37 3d fa 7c f8 3e a6 51 55 bf
       -0.2555354 0.044837676 0.4853285 -0.8332771
000300 77 16 04 be f3 40 ed 3e 88 07 03 be d8 17 a2 bd
       -0.12899195 0.46338615 -0.12795842 -0.07914704
000310 1b bb a1 3c d0 66 80 3e 39 3d 56 3e 1f a1 99 3e
       0.01974254 0.2507844 0.20921792 0.30005738
000320 81 9f 90 3e 84 2e 2e be 01 75 44 3e 80 30 28 3f
       0.28246692 -0.17009932 0.19185258 0.65699005
000330 0d 1c 98 3e f8 ca ca 3e e4 13 0b be bd 00 dc 3c
       0.297089 0.39607978 -0.13581806 0.02685582
000340 99 dd 07 bf 80 69 05 3e 04 5e 1f be 10 32 75 bd
       -0.53072506 0.13028526 -0.15563208 -0.059862196
000350 03 80 53 3f cd e2 11 3f ac 30 aa be b6 09 bc 3e
       0.82617205 0.56986696 -0.3324026 0.3672616
000360 49 13 63 be 7d 6e 4e be 4a c2 3e 3e 85 9d ce c0
       -0.22175325 -0.20159335 0.18628803 -6.4567285
000370 f3 5c 33 bf e1 de dc 3e 00 a2 91 3d f5 db 8f 3d
       -0.70063704 0.43138793 0.07110977 0.07024375
000380 b0 34 67 bc cb b8 00 be 01 f6 3b be 48 e7 34 be
       -0.014111683 -0.12570493 -0.18355562 -0.17666352
000390 27 13 02 be cb de a5 3b 04 8a 9e bd 23 19 07 bd
       -0.12702619 0.0050619594 -0.07741168 -0.032982957
0003a0 18 f0 41 be 40 d7 28 be 32 74 65 be 08 77 53 be
       -0.18939245 -0.16488361 -0.22407606 -0.20650876
0003b0 cc 86 1f 3e 11 f0 1d 3d 03 cf 77 be ac b9 71 bd
       0.15578765 0.038559023 -0.24200062 -0.05901496
0003c0 4a ba 06 be 5a 06 da 3d 1b 2d 2b be 7f bf e3 3d
       -0.13157001 0.10645743 -0.16716425 0.11120509
0003d0 72 fa 09 be 8c d4 c6 3b 20 16 82 3e 35 d2 10 be
       -0.13474444 0.006067818 0.25407505 -0.14142688
0003e0 8e 4f 23 be 62 bc db be 15 c1 65 3d 10 f9 80 3e
       -0.15948316 -0.42917162 0.05609234 0.2519002
0003f0 d3 a7 bb 3c 70 cf 87 3e 8c 8f 81 3d 00 9e 32 be
       0.022907173 0.2652545 0.063262075 -0.17443085

bias f4 [16]
000000 c3 23 5f 3e 62 87 90 be c4 06 4c bf 6d ba bb bc
       0.21790986 -0.2822829 -0.79697824 -0.022916043
000010 08 78 a1 be 83 36 19 be 81 ec e0 bd 47 63 2b 3f
       -0.3153689 -0.14962201 -0.109826095 0.6694836
000020 86 f1 9f 3f c5 6f 2e 3f 9d 7c 77 3f 3b 30 e1 3e
       1.2495582 0.68139297 0.9667452 0.4398211
000030 12 3b 8e 3f a6 39 82 3f 79 e8 34 be 74 15 68 3f
       1.1111777 1.0173843 -0.17666806 0.90657735

weight f4 [5, 16]
000000 6a 40 90 3e 71 0a e5 be 64 39 36 be 02 29 2d be
       0.28174144 -0.4473453 -0.1779533 -0.16910174
000010 55 15 09 bd 7d 0b 11 3e ec 31 a0 3d ea 0f 01 3f
       -0.03346761 0.14164539 0.07822022 0.5041491
000020 b2 4e d0 3e ad 99 94 3e 11 ff ed 3e 29 7b ac 3e
       0.4068504 0.29023495 0.46483663 0.33687714
000030 52 e5 d8 3e ee 25 ad bc 55 f9 df bc fb 0b 03 3e
       0.42362458 -0.02113625 -0.02734057 0.12797539
000040 70 b3 81 3e e8 f8 c0 be 67 02 94 be 87 ef 96 bd
       0.25332212 -0.376899 -0.28908083 -0.07369905
000050 dc 68 4c 3d 75 fb 41 bd bf 2f 4f be 12 01 bb 3e
       0.04990469 -0.04735895 -0.20233057 0.36524254
000060 4c 47 0e 3f cb aa b3 3e 9e 6e c2 3e 6f 01 a5 3e
       0.5557754 0.35091242 0.3797502 0.32227656
000070 51 05 8a 3e 88 62 ab bd cd ab be bd 7a a6 97 3e
       0.2695718 -0.08368403 -0.09310112 0.296192
000080 3d 86 b1 bc 84 2c 69 be 96 e1 af be 52 f9 ca bd
       -0.021670455 -0.22770888 -0.34351796 -0.09910835
000090 a6 64 4e 3e 4f 15 37 bf 4c f9 db bd f8 b7 2b 3e
       0.20155582 -0.7151689 -0.10740909 0.16769397
0000a0 2f cf 0b 3f ad 65 cd 3e 35 c8 c4 3e 4b 0e a8 3e
       0.5461301 0.40116635 0.38433996 0.32823405
0000b0 d4 fd 94 3e be 3d 65 3d 48 41 60 be 9b d6 1e 3e
       0.29099905 0.055967085 -0.21899903 0.15511553
0000c0 60 7c c3 3d 81 e2 80 be 21 48 da be 34 87 5d 3e
       0.09545207 -0.2517281 -0.42633155 0.21633607
0000d0 17 5c 89 bd 96 f1 b0 3e 9a f4 15 be e9 aa c1 3e
       -0.06707018 0.34559315 -0.1464409 0.37825707
0000e0 9f f3 d2 3e 1f 26 8a 3e ab 9d 73 3e b2 69 84 3e
       0.41201493 0.2698221 0.23790614 0.2586189
0000f0 44 12 10 3f d7 8e 9b be b4 3c 1d 3e 99 40 bf 3e
       0.5627787 -0.30382416 0.15355188 0.37353972
000100 f0 63 e5 3e 2d 91 ff be 68 8d 1d be e6 6f 56 be
       0.4480281 -0.49915448 -0.15385973 -0.20941123
000110 8e 37 46 3e 55 7f 90 3e ac c3 a4 bd a2 2c 9f 3e
       0.1935713 0.28222147 -0.08045134 0.3108874
000120 bc fe e8 3e 5c fa da 3e ba c4 08 3f 47 9a 8e 3e
       0.45506847 0.42769134 0.5342518 0.2785208
000130 35 22 85 3e f5 95 1a bd c2 83 e2 bc 46 2d 90 3e
       0.2600266 -0.037740666 -0.027650718 0.2815954

bias f4 [5]
000000 8a 32 59 3f 0f 84 51 3f 22 dd 57 3f 0c 61 c9 3f
       0.8484274 0.8184213 0.84321797 1.5732741
000010 4f b6 7f 3e
       0.24971889
