saved_models_zach/easyNpyMini/easyNpySmallMini_1__mode_embed_bl__seed_0_2020-07-17_11:17:54.707831.pth (torch_old, 63239 bytes, 8 tensors)

weight f4 [16, 8]
00000000: 851b 90bf 8a80 93bf d64b 80be 5d25 debe
00000010: 1545 593f 8327 313f 6dcc a1be c15f 07c0
00000020: 3801 a53e f4b4 a1bf ff30 b33e bbc3 9d3e
00000030: 776f f53d 936b 9e3f 8ef2 8e3f 7c36 7dbe
00000040: c223 adbf 4614 d9bf 0410 113f 5d23 4b3f
00000050: 8b4d 193f 5b0d c7bf cac6 aebe 4e2f ed3f
00000060: 6b0c 403f 2be3 15bf eb8e 31be a4e1 3b3e
00000070: c0d6 b13f 000d cb3f 9c40 723f 33fb 57bf
00000080: c813 1dbf 6467 013d 2840 fcbe 7060 7e3e
00000090: d01f e13e d637 e63d f80a 243f 3cdf e13e
000000a0: b987 d1bd 9cdd 4a3f 534f 94be 1712 573d
000000b0: 2fda 053f 5557 1340 b704 bcbf 9e18 cbbf
000000c0: 9f4f 2cbf de71 5f3f f415 873f aa1c 363e
000000d0: 10dd 6bbe 0894 c8be 5d15 0b3f 1752 cabe
000000e0: 9476 e4be 2478 3e3f 75af c23f ad45 5a40
000000f0: d9fd c3bf 23f8 9dbf c2ec e83f fc30 0dbf
00000100: 3eba 11bf 3f83 6b3f 392f 8e3f 981a a53f
00000110: ce34 bdbf 8b4d 2440 c23c f2be 4fcd ab3e
00000120: c18d d0bf 00bc 0cbf d6ac f5be 42d6 ffbe
00000130: d092 88bf 57b6 8e3f 2c0c 10be de45 4e3f
00000140: 5c2d bfbd 86e2 2f3f d69b 56bf 25c9 693a
00000150: 5f86 573f 47d1 ccbe 170d 853f d85f b73e
00000160: ace7 7bbe 6e5c 1340 31db f0bf 90ae 4bbd
00000170: dcc1 85bf 3ddd 74bf b458 093d 3cc8 353f
00000180: c5ab d23f 041a aebf e16a b03e 0d16 053f
00000190: ad40 27c0 1326 d9bf 37b8 69be 4356 8f3e
000001a0: 46da 7c3e ef76 9d3d 190f ad3e 59a7 e83e
000001b0: 0ff4 e93e fa88 5dbf cc03 483f 1242 6dbf
000001c0: f015 60be 1cd8 1bc0 5554 95bd 5535 0bbd
000001d0: 9967 763f 2ec6 b23e efe4 6bbf 812c 66bd
000001e0: 2b69 1fbf fe6c edbe f7fc f53f 731a cebe
000001f0: 95c0 fd3d a017 953f 3562 6c3f e492 b13f
-1.1258398 -1.1523602 -0.25057858 -0.4338788 0.84871036 0.69200915 -0.31601277 -2.1152194
0.32227492 -1.2633348 0.3499832 0.30813393 0.11984151 1.2376579 1.1167772 -0.24727815
-1.3526537 -1.6959312 0.5666506 0.79350835 0.59883946 -1.5550951 -0.3413604 1.8530061
0.7501895 -0.58549756 -0.17339675 0.18347794 1.3893661 1.5863342 0.94629836 -0.84367675
-0.6135831 0.03159274 -0.49267697 0.24841475 0.43969584 0.112411186 0.64079237 0.44115627
-0.10230965 0.792444 -0.2896677 0.052507486 0.52286047 2.3022053 -1.4688939 -1.5866888
-0.6730899 0.8728312 1.0553575 0.17784372 -0.23033547 -0.3917544 0.5432947 -0.39515755
-0.44621718 0.7440207 1.5209795 3.4105027 -1.5311843 -1.234135 1.8197253 -0.5515287
-0.5692481 0.9199714 1.1108161 1.2898741 -1.478174 2.5672328 -0.4731198 0.33555076
-1.629326 -0.54974365 -0.47983426 -0.49968153 -1.0669804 1.1149396 -0.14067143 0.8057536
-0.093348235 0.6870502 -0.83831537 0.00089182175 0.8418941 -0.40003416 1.039462 0.3581531
-0.24600095 2.3025165 -1.8816892 -0.049727023 -1.0449786 -0.9565008 0.03353186 0.7100866
1.645867 -1.3601689 0.34456542 0.5198677 -2.6133225 -1.6964744 -0.22824179 0.279955
0.2469264 0.076887004 0.3380058 0.45440176 0.45694014 -0.86537135 0.78130794 -0.9267894
-0.21883368 -2.4350653 -0.07291476 -0.03398641 0.9625183 0.34916824 -0.921462 -0.056194786
-0.6226985 -0.46372217 1.9217824 -0.40254554 0.12390248 1.1647835 0.9233735 1.3872952

weight f4 [20, 8]
00000000: c7ce 39bf 3719 3ebe a511 09bf e4c2 423f
00000010: fa8b ce3e 663c a33c 424f b73f 9722 20bf
00000020: 9a9d 95be 3aa2 263e e9f8 a0be 5fab 73bf
00000030: f331 df3d 3e03 f9bf ed8a 8fbe 195b 5c3d
00000040: 6706 36be e54a fdbe 391c fdbd bed0 b63f
00000050: d6ad 283f d8b2 5cbd a969 82bd 2ad9 0f3f
00000060: b362 95be 8eb0 39bf 8c68 febf d899 083f
00000070: 4f10 36bf 2951 863f 0e61 7d3d 8ae9 053c
00000080: b6c0 563f 0411 3fc0 5ae2 20bf f157 ec3e
00000090: 5cb2 933e 535e e73e 6451 513f 7b13 083f
000000a0: 2e73 3f3f 414a cf3e 71d3 c4bd c38d da3e
000000b0: 328c 74bd 6448 56bf bc30 593d f7dd 9ebf
000000c0: b0cb 063e 332b 58be 2e8c b4bf 71f6 92be
000000d0: 89df 9e3f 2e63 043f 5f7a bf3f 23ca 283f
000000e0: 7711 8abf 8c8d 38bf ef42 bc3f 0820 8d3e
000000f0: 2ab2 2a3f 5290 7ebf 143d 98bf df14 99bf
00000100: eb43 0fbf 9c91 083f 7153 d03e 3f07 ca3e
00000110: 92a0 2f3e 7844 603f 1ffd 92be 1ac5 823f
00000120: 5d5c 98bd fccd 8bbf b0b7 c83e dd32 183f
00000130: cb8a 293f 1e68 9abf 2b81 1b3f 7812 0cbf
00000140: 3ee6 953f 0eac c73d b79f 763f 6c1f 573f
00000150: c277 a0bf 4aa1 7c3f 6d43 fdbe c13a a4bf
00000160: 6b89 743f 464c a43f e075 2abf 9aac 103f
00000170: dc4d 933e ffb3 08bd f6eb 87bf 4558 eabd
00000180: b6c9 afbe 351f c93f b136 443e bd87 c23e
00000190: 303b 14be ec3a 233f 4605 90be 5939 aabf
000001a0: 4be8 ca3f 1a38 d4bf 9f80 85bc 69e2 75be
000001b0: cb2d 58bf 630d a9bd 6d5b 0340 ac62 6dbf
000001c0: ad26 bdbf d5b9 e0bf f8fc 9b3d ad0f 8abf
000001d0: 225d b83f 357f e2bd 1dad 133f f93b 2dbe
000001e0: 791f 83bd 21eb 843f 9625 683f 8d76 f3be
000001f0: 0de9 5ebf 7b37 143e cd90 f33f f5e1 c73e
00000200: 1a45 21bd 482d 4dbf fcb7 fdbe 5f18 b9be
00000210: fbc9 153f 06f8 93bf 3ece 12be 146a 47be
00000220: de3b afbd a17f b23f 71ce 183f e637 f7be
00000230: 4771 bbbe dbdc a9bf ecfe d83f 2531 0440
00000240: 9a92 6fbe d012 353f 087e 143f e45e 893e
00000250: a7c5 03c0 94b5 083f a40f 09bf 2619 5dbf
00000260: 5777 c0bc 47f9 953f ba20 cc3e 157c 4bbe
00000270: def5 93bf 8222 a2be 60b7 703f 68cf 92bf
-0.7258114 -0.18564306 -0.5354255 0.7607863 0.4034117 0.019926261 1.4321063 -0.6255278
-0.29221803 0.16272822 -0.31439903 -0.95183367 0.10898199 -1.9454114 -0.2803568 0.053797815
-0.1777588 -0.49471202 -0.12358899 1.4282453 0.6589025 -0.053881496 -0.06367809 0.5619074
-0.29176864 -0.72535026 -1.9875655 0.53359747 -0.71118635 1.0493518 0.061860137 0.008173356
0.83887804 -2.9854136 -0.62845385 0.46160844 0.28847015 0.4518915 0.8176482 0.53154725
0.74785125 0.4048634 -0.09610642 0.4268628 -0.059704013 -0.8370421 0.053024992 -1.2411488
0.13163638 -0.21110229 -1.410528 -0.28703645 1.2411968 0.51713836 1.495922 0.65933436
-1.078658 -0.72090983 1.4707927 0.275635 0.66678107 -0.99438965 -1.189364 -1.1959494
-0.5596301 0.5334718 0.4068866 0.39458653 0.17151096 0.87604475 -0.2870874 1.0216401
-0.07439492 -1.0922236 0.39202642 0.5945261 0.66227406 -1.2063024 0.6074397 -0.5471568
1.1710889 0.09749614 0.96337456 0.8403232 -1.2536547 0.9868361 -0.49465504 -1.283043
0.95522183 1.2835777 -0.6658611 0.5651337 0.2877034 -0.033374783 -1.0618885 -0.11442617
-0.3433358 1.5712649 0.19161488 0.37994185 -0.14475703 0.6376178 -0.28129023 -1.3298751
1.585214 -1.6579621 -0.016296683 -0.2401215 -0.84444875 -0.082545064 2.0524552 -0.92728686
-1.4777428 -1.7556711 0.07616609 -1.0786034 1.4403422 -0.11059419 0.57686025 -0.16917409
-0.06402487 1.0384256 0.9068235 -0.47551385 -0.8707436 0.14474289 1.9028565 0.3903958
-0.03937254 -0.8014722 -0.4955443 -0.36151406 0.5851132 -1.1560066 -0.14336488 -0.1947406
-0.08556341 1.3945199 0.59690005 -0.48284835 -0.3660986 -1.3270525 1.6952796 2.0654995
-0.23395768 0.7073183 0.5800481 0.26830208 -2.0589387 0.53402066 -0.5353949 -0.863665
-0.023494406 1.1716698 0.39868718 -0.19871552 -1.1559408 -0.31666952 0.9402981 -1.1469545

weight f4 [8, 8, 2, 2]
00000000: b1de 213f c9b6 523e b6ab b0be 00c6 a0be
00000010: c784 00bd e8b6 4ebe f2df 16bf f4da 86be
00000020: 1682 77be 1b0c c8be dde4 9abe 2a29 4e3f
00000030: fdb9 4cbf a1d1 62be d127 533e 2177 423f
00000040: ce6c 1d3e 2c5e 3fbe 5f01 493e b9c3 2ebe
00000050: fb1a 3c3f ce64 233d 9af0 b93d e356 d2be
00000060: 0770 b23d 268c b3bd ada1 633e 0a28 ef3d
00000070: 6ca6 883f 0a61 953e 3bca 9c3c ed0d 9dbe
00000080: 3cad 83be c27c b5be 303a 383e ada4 56bb
00000090: 0db0 9fbb 0ac8 80be 12ef 63be 7001 313e
000000a0: 4ff2 9ebd 0836 3bbe ae8a 71be d8c0 c2be
000000b0: bdca 113f 70ed 003f e28c a73c c3d0 0a3f
000000c0: 56d4 a93e a12c 263f 860a 85bd db3d 043f
000000d0: b5b6 a03d 508d 27be cba6 193d 1123 94be
000000e0: 33fc 183e 6466 1b3f 7dea 723e c544 f7bd
000000f0: cd41 06bf 61d9 efbe 6234 0abc 1d01 0b3e
00000100: da78 653c 999e ebbd c59e 23be 63b1 86bf
00000110: 5577 2e3e f05c 0f3e eea8 6e3d 2feb 2fbf
00000120: 8468 c7bd 120d dabd 0fcb f9be a429 6cbe
00000130: c2e4 4cbe 3a59 823d 2d7c 8b3e 076b dd3e
00000140: 4ce1 b9be 45b4 373f 15c9 13be eefa a63e
00000150: ba21 08bf f9d5 9dbd a5f5 65be e819 873e
00000160: c5bf 943d 9e11 e73e c080 873e 84ac 133f
00000170: d711 4d3d ab83 10be f68b 57bd 0323 e33c
00000180: 841b eabd 3995 50be 16c0 90be be8a 663f
00000190: 5ddc 02be c482 be3d 65c8 d23e 2978 3ebe
000001a0: 985a dbbd 6a9c 883e 92a4 64be 7d90 813f
000001b0: 98ea dc3e 901d b83d e931 e33e dafd d83e
000001c0: 56fb f3be 51a5 20bf cde3 aa3e 4469 06bf
000001d0: 2746 00be 4f8e 44bf 2713 0c3b 649b f8be
000001e0: b0d9 87be bc79 53be c745 02be 1133 95be
000001f0: 9b7c 0fbe b193 47bf 135e 77be 3a5b 69be
00000200: 17b7 bcbd 26cd 8fbe 34e7 44be 2eaf 613f
00000210: 9e7c f0be e9df a9be bd21 953e b92c d93e
00000220: aeb2 e2be 0964 acbe b9c0 3a3e 3940 7f3f
00000230: 72ad adbe 6eab b03e 4816 ff3e 8a72 7cbe
00000240: 1f06 f63d 8218 15be 50dc 0d3f 377c fd3d
00000250: be4b ca3d d61d 91be 24de babe f75d 97be
00000260: 262f 633b d4ca 20be 0c5a 01be 3fe8 96bd
00000270: 8418 c23d 9d77 3ebe 3944 91be 5ffb 163f
00000280: c7dd 053e 921a 96bd 9785 493e 904f 1d3f
00000290: fc6c 253f 49aa 023f 9ad3 c8be e223 323f
000002a0: 16ff 5e3e a5d8 863e bb82 aebe fdf5 cbbe
000002b0: c028 18bf 4fc4 42bf 85d6 bd3e 95fe b2be
000002c0: 17f7 ca3d b7cb 013e ff6e 6d3e e67e 21bf
000002d0: 1fd1 17bf 260c 83bf b4a8 78be 8da2 38bf
000002e0: d0d6 57bd 7971 1cbe bb62 c63c 23ef 023e
000002f0: b99c e13d 691d 3b3e c79b 91be b376 38bf
00000300: 0ac7 07bd 5b4f 303e 7f07 463c 5b69 803f
00000310: 52f0 8fbe b5d9 d2be b524 72bd 79f1 c03e
00000320: 0730 6abe 4a09 02bf 56c0 27bf d1e0 fd3e
00000330: 4e93 103c 1898 f23d 04e9 653e 6e16 6cbe
00000340: e48f a2bd 72a1 87bf c98e b83e 70d6 87be
00000350: daf1 073f a6e4 8a3f 7177 29bf f0c3 d4be
00000360: ad76 513e b1c0 9cbe 0cd2 c6bd fe0c ab3e
00000370: 8ecb a43e 4677 893e acf2 b2be 6916 22be
00000380: 07e7 abbd 2a44 ab3d 26d3 e3be d010 0ebf
00000390: 871c 8abe 8890 8b3d 84f1 dd3d 631e 0f3f
000003a0: 49ae 59be 8776 8fbe 0c06 8f3e 1933 efbc
000003b0: ef4b 29be 307b 61bc e46a 2c3f 990a 3c3f
000003c0: 23ee 8c3b 3ee4 473d 7539 ea3e 5ccf 103f
000003d0: a7b5 943d 8957 a03e 3627 bdbe 2581 29be
000003e0: 7c8a f63d cd11 6ebc a19c 193d daad 4ebe
000003f0: 9bc7 de3c 7e02 6d3e c79f 11bf d387 4dbe
0.63230425 0.2057754 -0.34506005 -0.31401062 -0.031376626 -0.2018696 -0.58935463 -0.26338923
-0.24170718 -0.39071736 -0.30252734 0.8053156 -0.79971296 -0.2215028 0.20620658 0.75963026
0.15373537 -0.18688267 0.1962943 -0.1706685 0.7347867 0.039891057 0.09079094 -0.41081914
0.08712774 -0.087669656 0.22229643 0.11677559 1.0675788 0.29175597 0.0191394 -0.30674687
-0.25718105 -0.35446745 0.17990947 -0.0032751963 -0.004873282 -0.25152618 -0.22259167 0.17285705
-0.077610604 -0.1828233 -0.23588058 -0.38037753 0.5694998 0.503623 0.02045292 0.54224795
0.33169812 0.6491185 -0.06496148 0.51656884 0.078473486 -0.163625 0.03751258 -0.28933004
0.14939956 0.6070311 0.23722263 -0.120736636 -0.52444154 -0.46845534 -0.008435341 0.13574643
0.014005864 -0.115048595 -0.15978535 -1.0522884 0.17037709 0.14000297 0.058266573 -0.68718237
-0.09736732 -0.10647024 -0.48787734 -0.2306276 -0.20009139 0.06364675 0.27243176 0.43245718
-0.363047 0.71759444 -0.14432175 0.3261332 -0.5317646 -0.07706828 -0.22456987 0.26386952
0.0726314 0.45130628 0.26465416 0.5768511 0.05006584 -0.14112727 -0.05262371 0.027726656
-0.114310294 -0.20369424 -0.2827155 0.90055454 -0.12779374 0.09302285 0.41168514 -0.18600525
-0.10710639 0.26681834 -0.22328404 1.0122219 0.4314773 0.089900136 0.44374016 0.42381173
-0.47652692 -0.6275225 0.33376923 -0.5250437 -0.12526761 -0.76779646 0.002137372 -0.48556054
-0.2653327 -0.20651907 -0.1272193 -0.29140523 -0.14012377 -0.77959734 -0.2415698 -0.22788706
-0.09214609 -0.28086203 -0.19228822 0.8815793 -0.46970075 -0.33178642 0.29127303 0.42416933
-0.44276947 -0.3367007 0.1823758 0.9970737 -0.3392139 0.3450579 0.49821687 -0.24653068
0.12012886 -0.1456013 0.55414295 0.12377208 0.09877728 -0.28343076 -0.36497605 -0.29563877
0.0034665554 -0.15702373 -0.12632006 -0.07368516 0.09477332 -0.18600316 -0.28372362 0.5897731
0.13072883 -0.07329287 0.19679867 0.6144953 0.6461942 0.51041085 -0.3922394 0.69586
0.21776995 0.26337162 -0.34084114 -0.39836112 -0.5943718 -0.76080793 0.37077728 -0.34959856
0.0991041 0.12675367 0.23186873 -0.63084257 -0.5930347 -1.0238082 -0.24283105 -0.7212303
-0.052695096 -0.15277661 0.024217 0.12786536 0.110162206 0.18272938 -0.2843916 -0.7205612
-0.033148803 0.17217772 0.012086748 1.0032152 -0.28113037 -0.41181722 -0.059117038 0.3768423
-0.22869883 -0.50795424 -0.65527856 0.49585584 0.008824183 0.11845416 0.2245217 -0.23055431
-0.07937601 -1.0596144 0.36046436 -0.2653079 0.5310341 1.0851028 -0.6619788 -0.41555738
0.20455427 -0.30615762 -0.09708032 0.3340835 0.3218655 0.2684881 -0.3495077 -0.15828861
-0.08393674 0.08362611 -0.4449703 -0.55494404 -0.2697489 0.068146765 0.10837081 0.5590574
-0.21257891 -0.28020117 0.279343 -0.02919917 -0.16532873 -0.01376228 0.673506 0.7345367
0.004300849 0.048801653 0.4574696 0.56566405 0.0726121 0.31316784 -0.36943978 -0.16553171
0.120381325 -0.014530611 0.03750289 -0.20183507 0.027194789 0.23145482 -0.56884426 -0.20071344

bias f4 [8]
00000000: 68ed cb3b 05a7 d33e c488 abbc 0ed0 5abd
00000010: b5d3 013e f87b 0c3e ab68 a9bd 4ebf 88bc
0.0062233694 0.41338363 -0.020939238 -0.053421073 0.12678416 0.13719165 -0.08271917 -0.016692784

weight f4 [16, 16]
00000000: 9d83 4e3d 4e4c d9be 90f1 babd 7e46 afbe
00000010: 74e1 41be 1eed e4be 8317 8a3e c3b2 0b3e
00000020: f211 dcbe b758 bfbe e240 38be a24b 71bc
00000030: 2c5a bdbe 268e 4c3e f5f7 c6be 808c c93d
00000040: 9b8a a5be d8a6 1c3f c443 f33e f12b b6bd
00000050: a4b4 f63e 96a1 debd e39f a43f 2dfe 403e
00000060: 1d09 b4be e146 f33e b22e 24bf 8e12 67be
00000070: b828 aa3c 3b71 04bf 623d 26bf 522c 4bbd
00000080: d7d9 c8bd 889b 30bc 6d20 99bd c8c6 fe3e
00000090: 1101 a73e cb44 7e3e 4eb1 2c3f 52c9 a0be
000000a0: b04c 283d e89f 3e3d 3cc2 6b3d d14f 593e
000000b0: 7375 6d3e 3f9f b8be dc13 b83e 4b4e d1bd
000000c0: 726e 4ebe 5c25 4fbf b052 cb3e 7fb7 983e
000000d0: d6b5 b83e 580b a4bb 8f94 453e 0a2a 33bf
000000e0: 3429 20bf 7697 0a3f 1f24 983d 89f1 8dbf
000000f0: f0a8 253f 08e0 7cbf cd06 843e a3b3 97be
00000100: b425 a23e 57b2 893e c00c cd3e 2f2f ac3e
00000110: b1d7 0c3e d23b eb3e f3b6 b43e 939e 5d3e
00000120: b4ac 90be a3d7 80be f8d0 163e 7d99 0e3f
00000130: ca60 ef3d 9478 183f 49b8 023e 9912 313e
00000140: cb96 803e 7970 e93e a615 0bbf dfe5 8ebe
00000150: 4a64 a13c 7442 7a3e 9b77 913f d63d 36bf
00000160: ccfa cc3c d466 273e 5c97 c0be f875 eb3e
00000170: 4848 8d3e 36bd bfbe d18b 30bf c759 073f
00000180: d78c b2be 1c0e e13e 49ab 7d3d 7013 22be
00000190: f476 693d 2b56 2bbd ae46 cebd b7de 3b3f
000001a0: ede7 0a3f 2d8f 67c0 b34c ebbd 61e8 27bf
000001b0: 5be1 9abe 8002 97bf d5a5 fb3e 1188 62bf
000001c0: b6c8 5abe 0de3 5abe d7d6 263d 080c 093f
000001d0: 6100 a6be a73d bb3b 6b40 51be 380a 93be
000001e0: 2279 1fbe 7ee8 fe3d a71e edbd 0afc a53c
000001f0: e6b5 93be f3f2 713d 7202 983e 78cc 183e
00000200: 5adf 0d3e 442f d63e 5af3 2a3e 16bc 043f
00000210: 7cc9 863d c347 d33e 9f21 fd3e f903 0a3e
00000220: 7aff af3e 023b c43e a125 ffbb c6b7 753e
00000230: 2831 3e3e 8876 8c3c aba7 323e 8828 3ebf
00000240: bc46 583e c4b5 34bf 7847 883e b6d9 203e
00000250: c9ce 86bd 292c 9d3d cbb0 3fbf 4fdb 5cbf
00000260: 47a1 0ebf c471 263e a6b7 473e debf a03e
00000270: 2b49 68be 72bb 4f3f 305d 1abe 0a0e c63e
00000280: 7e37 cabf 275c cfbe b6b9 483e 890b 283e
00000290: 3e34 af3c b4a3 05be ce6b 45bf 8e94 103f
000002a0: d525 f53d d9a5 86bf 46c1 16bc 0708 29be
000002b0: 3097 a33e f5a0 373e 7a76 f63d 3aae 333f
000002c0: 869b 963d e6a6 d4be 1212 3b3e ad59 933e
000002d0: 4d97 943d bf45 663e b363 b4be 9c73 8ebe
000002e0: f9cf 5cbd 00a1 aebe 0d74 ab3e e1e6 723e
000002f0: 4fba 263d 7270 f93e fd7b 4ebd 4155 603c
00000300: 61a4 34bd 8c2f 143e f625 8b3e f0d8 a93e
00000310: 5ea5 943e 065d 633e a626 5dbe 0467 27be
00000320: fc76 2b3e ebe5 873e adef e7bd 0ee0 ea3d
00000330: f92d 6d3e b04f d83e 73d3 43bd f31f a63e
00000340: aa2b 213f db25 983d ab4f 6fbf 308e d13e
00000350: d0bc 6a3e 3f46 da3d 315a 0e3f 4471 d5be
00000360: f4d6 b33e 8a3d 88be 15d2 6c3e d414 fb3e
00000370: 4ce0 2ebe b0e1 fd3e 8517 3b3f 70f0 b4bd
00000380: 9c03 38be abb8 eebd de88 ee3e a6d1 aabe
00000390: 8583 6d3e e1e7 13bf a6ca 113f 0c20 163e
000003a0: f5db 9b3e 42be a23c 0ea4 85be 04c8 58bf
000003b0: 79b1 17be 107f 28bf 7b8c 3ebf 9729 003f
000003c0: 3b3d c7be 8349 b23e 4f05 c6be 09de a13e
000003d0: 0191 b3be 4a48 0abf 7b5b 04bf 2d0b c13e
000003e0: ba74 9f3e 4e66 52bf d295 663e 6d08 1e3e
000003f0: 691f 923e d5dd 91be dc6b 383f 130c 77be
0.050418485 -0.42441028 -0.09128106 -0.3423347 -0.1893366 -0.44712156 0.26971063 0.13642411
-0.4298244 -0.37372372 -0.17993501 -0.014727505 -0.36982858 0.199761 -0.3886105 0.098412514
-0.3233231 0.61192083 0.4751264 -0.088951 0.48184693 -0.10870664 1.2861294 0.1884696
-0.35163203 0.47515014 -0.6413375 -0.22565672 0.02077137 -0.51735276 -0.6493741 -0.049602814
-0.09807175 -0.010779269 -0.07476888 0.49761033 0.32618 0.2483093 0.67458045 -0.31403595
0.04108876 0.046539217 0.057558283 0.21221854 0.23189335 -0.36058995 0.35952652 -0.10220011
-0.20159319 -0.8091638 0.39711523 0.29827496 0.3607623 -0.005006235 0.19294952 -0.6998602
-0.6256287 0.5413736 0.074287646 -1.1089336 0.64710903 -0.98779345 0.2578644 -0.2962924
0.3166939 0.26893875 0.4004879 0.33629748 0.13754155 0.45944077 0.3529583 0.21642523
-0.28256762 -0.25164518 0.14728153 0.55702955 0.11688383 0.5955899 0.12765612 0.1729225
0.25115046 0.45593622 -0.5432991 -0.27909753 0.019701142 0.24439412 1.1364626 -0.71188104
0.025021933 0.1634782 -0.37615478 0.4598844 0.2759421 -0.37449044 -0.6896334 0.52871364
-0.34873077 0.43956077 0.06193093 -0.15827727 0.05699821 -0.041830223 -0.10072075 0.7338671
0.5426014 -3.6181138 -0.114892386 -0.6558896 -0.30250058 -1.1797638 0.49149957 -0.8848887
-0.21365628 -0.21375675 0.04073223 0.53533983 -0.32422164 0.0057141366 -0.2043473 -0.28718734
-0.15573552 0.12446688 -0.11578112 0.020261783 -0.28849715 0.059069585 0.29689366 0.14921749
0.13854733 0.41832936 0.16694394 0.51849496 0.06581399 0.41265687 0.49439713 0.13478078
0.343746 0.3832627 -0.007786468 0.23995885 0.18573439 0.017146364 0.17446773 -0.74280596
0.21120733 -0.7058985 0.26617026 0.1570805 -0.0658241 0.076744385 -0.7487914 -0.8627214
-0.5571484 0.16254336 0.1950365 0.31396383 -0.22684161 0.81145394 -0.1507461 0.38682586
-1.5798185 -0.40499994 0.19602093 0.1641065 0.021387216 -0.13050729 -0.7711762 0.56476676
0.119701065 -1.0519363 -0.009201353 -0.16506968 0.31951284 0.17932494 0.12034316 0.70187724
0.073538825 -0.41533583 0.18268612 0.28779355 0.07255421 0.22487544 -0.35232314 -0.27822578
-0.053909276 -0.34107208 0.33486977 0.23720886 0.04070502 0.487186 -0.050411213 0.013692201
-0.044102076 0.14471263 0.271774 0.33173323 0.29032415 0.22203454 -0.21596774 -0.16347891
0.16744608 0.265426 -0.113250114 0.11468516 0.23162068 0.42248297 -0.047809076 0.3244625
0.6295725 0.07429095 -0.9348094 0.40928793 0.22923589 0.1065793 0.5560637 -0.41687977
0.35124934 -0.2660945 0.23127015 0.49039328 -0.1707775 0.49586248 0.7308276 -0.08834922
-0.17970127 -0.11656316 0.46588796 -0.33363074 0.23194702 -0.57775694 0.5694984 0.14660662
0.3044125 0.019866113 -0.26101726 -0.846802 -0.14813794 -0.6581888 -0.74433106 0.5006346
-0.38913903 0.3482171 -0.38675925 0.31614712 -0.35071567 -0.54016554 -0.5170209 0.3770384
0.31143743 -0.82187355 0.2251809 0.15432902 0.2853959 -0.28489557 0.7203958 -0.241257

bias f4 [16]
00000000: 79ca 2ebe 9dba 17bf 857f 323f db1c 8fbf
00000010: 4d42 b73f fafa 0fbd 5e70 d33e e689 203f
00000020: 88ba 503f 7cd8 b6bd 08f8 bdbd ee48 aa3f
00000030: 8115 a33f 32a5 1ebf 7c48 3c3e 2358 e53e
-0.17069425 -0.59269124 0.6972583 -1.1180681 1.4317108 -0.03515146 0.41296667 0.62710416
0.81534624 -0.0892801 -0.09275824 1.3303506 1.2740937 -0.6197082 0.18387026 0.44793805

weight f4 [5, 16]
00000000: d477 ecbe cd3a 85be 980e af3e c2c6 c7be
00000010: a1a1 903e 4d3c 933e 71c2 cf3e 9993 f53d
00000020: 9376 923e 7257 3ebc da71 96be c9eb dd3e
00000030: e339 b83e 1d78 e9be ebfe 483f dda2 1b3f
00000040: c4ed d0be 1c2e 63be a5ff 5e3e 8f10 aabe
00000050: 7e26 c73e a1a7 7f3e 90b5 cd3e cc94 7b3e
00000060: 4b8c bb3e 2f1f adbd 98a0 1ebe f65e ba3e
00000070: 9d98 a23e 5aba b7be 663f 473f cc47 e73e
00000080: 1a60 543e 235a 5fbe f4bd b03e 6bac 99be
00000090: 1ae2 be3e a148 7cbe ab3e b73e d422 edbd
000000a0: 2197 f53e d442 023e 30ec 463d e02c cb3d
000000b0: 48b8 973e 0aee 3bbe b02a 2b3f 9322 483d
000000c0: e83a b6be e150 10be 1e02 123d 63fe 33be
000000d0: f15f 023f 3236 db3e 0d10 713e 728d 2d3e
000000e0: bef0 403d 6e21 e2be 0910 47be 3584 103f
000000f0: dd5c da3e d11c 91be 5a48 ca3e 90bb 253e
00000100: 7650 09bf a187 aabe a1e2 b83e 4fec dfbe
00000110: e4d1 ae3e 1525 ae3e 05e2 d03e b128 a53e
00000120: 0dd8 8a3e cd6a 4abd 14c9 70be 0d74 a73e
00000130: 77e5 ce3e 1c1e c6be 3717 6b3f db24 1e3f
-0.46185172 -0.26021424 0.34190822 -0.39018828 0.28248313 0.28756943 0.40578035 0.11991043
0.2860609 -0.011617528 -0.29383737 0.43343952 0.35981664 -0.45599452 0.78513974 0.60795385
-0.408064 -0.22185558 0.21777208 -0.33215758 0.38896555 0.24966289 0.40177584 0.2456848
0.36630473 -0.084532134 -0.15490949 0.36400574 0.3175706 -0.35884362 0.77831113 0.45171964
0.20739785 -0.21811728 0.34519923 -0.30014357 0.37281877 -0.2463708 0.3579 -0.115789086
0.47966865 0.12720805 0.04856509 0.099206686 0.29632783 -0.18352523 0.6686201 0.048861098
-0.35591817 -0.14093353 0.03564655 -0.1757751 0.50927645 0.42814785 0.23541279 0.16948488
0.04710459 -0.4416613 -0.1943971 0.5645173 0.42648974 -0.28342298 0.39508325 0.1618483
-0.536384 -0.33306602 0.36110404 -0.43734977 0.3414451 0.34012666 0.4079744 0.32257608
0.2711796 -0.04941826 -0.23514205 0.32705727 0.40409443 -0.38694847 0.918323 0.61774987

bias f4 [5]
00000000: 09a0 a63f 68c9 2d3f 6b8f 5f3f fff2 a13f
00000010: 913f 1a3f
1.3017589 0.67885447 0.87328213 1.2652282 0.60253245
